p3_collab-compet/checkpoint_critic.pth (torch_old, 47583 bytes, 5 tensors)

fcs1.weight f4 [128, 24]
000000 43 48 d7 3f 8b c7 5b bf 81 22 ba 3d bd f4 ab 3e
       1.6818928 -0.85851353 0.09088612 0.33585158
000010 5b 75 cf be df a0 18 41 cd 34 c6 3d a7 b8 93 3e
       -0.40519223 9.539275 0.0967804 0.28851816
000020 cc 6f 62 3f c9 13 b2 3e 84 89 e3 bd 8b cf 72 40
       0.8845184 0.3478072 -0.111102134 3.7939174
000030 b4 cb 25 40 dc 3b 62 c0 cf d9 53 be e7 fe 77 40
       2.590558 -3.5349035 -0.20688556 3.874933
000040 be 1e 35 40 57 4a 9c 3f 58 46 04 3f ce fe 1c 3e
       2.8300014 1.2210187 0.51669836 0.15331575
000050 d8 f6 00 40 9c ce 8b c1 5e ef fb 3e fd 08 8a 3d
       2.0150661 -17.475883 0.4920606 0.06739996
000060 35 45 a6 c0 3d e7 a6 bf 1a c4 43 be 5f 48 18 c0
       -5.195948 -1.3039318 -0.19117776 -2.3794172
000070 3e ed 78 40 30 f1 b8 bc d6 a3 5c be 49 af 1b c0
       3.88948 -0.022575945 -0.21546873 -2.4325736
000080 e1 51 6b c0 a3 82 bf bf 9c c4 72 bf 8c 37 93 3e
       -3.6768725 -1.4961742 -0.9483125 0.28753316
000090 8d b0 f0 40 04 40 3d c0 2a f3 6b bf 58 f4 bc 3e
       7.5215516 -2.9570322 -0.92167914 0.3690517
0000a0 67 0f 86 c0 1e 3e 3a c0 0b 5e 4d c0 8e e0 d2 3c
       -4.18938 -2.9100413 -3.208865 0.025741842
0000b0 fb fe 4f 40 cd 76 51 bf 7b 32 47 c0 d5 48 5b 3c
       3.2499378 -0.818219 -3.112456 0.013384064
0000c0 0d e8 69 c0 63 86 65 40 96 b3 d1 3e a4 11 9f bf
       -3.6547883 3.5863273 0.40957326 -1.2427258
0000d0 fb 17 26 c0 13 2c ac bf bc dd e5 3e 60 d3 93 bf
       -2.5952137 -1.345095 0.44895732 -1.1548882
0000e0 97 53 4c c0 f9 78 5c 40 9f 9a 85 bf 42 a1 db bf
       -3.192602 3.4448836 -1.0437812 -1.7158587
0000f0 20 49 d1 c0 95 a2 0f c1 b3 60 96 bf f6 08 e6 bf
       -6.5401764 -8.977193 -1.174826 -1.7971485
000100 16 f4 7b c0 05 dd 9b 40 28 ad 9a bf c5 e2 a0 be
       -3.9367728 4.87073 -1.2084093 -0.3142301
000110 41 df 81 c0 04 13 00 40 6c e2 98 bf 1f 05 c2 be
       -4.0585027 2.0011606 -1.1944098 -0.37894532
000120 ee 4b 22 3d 00 4c 83 3f 6e de e4 3c a4 c4 f7 bd
       0.039623193 1.0257568 0.027938094 -0.12098053
000130 fe f6 46 bf 35 ef a9 c0 53 1f 69 bd 96 15 a7 bd
       -0.7772063 -5.31045 -0.05691464 -0.08158414
000140 8c 81 19 bf f9 ad 41 be f5 bc 0d bd e6 16 2a 3e
       -0.599633 -0.18914022 -0.03460403 0.16610298
000150 ea d0 5a c0 59 4d 07 c0 ca 80 e8 ba da 5e 42 3e
       -3.419001 -2.114096 -0.0017738577 0.18981495
000160 13 6c 0e bf d8 8e c7 3f 9e 74 23 3d 27 a1 50 3e
       -0.5563366 1.5590467 0.039906137 0.20373975
000170 31 f3 8e 40 af e6 22 41 3e 89 79 bd b9 b8 4e 3e
       4.4671865 10.181319 -0.0609219 0.20187654
000180 92 92 17 40 9e e6 29 41 06 0a 66 3c 31 aa 23 bf
       2.368321 10.618803 0.014040476 -0.63931566
000190 c1 50 78 c0 11 58 e5 40 d2 c0 6a bc b3 cf 22 bf
       -3.8799288 7.1670003 -0.0143281985 -0.63598174
0001a0 20 31 2a 40 1a ab 3c 41 68 e6 62 3d 20 55 a6 40
       2.6592484 11.791773 0.055395514 5.197891
0001b0 5c 21 01 c0 81 3c ed bf 98 92 52 3d 58 ce a8 40
       -2.017661 -1.8534089 0.051409334 5.2751884
0001c0 2d 2a 45 40 f1 4b 3c 41 f9 e3 47 3e 7c aa 2c c0
       3.0806992 11.76854 0.19520558 -2.6979055
0001d0 cd 5a 26 bf 23 8a 9b c1 a9 2d 40 3e bc ad 2d c0
       -0.649823 -19.44245 0.18767418 -2.713729
0001e0 77 09 33 3f c4 2c 07 c0 4b 2e 82 be df d5 91 bf
       0.6993632 -2.1121073 -0.25425944 -1.1393393
0001f0 9f 91 5b 3f a6 68 30 3f 21 bc 18 be f5 f8 88 bf
       0.85769075 0.6890968 -0.14915515 -1.0700976
000200 6c 8b 55 bf fc 06 18 40 78 b0 ee 3c 35 0e 18 c0
       -0.83415866 2.3754263 0.029136881 -2.3758671
000210 6b 23 2f 40 c9 2a 0b 40 6c c2 d3 3c 7f 47 19 c0
       2.7365367 2.1744864 0.025849544 -2.3949888
000220 1e bd d6 bf bb c1 01 40 99 f9 f0 3e da 3f 19 c1
       -1.6776464 2.0274494 0.47065428 -9.578089
000230 02 0e ba bf cb 60 a1 bf 63 f9 00 3f 14 8f 19 c1
       -1.4535525 -1.2607664 0.50380534 -9.597431
000240 f5 a7 b0 bf fd f3 d4 3f 51 fa 66 3d ce 3a 7e bf
       -1.3801256 1.6636959 0.056391064 -0.9930848
000250 f1 37 88 3f 4e b4 26 40 77 37 4c 3d 14 f4 81 bf
       1.0642072 2.604755 0.049857583 -1.0152612
000260 2e 33 1e bf fe 69 02 3f da c2 cc 3d 6f 2b b0 3e
       -0.61796844 0.5094298 0.099981025 0.34408137
000270 ae 63 f3 bf 86 24 20 3f f2 17 ce 3d b5 70 e0 3e
       -1.9014795 0.6255573 0.10063161 0.4383599
000280 d8 38 26 be 9e 7d a9 40 85 46 e0 3c b5 c1 af 40
       -0.16232622 5.296584 0.027377376 5.492396
000290 c4 5f 4f c0 5b 4b 9e c1 5f 22 a1 3d 95 25 ac 40
       -3.24022 -19.786795 0.07867884 5.3795877
0002a0 13 41 8c c0 0b d9 85 c0 a0 9a 8d be bb ae 5a c0
       -4.3829436 -4.1827445 -0.27657032 -3.4169147
0002b0 e0 51 03 c1 75 da 63 40 4f 57 73 be d9 7d 5c c0
       -8.207489 3.5602086 -0.23763774 -3.4451811
0002c0 19 26 65 c0 12 09 36 bf b2 3d 8f 3e 49 20 81 3f
       -3.5804503 -0.7110759 0.27976757 1.0087978
0002d0 71 c9 13 c1 89 06 58 40 11 1d 1c 3e 48 ff 8c 3f
       -9.23668 3.3753989 0.15245463 1.1015406
0002e0 32 90 3d c0 9a 05 fb 40 54 46 2b 3d c7 69 64 3f
       -2.961926 7.844434 0.041815117 0.89223903
0002f0 e9 17 8c c0 f1 2a 46 41 c2 c2 e9 bd 37 f6 75 3f
       -4.3779187 12.385484 -0.114141 0.9607882
000300 c6 5d b9 3f b9 70 c4 c0 de f7 f8 bd de 89 f4 3e
       1.4481742 -6.13876 -0.12156652 0.47761434
000310 c2 f6 5c 40 23 0f 72 3f 3e 3c f7 bd be ac e6 3e
       3.452561 0.94554347 -0.12072037 0.45053667
000320 57 36 9c 3e d5 27 95 c0 ed 74 22 bf 4c 88 21 bf
       0.30510208 -4.6611123 -0.63459665 -0.630986
000330 c2 28 fc be 8b d2 7b 40 11 e3 11 bf b6 72 32 bf
       -0.49249846 3.9347255 -0.569871 -0.69706285
000340 38 9a 6e 3f 3f 4b 81 bd 86 c2 f3 be 2b 1c c0 40
       0.9320407 -0.0631318 -0.47609347 6.0034385
000350 58 2b 46 40 62 5a 7a 41 de fb e0 be d5 0e c0 40
       3.0963955 15.647066 -0.4394216 6.0018106
000360 f1 e6 3d 3f 96 d4 74 40 5a eb 00 be 42 60 2b be
       0.74180514 3.8254752 -0.1258978 -0.16735938
000370 54 6e ac bf 39 a5 a9 3f 84 cc d7 3b fe 62 8e bd
       -1.347117 1.3253547 0.0065856595 -0.06952475
000380 85 b7 b2 3f d7 ab 24 41 1e cf c6 bc 20 48 0e 40
       1.3962256 10.291953 -0.024268683 2.2231522
000390 a6 23 0d 40 85 b9 9f bf 79 2c 14 bd f6 6a 0d 40
       2.2053008 -1.2478491 -0.036175225 2.2096534
0003a0 ac 2e fd 3f 70 89 60 41 c9 5f 7d 3d 10 f1 4d 40
       1.9779868 14.033554 0.061858926 3.2178383
0003b0 38 91 27 3d cd a3 d4 c0 34 09 54 3e 84 aa 53 40
       0.040909976 -6.644995 0.20706636 3.3072824
0003c0 1f e8 a6 40 10 cb 53 40 f1 da 12 be f9 da 79 bd
       5.215835 3.309269 -0.14341332 -0.060999844
0003d0 7a 2b 4e c0 3f 3e cc bf 52 e9 43 bd dd ad dd bd
       -3.2214036 -1.5956496 -0.047829933 -0.108241774
0003e0 c9 43 35 40 e0 b6 97 bd 5b 40 2e 3c 54 30 9d bc
       2.8322623 -0.074079275 0.010635461 -0.019188084
0003f0 c3 c7 b1 c0 0f 92 ff 3f 71 59 90 3b df 88 82 3d
       -5.555635 1.9966449 0.0044051935 0.06373762

fcs1.bias f4 [128]
000000 56 1f 82 40 0e dd fe bf d5 bd ca c0 8e d8 c9 c0
       4.066325 -1.991121 -6.335673 -6.307685
000010 56 e2 1e 41 f5 b5 46 c1 55 a6 86 40 3e ce f3 40
       9.930258 -12.419423 4.207804 7.618926
000020 15 ad db bf 2d 5a 15 41 b4 1d 4a 41 90 ab 81 40
       -1.7162195 9.334516 12.632252 4.0521927
000030 66 cb 91 3f ee 55 97 40 ff 58 1d c0 cb 34 18 41
       1.1390197 4.7292395 -2.458557 9.512889
000040 d8 f7 a3 3f 9c cb 31 c0 1f 88 d3 3f 76 63 94 40
       1.2810011 -2.7780523 1.6525916 4.637141
000050 7d 08 a6 c0 45 04 08 41 c5 02 2c c1 85 ec 87 bf
       -5.188536 8.501042 -10.750676 -1.0619055
000060 c1 cf b5 40 79 18 71 41 d8 78 e2 40 d7 05 c4 3f
       5.6816106 15.068475 7.0772514 1.5314282
000070 bd a2 72 c1 f4 35 f6 c0 8f a0 78 41 69 40 2a c0
       -15.164731 -7.694086 15.539199 -2.6601813
000080 bc ae 9a bd c1 d4 f8 c0 89 53 01 41 91 a3 84 40
       -0.07552859 -7.775971 8.082894 4.1449666
000090 46 ac c2 c0 2a 5e e1 c0 0d 38 54 c1 ff 27 16 40
       -6.0835295 -7.0427446 -13.263684 2.3461912
0000a0 1f 59 d2 40 1f d7 d5 40 a3 27 14 41 19 cc 35 40
       6.573379 6.68251 9.259677 2.8405821
0000b0 5a c2 c1 40 b6 28 fe 40 f0 95 bd be 44 a6 8f 3f
       6.0549746 7.9424696 -0.37028456 1.1222615
0000c0 e3 8e 0f 41 36 7e 0a c0 8a ae 23 40 fb c8 64 40
       8.972384 -2.1639533 2.557528 3.5747669
0000d0 02 2f 80 41 c1 90 91 41 1f 0b 67 41 69 24 f9 c0
       16.022953 18.19568 14.440215 -7.7856946
0000e0 f4 20 bd 40 95 e8 db 40 e2 17 b8 c0 e9 a2 1a 41
       5.9102726 6.8721414 -5.7529154 9.664773
0000f0 b1 c1 17 c0 41 15 3c c0 f0 d0 cc 40 f7 6e cb 40
       -2.371197 -2.9387972 6.400505 6.3572955
000100 0b 35 e1 40 17 99 72 41 5f ae 3c 40 03 45 7b 41
       7.037725 15.162375 2.9481428 15.704349
000110 ab 0c 4f c1 a8 ca d2 c0 87 58 04 41 e2 9b f1 40
       -12.940593 -6.5872383 8.271613 7.5502787
000120 9d 79 a1 3f 09 6e 89 c0 c3 de 35 41 a8 23 a5 40
       1.2615238 -4.294682 11.366885 5.1606026
000130 60 83 21 c1 a7 9f 20 41 64 9d 87 c1 a8 fa d4 40
       -10.094574 10.038978 -16.95185 6.6555977
000140 22 f9 ad c0 37 ce ba 40 da 44 f9 3f e6 60 4e bf
       -5.4366617 5.8376727 1.9474137 -0.80616605
000150 b4 e0 e0 40 64 11 b0 40 86 af 58 41 f3 36 a8 c1
       7.0274296 5.502123 13.542852 -21.02683
000160 b4 5a 31 41 7f 63 87 41 5e 56 03 c0 8c 9f 79 41
       11.084644 16.923582 -2.0521464 15.601452
000170 bf 07 c9 40 58 25 d6 bd c9 c2 ec bf 57 c6 6d 40
       6.2821956 -0.104563415 -1.8496944 3.7152307
000180 bb 4a 90 c1 af 28 0b 41 57 ba ab c0 83 2d 19 40
       -18.03649 8.6974325 -5.3664966 2.3934028
000190 dc 39 5e c0 f5 89 c2 c0 3f e4 b3 c0 d8 2e 34 c1
       -3.4722815 -6.0793405 -5.621612 -11.261436
0001a0 9f 33 f5 40 85 a7 82 40 b4 73 3d 41 39 14 96 bf
       7.6625514 4.082949 11.840748 -1.1724921
0001b0 32 11 4c 40 84 73 5b 40 77 4d bc 3f 42 01 23 41
       3.1885495 3.4289255 1.471114 10.187807
0001c0 6e 1f 6a bf 62 3f cd c0 1c 1f 98 3f e1 04 31 c1
       -0.9145421 -6.413987 1.1884494 -11.063691
0001d0 85 d4 b6 40 56 2d b9 40 fb 75 35 41 a0 a5 db c0
       5.7134423 5.786784 11.341304 -6.863968
0001e0 35 8d 11 c1 a7 66 02 41 5d c3 73 40 68 06 f6 c0
       -9.096974 8.150062 3.808799 -7.688282
0001f0 1e 8c fd 40 aa 8f db c0 59 18 8e c0 16 a1 fd 40
       7.923354 -6.861287 -4.440472 7.925914

fc2.weight f4 [64, 130]
000000 99 24 7e 3e e2 c9 1f 3f dd d0 85 3f 13 60 b1 c1
       0.24818648 0.62417424 1.0454365 -22.171911
000010 30 f9 11 c1 de 38 a6 40 b5 7e d4 c0 f2 ac 9b 3e
       -9.123337 5.194442 -6.640467 0.30405384
000020 8e 0f e4 3e ca 76 cc c0 83 34 4b c1 ff 20 c0 3f
       0.44543117 -6.3895006 -12.70032 1.501007
000030 f7 72 11 41 4c 9a 44 c1 c8 11 b0 3d dd cb 97 3e
       9.090568 -12.28767 0.085971415 0.29647723
000040 95 91 a5 be 54 3d a0 c0 bf 4d 94 c0 1e c7 12 bf
       -0.32337633 -5.0074863 -4.6344905 -0.5733508
000050 ee f0 ae bf a3 8d 85 c1 b2 a7 57 40 55 29 00 bf
       -1.3667276 -16.694159 3.3696103 -0.5006307
000060 ff f6 1b c1 b9 46 db bf ec 49 4d c0 34 45 53 40
       -9.747802 -1.7130958 -3.2076368 3.3010988
000070 25 2f 15 40 82 7b 8c 3f fe b1 88 be d1 57 a6 bf
       2.3310025 1.0975192 -0.26698297 -1.299555
000080 97 42 56 bf 15 25 dc 40 20 98 b5 3f 27 a6 ba bf
       -0.8369536 6.8795266 1.418705 -1.4581956
000090 5f 8c a6 3f dd 96 63 c0 30 e1 fa 40 55 a3 27 41
       1.3011588 -3.556083 7.8399887 10.477376
0000a0 af 28 12 40 03 16 5b bf 25 8c 1c c1 d5 ce 63 41
       2.2837331 -0.8558046 -9.784215 14.237996
0000b0 eb a3 28 3f 4b c8 02 bf d1 dd 26 40 ec 7d e3 bf
       0.6587512 -0.5108687 2.6072886 -1.7772803
0000c0 bf 29 31 c0 6f 55 90 c0 1b 5f 59 40 e3 fb cc 3f
       -2.768173 -4.510429 3.3964298 1.601437
0000d0 6f 4e ca c0 bd 65 ac c1 84 92 8c 3f 0e 81 40 3e
       -6.3220744 -21.549677 1.0982213 0.1879923
0000e0 5c 66 15 3f 95 1f 07 c0 21 91 bf 3f 21 cf de 3f
       0.58359313 -2.1113026 1.4966165 1.7406961
0000f0 c6 9c d9 3f 43 06 74 c0 3a 3c 33 40 8f eb eb c0
       1.7000968 -3.8128822 2.800551 -7.3725047
000100 ea d4 84 3f de b1 c8 bf 0e e7 c2 bd 74 20 9c c0
       1.0377476 -1.5679281 -0.095167264 -4.8789616
000110 11 41 59 40 ba 3f 62 bf a8 52 5f bf 55 be 64 c0
       3.3945963 -0.8837849 -0.872355 -3.574117
000120 21 5c 4a 40 49 1e e0 3f 31 1e ce c0 7a e5 87 be
       3.161873 1.7509242 -6.4411855 -0.26542264
000130 66 d7 55 40 1e 97 10 c0 fa d3 a1 3f 39 30 f0 3e
       3.3412719 -2.2592235 1.2642815 0.4691179
000140 53 0e eb bf 0c df 0c be 3d 3f 21 c0 cb 40 75 40
       -1.8363746 -0.1375696 -2.5194848 3.8320796
000150 e0 21 52 c1 c1 79 78 40 d3 1c e9 be 4f 5d 34 41
       -13.13327 3.8824313 -0.45529804 11.27278
000160 85 f6 ca 3f cc f1 0d c0 9a 7e 45 3f 43 38 22 c1
       1.5856482 -2.217883 0.77146304 -10.138736
000170 68 07 c0 bf 60 ab 56 c0 93 5f b8 c0 c5 34 14 41
       -1.500226 -3.35421 -5.761667 9.262883
000180 c8 a0 26 41 c1 5e 61 40 23 c1 55 bd 94 43 9f 3f
       10.414253 3.5214083 -0.052186143 1.2442498
000190 f4 ed 85 bd 0c b4 fd 40 1d 5f 2b 40 93 a2 88 40
       -0.065395266 7.9282284 2.6776803 4.2698455
0001a0 f8 cd 07 3f 7f 13 5a 40 9f e9 a4 c1 57 74 14 40
       0.5304866 3.40744 -20.614073 2.3196008
0001b0 be 66 86 3f 2d 04 d9 40 7e 50 11 41 b7 9f 6c 40
       1.0500104 6.7817597 9.082151 3.6972482
0001c0 8f 6a b3 bf d6 f3 c9 3e 8e 52 78 bf a2 75 0b c0
       -1.4016894 0.39443845 -0.9700097 -2.1790547
0001d0 fc 47 f3 3f b8 00 be bf 3a a4 48 bf 41 00 00 40
       1.9006343 -1.4843969 -0.7837559 2.0000155
0001e0 a5 ed 0a 40 89 8d 8c 40 ea f7 08 c0 14 33 90 40
       2.1707547 4.3922772 -2.1401315 4.506235
0001f0 03 11 8a 3f 4f b7 09 c1 23 bb af c0 b6 6b 27 40
       1.0786442 -8.607253 -5.491594 2.6159492
000200 87 96 cd 42 51 56 75 c1 2a ef 01 be 1d fd 3a bd
       102.794 -15.333573 -0.1268889 -0.045651544
000210 10 fd 26 bd e1 57 63 3c bf de 82 3e d5 8d 4d bd
       -0.040768683 0.013875932 0.25560567 -0.05018409
000220 86 4e 10 bf 51 c8 e9 3d 73 5f 7e be 41 14 bc b6
       -0.5636982 0.114151604 -0.24841098 -5.6051945e-06
000230 6a f0 20 be a0 ba cc bd 3e c7 0b bf 0d 9a c0 be
       -0.1571671 -0.099965334 -0.54600894 -0.3761753
000240 17 ec 0c 3e 95 21 0a bf 47 0e 23 be a3 f1 7c be
       0.13761936 -0.5395749 -0.15923415 -0.24701552
000250 ef 80 aa be a6 41 fa bc 5e 4e b9 bd 0c ef 2c 3e
       -0.33301494 -0.030548882 -0.090481505 0.16888064
000260 b4 68 09 3e 51 1e 52 be 42 ff 07 be 7d 31 63 3e
       0.13418847 -0.20519377 -0.13280967 0.22186847
000270 25 d6 26 be c3 f6 ab ba f3 28 b8 be 7e e1 25 be
       -0.16292627 -0.0013119805 -0.35968742 -0.161993
000280 5a eb 7b be f2 37 b1 bd d0 98 93 be 79 de 45 3d
       -0.24601498 -0.08653249 -0.28827524 0.04830787
000290 44 3c 64 be cb 97 51 be 4d ce e6 3c 27 66 d8 bc
       -0.22288615 -0.2046806 0.028174544 -0.026415898
0002a0 c1 7a 37 be ad da 17 bd 6f 9d 3c be f1 5b 2b bd
       -0.1791792 -0.03707378 -0.18419431 -0.04183573
0002b0 09 55 fe be f4 fb 34 3d a9 87 e5 bd 26 03 de bc
       -0.49674252 0.044185594 -0.11207516 -0.02710111
0002c0 22 24 b9 3d f9 75 1c be db 36 6f 3e a0 ec 3a be
       0.09040095 -0.15279378 0.2336077 -0.18254328
0002d0 31 3b 17 3e c6 84 22 bf af 47 83 3d 84 39 7a bf
       0.14768673 -0.63483846 0.06410157 -0.9774401
0002e0 8c 4e 3b 3d 85 f6 0f bf de c2 b9 be 95 e5 49 bd
       0.045729205 -0.56235534 -0.36281484 -0.049291212
0002f0 a3 42 e4 bd af c3 26 3d fc 54 11 3d ee a1 2f 3c
       -0.111455224 0.040713962 0.035481438 0.010719759
000300 ba fa 29 be c8 da 3b bd ac fb 45 3d 4a 26 43 be
       -0.16599551 -0.045862943 0.048335716 -0.19057575
000310 8d 7c 24 3e c8 30 82 3d a4 56 d6 bd 6c 79 97 be
       0.16063137 0.063569605 -0.10465744 -0.29584825
000320 b2 c8 5d be 05 fc 55 3d 86 1b 57 3e 76 56 c1 bd
       -0.2165859 0.052242298 0.21006593 -0.09440319
000330 d8 cd c2 3e 7a 48 d8 3c 77 78 c3 bd ed c0 1b 3d
       0.3804767 0.026401747 -0.09544461 0.038025785
000340 c2 2b a7 bd db b6 70 ba 0d 08 44 bd 93 fb 64 be
       -0.08162643 -0.0009182521 -0.04785924 -0.22361593
000350 28 22 1b bf 73 41 d9 be 1f 0b 8f be 80 1c 72 be
       -0.60598993 -0.42432746 -0.27938172 -0.23643684
000360 46 93 1d be 9a 69 7e be 75 d8 41 be 3e ac 55 bd
       -0.15388212 -0.24844971 -0.18930228 -0.052166216
000370 1f 3b 9f be f2 8c 3e be c6 65 f7 3d 93 1d 33 be
       -0.31099793 -0.18608454 0.120799586 -0.1749175
000380 46 8f be 3d b3 b4 5e bd 4e 3f d2 3b 19 23 77 3a
       0.09304671 -0.054371547 0.006416238 0.0009427532
000390 59 16 b1 3e 24 22 a9 3c e1 9b f5 be 92 ae 2f 3d
       0.34587362 0.020646162 -0.4797049 0.042891093
0003a0 b0 82 63 bd bb 36 06 be 39 92 f9 3c e4 c8 40 3e
       -0.055544555 -0.13106816 0.030465232 0.18826634
0003b0 99 7a c9 3d 12 f5 7d 3d 0c 82 c4 3d 01 b2 df bd
       0.09837837 0.062001295 0.09595117 -0.109226234
0003c0 8e 0c b2 3d d6 ad f4 bd 93 f4 82 bd f4 8e 64 be
       0.08693801 -0.11947219 -0.06394305 -0.22320157
0003d0 96 f2 f2 bb 13 a8 79 be b6 ae 3c be 2a 54 54 be
       -0.0074141724 -0.24380521 -0.18426022 -0.20735231
0003e0 89 e6 d1 bd 1c da e5 3a 56 71 83 be 6c 96 ca bd
       -0.10249049 0.0017536315 -0.25672406 -0.09891972
0003f0 92 2c 86 be 87 d6 29 be 8d d0 01 be ca b8 90 bd
       -0.2620588 -0.16585742 -0.12677212 -0.07066496

fc2.bias f4 [64]
000000 15 f8 72 c1 5d cc ce 3d 25 4a 8d c0 8a 26 3d c1
       -15.185567 0.10097573 -4.415301 -11.821909
000010 78 eb 03 c0 bf ea 41 41 18 1b e6 40 e3 96 d9 c0
       -2.0612469 12.119811 7.1908073 -6.799669
000020 50 3d 22 c1 20 43 16 41 06 f5 f4 40 ba e5 ad c1
       -10.139969 9.391388 7.65491 -21.737171
000030 16 96 fa 40 58 70 05 41 e3 8e aa c1 52 5e 2f 41
       7.830821 8.339928 -21.319769 10.960527
000040 c3 fd 92 41 9c bd fb 40 ed d1 49 41 56 56 71 c1
       18.373907 7.8668957 12.613751 -15.083578
000050 de 78 4e 41 27 20 55 41 a2 42 cb bf 66 f9 06 bd
       12.904509 13.32035 -1.587971 -0.03295269
000060 98 cd 66 c0 83 eb 38 bf 9b 24 56 c1 3c 25 69 3f
       -3.6062984 -0.7223436 -13.383937 0.9107244
000070 dc 7b ff 40 9b 6e da c0 a7 32 4b 41 a8 55 aa bf
       7.9838696 -6.8260016 12.699866 -1.330739
000080 8c 1f 44 c0 52 8b 24 41 98 e5 06 bd 00 a3 ef 40
       -3.0644255 10.284014 -0.0329338 7.4886475
000090 dc bc 4a 41 b1 91 88 40 13 23 da bd bd 87 66 c0
       12.671108 4.2677846 -0.10651221 -3.6020348
0000a0 33 cb f2 bd 08 18 d0 41 4c 30 af 40 cb d8 55 be
       -0.118551634 26.011734 5.4746456 -0.20883481
0000b0 2e d2 10 c1 f1 f2 51 41 ab 43 cf 40 8b 44 b3 41
       -9.051313 13.121812 6.4770103 22.408468
0000c0 9e 8f 29 41 17 8b c4 c0 7a ff 27 3d 2f b6 89 40
       10.597563 -6.1419787 0.041015126 4.303489
0000d0 76 83 91 3f ac 52 e8 be 7f b9 45 c0 8d ff 01 40
       1.1368244 -0.45375574 -3.0894468 2.0312226
0000e0 c7 a2 98 c0 8e 5b 04 c0 db 3c 1a c0 82 2c 64 bd
       -4.7698703 -2.068088 -2.4099643 -0.05570651
0000f0 44 90 78 c0 15 9f 3c 40 09 0e 09 bc 5c 32 03 c1
       -3.8838053 2.9472096 -0.008365163 -8.199795

fc3.weight f4 [1, 64]
000000 53 ef db c2 4a 69 e5 3e fd 04 01 c3 7f f3 dc c2
       -109.96743 0.44806892 -129.01949 -110.47558
000010 ac 5e 3e c3 4d 45 a3 41 b0 01 9c 42 11 18 fe c2
       -190.36981 20.408838 78.003296 -127.047005
000020 ee 69 06 c3 f6 19 c6 42 63 7d b0 42 f3 71 fb c2
       -134.41379 99.050705 88.244896 -125.72256
000030 33 59 d9 42 8c 8c af 42 20 d5 0b c3 1b c4 b0 42
       108.67422 87.774506 -139.83252 88.38302
000040 c7 16 ef 41 2b 5e db 42 34 1c f4 42 e4 0d b3 c2
       29.886122 109.68392 122.055084 -89.52713
000050 8d 39 ed 42 e0 4e 96 42 88 dc 0b c3 f5 4d 77 3f
       118.612404 75.15405 -139.86145 0.9660333
000060 c8 7b 02 c3 1f 43 a8 c2 13 cf f0 c2 e2 96 e9 c2
       -130.48352 -84.131096 -120.40444 -116.79469
000070 57 31 cc 42 f7 90 6c c3 de 7e 8c 42 b7 3a 8a c3
       102.09637 -236.56627 70.24779 -276.4587
000080 e0 b0 23 c3 4b b8 c4 42 a7 8f 17 40 f7 fe ee 42
       -163.69092 98.35995 2.3681428 119.49798
000090 77 db dd 42 a8 8e e3 42 39 f5 58 3c 3e 5f f5 c2
       110.92864 113.778625 0.013242059 -122.68602
0000a0 32 40 c6 be 7c 10 86 41 ff cb a3 42 6c 8b 5b bf
       -0.38720852 16.758049 81.89843 -0.85759616
0000b0 a4 87 c1 c2 37 73 90 42 fb 14 c0 42 f6 5e ac 41
       -96.76492 72.22503 96.04098 21.546368
0000c0 ac 78 e6 42 1e 36 10 c3 ce 4b 1e be 3a cf 02 43
       115.23569 -144.2114 -0.15458605 130.80948
0000d0 60 9b 39 c3 ae ec 6d c3 a8 9d da c2 71 df 82 c3
       -185.60693 -237.92453 -109.30792 -261.74564
0000e0 43 ae 2f c3 4e 85 f1 c2 31 fd a7 c2 91 76 99 3d
       -175.68071 -120.76036 -83.994514 0.07493318
0000f0 6e 4f b9 c3 b5 3c db 42 20 a9 76 3b 24 57 cb c2
       -370.62054 109.61857 0.0037637427 -101.6702
