p3_collab-compet/checkpoint_actor.pth (torch_old, 47328 bytes, 6 tensors)

fc1.weight f4 [128, 24]
00000000: d3b9 16be c126 cebe ae9f 033c b12c 5bbd
00000010: 8cba d9be dbee f23e 281a a83c 5720 80bc
00000020: cb6b efbd 79ed 1fbd bdf0 603b 56a3 2ebd
00000030: 7a61 abbd 92ca 73bd 7170 f53a 8c4b 223d
00000040: 99ee 2fbd ea90 03bd 3445 713b 3ef9 80be
00000050: 0639 893e 228e 4dbf 0316 fdbb 78bf 00be
00000060: 4d9d 15bd f818 0bbd a2f1 6cbd 5f42 15be
00000070: 19af b2bd 27b9 833d 743e a43d 8714 25be
00000080: 9b33 a7bd 1f85 9dbe ae0a 31bd 5272 b4be
00000090: 2de6 ebbd 8962 813e 93d3 2bbc c0eb bebe
000000a0: febd b8bb c9e8 35bf 198a 9d3d 9268 09be
000000b0: c985 873d 21c6 7fbe 1cf3 e73c e438 33be
000000c0: ebeb f93e 51ad 6fbf a134 863d 913d f03e
000000d0: e14d c93e 51cc 043f 8e5f 38bd 7350 e43e
000000e0: 8e1e f93e d78a 5abf ffac 163d ad8b 3e3e
000000f0: 916a da3e ade3 45bd 53b3 25bd ad59 743e
00000100: 055e 9d3e 599e 45bf e21f 9a3d 74d4 b6bb
00000110: aa41 ce3e 6d68 21be b9c1 e43c 1e85 6eb9
00000120: e883 623d ff9a 133f 67a0 88bd bde4 9a3d
00000130: dff4 f03e 0f87 a93d 649c 6a3c 060d 023e
00000140: 6a90 05be 0a91 943d a9c6 293d 89ba 0cbd
00000150: d301 c83e f823 46bb db09 36bd 39ba deba
00000160: 70b7 023e d64f 603d 06d7 be3d ecdf d23c
00000170: ce20 ac3e 4fb0 f0be eeea 233d 39de 3abd
00000180: c53c af3d 9c2f 393f e904 8abd e240 4e3e
00000190: 344c 62be b08f 8bbf ba5d 673c e4b7 3d3e
000001a0: 71e5 943d 2bdc 473f 66ac 83bb 854e 443d
000001b0: 85b4 96be 6256 7abf 601a 86bc 8718 1a3e
000001c0: 95a0 8cbd b40a 0f3e 0628 b2bd 9521 26bf
000001d0: 7472 afbe 2bae 10bf 72a9 593a 1185 12bf
000001e0: 80c2 b03d 4abd 1fbf b3a0 3f3d c22a 08be
000001f0: 8204 89be 52a4 d0be 1968 0dbd 3a5c b9bd
00000200: 5834 7f3e 1a11 79bf 0efc a53c 210f eabd
00000210: 23e0 613e a993 053c fc10 36bd 84e0 1fbe
00000220: 7ffe d03d a72a 8bbf 611a fa3b c3ab b43e
00000230: da75 4f3f a6b2 5ebd cd9b 403d 4ff8 db3e
00000240: f84b ce3d 7a43 56bd 4c05 483b 4433 f4be
00000250: 2743 6d3c 5ae5 453c 1044 db3c ff8c e0be
00000260: 69e8 183d 0912 bf3a fbc8 113d d1dc 813e
00000270: 7895 3ebe 83de dbbe a126 0a3d f42c 053e
00000280: 580c 35be e246 52bd b7ed 803d 61c0 c53e
00000290: cf2d 05bf ef21 2fbf dfc2 873d 4c39 003f
000002a0: 6249 1abe 5be9 48bf 2773 2bbd 4e2c e23c
000002b0: da3c 0abf 3f37 b13d 876d 113d 047c 81bc
000002c0: 1cd1 f73d 8fc0 64be a016 483d a924 fbbd
000002d0: 6a0e 8ebe 336a 21be 7840 073d 3774 49be
000002e0: 79c4 273d 8936 a4be 5751 2bbd 4ff8 56be
000002f0: 9cee 263e f79e e0bd 8790 e03c 6221 f9bd
00000300: 12bb 443e 2f46 45bf 5076 90bb b9af d8be
00000310: 1978 f63e 8c26 6abf 87d1 c0bc 1ddc c6be
00000320: 2b83 863e 1d5d 84bf 3acd 203c 0983 34bd
00000330: 9f9d 673e 96d9 1cbe 301e 1cbc 3b6d aabd
00000340: bba5 233f 4729 45bf e862 e43d ff61 0e3e
00000350: 4f63 1ebe e2ca 073f 06f6 b63d 8059 bc3d
00000360: ebd8 0fbd e668 8fbe fdaa bdbc e485 debd
00000370: 0bad 163f 3c6d 2fbf 2cad 913d 928e 07be
00000380: 49b1 a0bd 53ea 00bf bfff 553d a43b 94bc
00000390: 1eb5 6c3e d61e d3bd 9d4e 78bd 4485 31bd
000003a0: c2f9 8cbd d339 e0be 311c f13c 0583 d93e
000003b0: 9052 1a3d d09f 95be bf38 9b3a a354 c83e
000003c0: c018 773e ad8e 453f 4a34 89bd ee20 28be
000003d0: d27c b3be 80d7 353e fe1c d33c 8845 e0bd
000003e0: ec41 813c d16c 413f c877 3fbd b684 843e
000003f0: 387a 5d3e 983c 4f3d 6bb1 b23c 16af 4f3e
-0.14719324 -0.40263942 0.008033676 -0.053509418 -0.42525136 0.47447857 0.020520285 -0.01564042
-0.11690482 -0.03904483 0.0034323179 -0.042636238 -0.083682016 -0.059519358 0.0018725527 0.03962283
-0.042952154 -0.032120623 0.003681493 -0.25190157 0.26801318 -0.80295 -0.0077235713 -0.1257304
-0.036526967 -0.03395936 -0.057847627 -0.145761 -0.087248035 0.064317994 0.080197245 -0.16121112
-0.0816414 -0.30765626 -0.043223076 -0.3524347 -0.11518512 0.2527049 -0.010487455 -0.37289238
-0.005637883 -0.71058327 0.07692356 -0.13418797 0.06617314 -0.24977924 0.028314166 -0.17502171
0.48812804 -0.93623835 0.06553007 0.4692197 0.3931723 0.5187426 -0.045013003 0.44592628
0.48656124 -0.853681 0.036786076 0.1860797 0.4265943 -0.04831283 -0.04045422 0.23862334
0.30735794 -0.77194744 0.075256124 -0.0055795256 0.40284473 -0.15762492 0.027924405 -0.00022747039
0.055301577 0.5765838 -0.06671219 0.075631596 0.47061822 0.082777135 0.014319513 0.1270028
-0.13043371 0.072542265 0.041449223 -0.03435758 0.39063892 -0.0030233841 -0.044442993 -0.0016992755
0.12765288 0.054763637 0.09318356 0.02574154 0.33618778 -0.47009513 0.04001897 -0.045622084
0.08556513 0.7233827 -0.06739218 0.20141938 -0.22099382 -1.0903225 0.014121467 0.1852718
0.07270325 0.78070325 -0.004018354 0.047926445 -0.294346 -0.9778806 -0.016369998 0.15048419
-0.06866566 0.13968927 -0.0869904 -0.6489499 -0.34267008 -0.5651576 0.00083031424 -0.57234293
0.08630848 -0.6239821 0.046784114 -0.13297561 -0.26761252 -0.40750366 -0.034523103 -0.09050794
0.24922311 -0.9729172 0.02026179 -0.11428667 0.22058158 0.008152881 -0.04444979 -0.1561299
0.10204791 -1.0872391 0.007632539 0.35287294 0.810392 -0.05436959 0.047023583 0.42962882
0.10073084 -0.052310444 0.0030520735 -0.47695363 0.014481342 0.012078607 0.026765853 -0.4385757
0.03733102 0.0014577518 0.03559206 0.25363782 -0.18611705 -0.429432 0.033728246 0.1300543
-0.1768049 -0.05133713 0.062953405 0.38623336 -0.52023023 -0.68411154 0.066289656 0.5008743
-0.15067056 -0.7848107 -0.041857865 0.027609017 -0.539991 0.086531155 0.035504844 -0.015806206
0.12100431 -0.2233908 0.048849702 -0.12262852 -0.27745372 -0.15763168 0.033020467 -0.19673239
0.040958855 -0.32072857 -0.04182562 -0.2099316 0.1630196 -0.1096782 0.027412666 -0.121645704
0.19211987 -0.77060217 -0.004408635 -0.42321566 0.48138502 -0.9146507 -0.02353741 -0.38839808
0.26271948 -1.0340916 0.009814555 -0.044070277 0.22618721 -0.15317377 -0.009528682 -0.08321615
0.6392476 -0.7701611 0.11151677 0.1390457 -0.1546757 0.5304395 0.08933644 0.09196758
-0.03511898 -0.2800972 -0.023152823 -0.10865381 0.5885779 -0.68526053 0.07113108 -0.1323798
-0.078463145 -0.5035755 0.05224585 -0.018094845 0.23115966 -0.10308616 -0.060621846 -0.043339983
-0.06883575 -0.43794116 0.029432388 0.42482772 0.037676394 -0.2922349 0.0011842473 0.39127073
0.24130535 0.7717083 -0.066994265 -0.16418812 -0.35056168 0.17757988 0.02577066 -0.10950762
0.015778504 0.75556666 -0.04674509 0.258825 0.21628654 0.050594896 0.021813115 0.20281634

fc1.bias f4 [128]
00000000: 1a67 f13e a9ad 4bbe c64e b3be d129 80be
00000010: 7e26 b13d 80d8 3e3e dfb0 5ebf 4ed8 cf3e
00000020: f55b 08bf 24b2 8bbe ed57 373e b99d 6abe
00000030: 3090 213e 53c3 3e3c 23da f53d 6544 1c3f
00000040: c5f4 03bf 66ce 09be 1f99 043e 9834 09bf
00000050: 0f07 f2be 9e87 19be 0042 1bbe 2485 94bd
00000060: 7394 fbbe ddaa cf3d 127c 143f 88a4 113e
00000070: c100 1ebf a3c5 b8bd c9bb 483e 881f 203e
00000080: 9dcd 2d3e e20b 00bf 9bd7 19be 2261 283e
00000090: 73bc 0f3f 4953 c0bd 00c1 8c3e 99a2 05bf
000000a0: eebc 83be 2a93 953e 1f9c 90bf 050b d03d
000000b0: 9e2c 82be c5b4 123e 5d0a 1d3f b5e7 8c3d
000000c0: 909b 833f 75c3 0f3f b55e 35be c02f ad3e
000000d0: 8e49 2e3e 903d 0cbf b348 233e a639 2bbf
000000e0: d25a 823a 9799 3b3e b948 c5bd 9773 e93e
000000f0: 6be3 abbe b9e4 73be d470 3f3c 19c3 983e
00000100: b9ed 8bbe 60df a53e 1f2b 963e e06a e93d
00000110: 2a7c 90be f821 f33d eeb0 d33e 3509 80be
00000120: 93e2 0e3f fd4c 9bbf dc08 d23e dd2b bc3e
00000130: 5527 733d df14 52be c825 3b3e 17fd f4bc
00000140: 917b a3be 0b34 b93d a3ac 193f 89bd 92bd
00000150: 26fe 2ebf 94ca 39be 8b28 5a3f e22c 74bf
00000160: 8a96 44bf 24fa d93d dfe5 08bf 63b0 d33c
00000170: 3d38 15be 7123 f73e 7953 22bf 2eff 3b3e
00000180: e712 63bf 4678 04be 82b3 9bbe be3d 80bd
00000190: 7a57 9a3e 2e36 abbe 4d6a 073f 76b8 bb3d
000001a0: 203a 2b3f f4b8 e93d 9473 803d fec9 54be
000001b0: b220 0d3f 204a 623e e5bf 2abe 4ca3 013f
000001c0: ba12 0cbf fb5b 083e d053 2c3e 07a4 aa3e
000001d0: 6ab5 da3e fdd7 6f3f 16b6 523f ae5d 10be
000001e0: 816c 88bc a64c ef3d abff 8ebe 16c3 87be
000001f0: 4362 973e c1ad 5fbd e3dc e2be 8792 b9be
0.47148973 -0.19890465 -0.35021037 -0.25031903 0.0864992 0.18637276 -0.86988634 0.40594715
-0.53265315 -0.27284348 0.17904635 -0.22911729 0.1577766 0.011643249 0.12004497 0.6104186
-0.51545364 -0.13457641 0.12949036 -0.53595877 -0.4727101 -0.1499314 -0.15161896 -0.07251957
-0.49136695 0.101400115 0.58001816 0.1422292 -0.617199 -0.09022071 0.19602884 0.15637028
0.16972966 -0.5001813 -0.15023653 0.16443303 0.56146926 -0.093908854 0.27490997 -0.5220123
-0.2573008 0.2921384 -1.1297644 0.10158352 -0.25424665 0.1432677 0.6134394 0.06880132
1.0281849 0.5615762 -0.17711909 0.33825493 0.17020246 -0.54781437 0.15945701 -0.6688484
0.000994528 0.18320309 -0.09633011 0.45596 -0.33571944 -0.2381772 0.011684615 0.29836348
-0.27329805 0.32396984 0.29329774 0.11397338 -0.2821973 0.118717134 0.41345924 -0.25007024
0.55814475 -1.213287 0.41022384 0.36752215 0.05936368 -0.20515774 0.18276131 -0.029905839
-0.3193021 0.090431295 0.6002905 -0.07165057 -0.6835655 -0.18143684 0.85218114 -0.95380986
-0.76792204 0.10643414 -0.53475755 0.025840944 -0.14572234 0.48269227 -0.6340862 0.18359062
-0.8870072 -0.12936506 -0.3041039 -0.062617764 0.30144864 -0.33439773 0.5289658 0.091660425
0.66885567 0.1141223 0.06272045 -0.20780179 0.55128014 0.22098589 -0.16674764 0.50639796
-0.54716074 0.13316338 0.16828847 0.33328268 0.42716533 0.93688947 0.8230909 -0.14098236
-0.016653301 0.116845414 -0.27929434 -0.26516026 0.29567155 -0.054609064 -0.44309148 -0.36244604

fc2.weight f4 [64, 128]
00000000: 1238 3abd 6e15 bdbe 6070 a9be 71e9 793e
00000010: fc82 dc3d ecb9 b1be eaef 733e 23be 98bd
00000020: ad63 843e 0a26 d83d 63db 913e 74ca d6bd
00000030: c240 423e 3310 b03e eb2c 6b3e 204f 83bf
00000040: ef69 873e d929 633e 46c3 bd3c 7432 043e
00000050: d22a 95be 37da ee3c 1584 013e 14fc 5e3e
00000060: 0f5b a2bd 1e55 4c3e 15ba fc3e 6585 89be
00000070: 9bae d93d 82c5 4dbe 79ea 9abe a69e 7abe
00000080: 52d5 4a3e 0130 a23c e7f2 9c3d 3aac f2be
00000090: c82d 133e 827f b83d b6ad 603b 133b 30be
000000a0: 1e85 11bd 0e08 f03c 1267 a63e 84ae 073e
000000b0: 7ab9 6fbf 87ec aabc 7384 9dbf bdb8 913e
000000c0: 4093 1bbe abd9 f2be d3bc 51bf 0051 8c3d
000000d0: 0d22 c0be 6fbb 473e 23e8 35bd d4a3 4dbe
000000e0: 4161 4fbe d07b 81bf 4e77 b0bd 6d3d de3e
000000f0: 199b 9c3e b11a 063f 973a 92bd acf5 42bd
00000100: 7292 cdbd 396e ba3c 4b1b 35be 9876 123e
00000110: 9508 043d f6c6 9cbe 8fc9 edbc f3f0 e2bc
00000120: 6bd2 a4bc 59a7 4b3e e790 a03f 63f9 003e
00000130: a3c3 41bf 9fbf 0ebf a06d 493f d701 863d
00000140: e6ab 41be e68e cebe 3728 ee3d dcb0 393d
00000150: 871d 9e3e 6324 1ebc 4e67 75be 1602 7cbf
00000160: 49e6 e53e bea2 323e a439 903e 8517 9fbe
00000170: b09f 84be 1da2 3abe 2ae1 a33e 18aa 5cbd
00000180: ed2e f539 b863 98bd 988b 153c eac9 373e
00000190: 258d fa3d 533c 983e 020d 053e 6729 3cbe
000001a0: 11c1 bf3e d5bd c83d 1e69 b53d 78af 2e3e
000001b0: ac48 5f3e fb49 94bd e41e 84be 8919 fdbe
000001c0: e879 bdbd bba4 b3be b064 95be 4bfa 1fbe
000001d0: 0d38 9fbc f55f 76be 9f28 40be 1942 c2b9
000001e0: 965c 1a3f 97ee c03e c27d ed3d 11d3 3f3d
000001f0: 6a0d 4bbe e267 85be 880e 5cbe a3b1 2cbe
00000200: 1b9c 0f3d d42b 2c3e a96b 0c3e 365d e4bd
00000210: df04 07c0 f727 693e 6ce9 39bf 2d92 44be
00000220: 6cef 4a3c 7949 513e 5d32 b4bc 11ae ff3d
00000230: ecfb 97bd a7eb dcbe 3dfe 43bf dcaa 643e
00000240: 340a bdbd 860f f7bd 1be2 273e cec8 783d
00000250: 1883 0f3e dd2e 72bd cd5a aabe fd66 c2be
00000260: e932 8cbe fdc2 663e 928e 053e 0b20 553e
00000270: f24b 863c 531d 92bd 20bb 4b3e 1835 ca3d
00000280: 8c86 f1bd b31d e1bc 03b9 303e 7650 653e
00000290: e179 8a3e eb19 a8bd 8e1a a63e 39eb 9f3d
000002a0: 0a9a f73d f33a 9abe a990 02bf 5ed9 7fbd
000002b0: ca17 3bbe 4e2e 1b3d 5ec5 c2be d424 b5be
000002c0: 6540 a1bd 010d 51be b51f 8d3d 242e ea3d
000002d0: d7e2 223e aaac 923e 180b 3bbd 56fe cabe
000002e0: 31e0 fb3b 763c 12be ccc7 37bf e0eb cdbd
000002f0: f259 5c3d 7bb8 033e da99 d2bc a298 663d
00000300: 9da7 38be f8e3 5e3e 76e9 bd3d b815 2dbd
00000310: 6d47 51bf b17b a23e a844 403e e256 bf3d
00000320: 8558 64bd 23f3 31be ef0f 84bf 9a62 e2bd
00000330: b2ff ed3c d9e4 993d fb5c 7cbe 73b3 80be
00000340: 8aed 1abe 64e8 63bd 5d20 21be d820 dbbe
00000350: 0215 2bbe b101 393e 7422 2dbf f0f4 f83e
00000360: 1925 7ebe d3bb 3dbe ebc1 e23a 4d72 0a3e
00000370: 0c79 673e 3260 1ebf d581 1ebf 4de1 6cbe
00000380: 5b3a 373e b388 2a3f 0ea7 bd3e 0e14 55bf
00000390: d43c 38be 3090 1ebf 2825 1c3f c38e e7be
000003a0: cbba 593c d7a2 55bc d284 d5bc 5802 c9be
000003b0: 750b 0e3f 550c 12be 43fe ae3e 853b c53e
000003c0: e2c4 d0be 5673 013e e560 0d3e f911 cd3d
000003d0: 4c9e 0e3d 0c92 f63d db48 623e fa2a 1b3d
000003e0: ed6d 4cbe b7b5 783d ad9d 6f3d e75f d23d
000003f0: bad8 aa3e e6b0 3e3e 8492 3dbd 30e6 adbe
-0.04546363 -0.36930412 -0.33093548 0.24405457 0.10767171 -0.3471216 0.23821989 -0.07458141
0.25857297 0.105541304 0.2848769 -0.104878336 0.18970016 0.3438736 0.22966354 -1.0258522
0.26448008 0.22183932 0.023164403 0.12909871 -0.29134232 0.029156787 0.12648042 0.21775848
-0.07927524 0.19954345 0.4936072 -0.26859584 0.106290065 -0.20094875 -0.30257013 -0.24474582
0.19807938 0.01979828 0.076635174 -0.47397023 0.14372933 0.09008695 0.0034283227 -0.17210035
-0.03552734 0.029300716 0.3250051 0.13250166 -0.9364239 -0.020864738 -1.2306045 0.28461257
-0.1519289 -0.47431692 -0.8192875 0.06851387 -0.3752598 0.19505094 -0.044410836 -0.20082027
-0.20251943 -1.011591 -0.086165056 0.4340624 0.3058708 0.5238448 -0.071400814 -0.047597572
-0.10037698 0.022757636 -0.17686193 0.14303052 0.032234747 -0.30620545 -0.029026775 -0.027702784
-0.020119866 0.19888057 1.2544221 0.12595133 -0.7568914 -0.5576114 0.786829 0.0654332
-0.1891323 -0.40343398 0.11628764 0.045334682 0.30881903 -0.00965223 -0.23965189 -0.9844068
0.44902256 0.17444894 0.28168976 -0.3107263 -0.25903082 -0.18225904 0.32007724 -0.05387315
0.00046765004 -0.07440895 0.00912752 0.17948118 0.122339524 0.29733524 0.12993243 -0.18375169
0.37451985 0.098018326 0.0885794 0.17059124 0.21805066 -0.07240673 -0.25804818 -0.49433544
-0.092517674 -0.35086617 -0.2917838 -0.15622823 -0.019435907 -0.24060042 -0.18765496 -0.0003705181
0.60297525 0.3768203 0.11596252 0.046832148 -0.19829336 -0.2605582 -0.21489918 -0.16864638
0.035060983 0.16813594 0.13712944 -0.11150591 -2.1096723 0.22769152 -0.726218 -0.19196387
0.012386184 0.20438184 -0.021996671 0.124843724 -0.07421097 -0.43148538 -0.7655981 0.22330803
-0.09230462 -0.12063508 0.16394846 0.060738377 0.14014852 -0.059126724 -0.332724 -0.379692
-0.2738259 0.2253532 0.13042668 0.20813005 0.016393635 -0.071344994 0.19895601 0.09873408
-0.11793241 -0.027479982 0.17258076 0.22393975 0.2704611 -0.082080685 0.32442135 0.07808537
0.120899275 -0.301231 -0.51001984 -0.062463157 -0.18270794 0.037885956 -0.38041204 -0.3537966
-0.078736104 -0.20415117 0.06890813 0.11434582 0.15906845 0.28647357 -0.045664877 -0.39647168
0.007686638 -0.14280877 -0.7178924 -0.10054755 0.053796716 0.12863342 -0.025708128 0.056297906
-0.1803269 0.2176665 0.09273045 -0.04225704 -0.8174961 0.31734994 0.1877619 0.093427435
-0.05574848 -0.17377906 -1.0317363 -0.11053963 0.02905259 0.07514352 -0.24644844 -0.2513691
-0.15129676 -0.055641547 -0.15735002 -0.42798495 -0.16707233 0.18067051 -0.67630696 0.48624372
-0.24818839 -0.1852868 0.0017300224 0.13520165 0.2260477 -0.6186553 -0.6191686 -0.2313282
0.17893355 0.66614836 0.37041515 -0.83233726 -0.17991954 -0.6193876 0.60994196 -0.45226106
0.013289164 -0.013039312 -0.02606431 -0.392596 0.5548623 -0.14262517 0.3417836 0.38521972
-0.4077521 0.12641653 0.13806494 0.10013194 0.034818932 0.12039575 0.22098105 0.037882783
-0.19963808 0.06072017 0.05849998 0.10272198 0.33368474 0.18622169 -0.046282306 -0.33964682

fc2.bias f4 [64]
00000000: 2375 d2be 0ffa 98bd a110 313c f12b e5bc
00000010: 8dad aa3d d069 87bd bc3a a73e 8e15 01be
00000020: f2d3 72bb dc92 033f 2e2b 8c3d 4f75 483e
00000030: 0888 7ebe 6def c23a 66b9 cbbb ab74 2abf
00000040: 6dd9 9b3e 6ab1 d43b a616 35be 7457 ccbe
00000050: 5782 223f d38f 67bd d9c7 d53d c867 953e
00000060: 200d 803e e8ec b0be 1607 74be 950a 05bf
00000070: d208 8e3e 853a a73e 1c62 29be 7466 34be
00000080: e234 14bd e8da aabd 5c86 e3bd b8ce 403f
00000090: 72d8 84bc eb2c 8dbe 5a2c 023e 34e0 f23d
000000a0: a9bf 46be cb87 75be 1b87 9c3e 4764 84bd
000000b0: 63bd 01bd eb2f fe3d 0d20 9e3d 37c6 a63e
000000c0: 51b8 24bf 7d33 183e f674 5abc 0a1c eb3d
000000d0: b8d2 273e 6697 783e 62d7 f53d 10cd 4f3e
000000e0: 7b63 543e b606 a7bb 008c ef3d d676 e63c
000000f0: 8dd8 54bc 932a 053f 5f05 1b3d ec02 0c3d
-0.41104993 -0.0746957 0.010807187 -0.027975054 0.083338834 -0.06611979 0.32661998 -0.12605879
-0.0037052599 0.51395965 0.06844173 0.19576 -0.2485658 0.001487238 -0.0062171696 -0.6658427
0.3043932 0.006490876 -0.17684421 -0.3991047 0.6348013 -0.056533646 0.104385085 0.2918074
0.25010014 -0.34555745 -0.23830828 -0.5196927 0.27741104 0.32661834 -0.16541332 -0.17617208
-0.036183245 -0.08342534 -0.111096114 0.7531543 -0.01621649 -0.27573332 0.12712231 0.118591696
-0.1940905 -0.23977582 0.30571827 -0.06464439 -0.031674754 0.124114834 0.07720957 0.325731
-0.64343745 0.14863391 -0.01333355 0.114799574 0.16388977 0.24276504 0.12003972 0.20293069
0.20741074 -0.0050972356 0.11696625 0.028132837 -0.012991083 0.5201809 0.03784692 0.034182474

fc3.weight f4 [2, 64]
00000000: f258 5cbd cc00 833e 3489 5cbe ea77 b0be
00000010: 50eb 73be 68bb d5bf ed98 99be b7a0 a6be
00000020: 4128 8b3e 42cc a3be 450a 6c3e eeca edbe
00000030: e6d3 953e 36ef 8c3d 66c2 66be bb92 74be
00000040: 54bb 55b9 b635 123e 7205 43bf 1464 3bbe
00000050: 4578 1dc0 8fc9 5cbf 9258 6a3f 83a9 39bf
00000060: 007c b53e 3029 873e b74c 2abb f970 13bf
00000070: 3f00 a93e e469 ecbe 2328 a23e 2a25 0dbf
00000080: 60f4 6a3e 9890 33be acc6 0e3e fb0b ff3d
00000090: d86e 0dbe 5f23 6f3e 8c7d 9c3f 5e12 9e3e
000000a0: 0c2e 263e 461e b83e 184a aebe ffb0 6ebe
000000b0: 4675 b0be 7d5d 983e b376 e2bd eae2 c03e
000000c0: 4246 db3e cce8 54be 53b7 d03e ad74 05bf
000000d0: 9bab 0abe 91c4 553d 403d 84bf 6cdc 73be
000000e0: 99d6 1bbf 032f 7ebe b700 afbe 09be 113f
000000f0: aef1 fabe 71cf 143f b5f0 733e 4159 8f3e
00000100: 0750 b0bf 55bd 2f3f a8ac 31be b621 fabf
00000110: e041 9c3f d69a f9bf 947e 71bf a15c a03f
00000120: bf4c 72be 170f 1c40 b27d 9b3e 49f1 1ebf
00000130: 5f23 663f faeb 84bf d766 37bf 3188 06bf
00000140: c390 7c3f 903c 60bf 883b 98bf a983 34c0
00000150: 18fa 6ebe cd9b 49c0 eb14 13bf f23f 4ebf
00000160: 493c c63b 836d ddbf ffde d5bf c844 73c0
00000170: 2abc 2f3e ff13 893f 4208 dbbf a7fe a83f
00000180: 6e51 ee3f 0305 4240 ca25 1a3f 7149 aa3f
00000190: bd29 3cbf 3504 dabe ba14 24bf 6bea ec3e
000001a0: 8cf0 53c0 ee29 223e 7d25 423f c6ff cabe
000001b0: 72f2 5d3f 2f46 8e3e 32df d83e 779a a7be
000001c0: 75f8 e3bf 58bc 3dbf 667b 93bf b2a3 88bf
000001d0: 5539 e8bc 3f6f 213f fe8e e7bf 01d3 e73e
000001e0: c930 0d3d a68e 9bbf 2d4e 973f 3834 843e
000001f0: 186d 29bf 6936 b23f 248d 44bf beee a6bf
-0.053795762 0.25586545 -0.21536714 -0.34466487 -0.23820233 -1.6697817 -0.29999486 -0.3254449
0.2717915 -0.31991774 0.23050793 -0.46443886 0.29263228 0.06881563 -0.22535095 -0.23884098
-0.00020383048 0.14278302 -0.76180184 -0.18299896 -2.4604657 -0.86245054 0.915414 -0.7252428
0.35446167 0.2639861 -0.0025985667 -0.5759426 0.33008 -0.46174538 0.31671247 -0.5513483
0.22944784 -0.17535627 0.13942975 0.12453457 -0.13811815 0.23353337 1.2225814 0.30873388
0.16228503 0.35960597 -0.34040904 -0.23309706 -0.34464473 0.29758826 -0.11057796 0.37673122
0.4282704 -0.2079193 0.40764865 -0.5213116 -0.13542025 0.052189413 -1.0331192 -0.23814553
-0.60874325 -0.24822621 -0.34180233 0.56930596 -0.49012512 0.5812903 0.23822291 0.27997783
-1.3774422 0.6864827 -0.1735102 -1.9541538 1.2207603 -1.9500377 -0.9433377 1.2528268
-0.23662089 2.438421 0.30369335 -0.6208692 0.8989772 -1.0384514 -0.71641296 -0.5255156
0.9865839 -0.8759241 -1.1893167 -2.820536 -0.2333759 -3.1501343 -0.57453793 -0.8056632
0.006049667 -1.7299045 -1.6708678 -3.801073 0.17161623 1.0709227 -1.7111895 1.3202714
1.86186 3.031556 0.6021391 1.3303663 -0.7350119 -0.42581335 -0.64094126 0.46272597
-3.3115568 0.15836307 0.7583845 -0.39648265 0.8669807 0.2778792 0.42357785 -0.32735035
-1.7810198 -0.74115515 -1.1522033 -1.0674956 -0.02834765 0.63060373 -1.8090513 0.4527817
0.034470353 -1.2152908 1.1820732 0.2582109 -0.6618209 1.3922855 -0.76777864 -1.3041608

fc3.bias f4 [2]
00000000: 974a 54be 98a0 303f
-0.20731579 0.68995047
