p3_collab-compet/episode-4999.pt (torch_old, 39680 bytes, 66 tensors)

fc1.weight f4 [16, 24]
000000 2d 3f 3a 3e 7e 45 8d bd c2 f5 19 3d b9 58 2b 3e
       0.18188162 -0.0689802 0.03758789 0.16733064
000010 19 45 af be 3a 3d 58 3d 6e 0a 10 3d ab 93 33 3e
       -0.34232405 0.052792765 0.035166197 0.175368
000020 4f 85 5f bb e7 1c 5f bd f3 99 67 3d df 8c bc 3d
       -0.0034106558 -0.054470923 0.0565433 0.092065565
000030 19 58 eb bd c6 31 c5 bd fa 06 75 bc b3 4a 82 3d
       -0.11491413 -0.09628634 -0.014955277 0.06361904
000040 e8 61 74 3e b2 7f bf 3c b4 68 65 3e 72 00 9a 3d
       0.23865473 0.02337632 0.22403222 0.07519616
000050 44 4a 21 be 1c 94 32 be 67 6f 3a 3c 1c 69 9c bd
       -0.15750986 -0.17439312 0.011379099 -0.076372355
000060 9c a9 36 be 5b 90 5b 3d 4b 87 0b 3d e4 e1 27 3d
       -0.17838138 0.053604465 0.034064572 0.04098691
000070 fb ef fb bd fd 0e cb 3d 6e a1 fa bc 0b 42 fd 3d
       -0.12301632 0.09914968 -0.030594554 0.12366112
000080 a3 dc ba bd 82 22 22 be 86 69 5e be 1e 48 1c be
       -0.09124114 -0.15833476 -0.21719941 -0.15261886
000090 d0 a3 73 3e c6 7b bc bd 9d 90 83 3d 3c 99 18 be
       0.23792958 -0.092032954 0.06424067 -0.14902204
0000a0 a4 ba 54 be 3d 8b 46 be 2d 34 06 3e 1c f9 a4 bd
       -0.20774323 -0.19389053 0.13105841 -0.08055326
0000b0 2a c3 8b bd e4 e4 72 3e 73 80 05 be 94 e5 bb bc
       -0.06824334 0.23720127 -0.1303728 -0.02293662
0000c0 1e 67 c2 bd 4b 2c 04 3e ed cd 44 be 47 a3 86 be
       -0.09492324 0.12907521 -0.1921918 -0.26296446
0000d0 df f5 48 bd cc d1 e1 bd 6a 58 54 3e 20 45 04 bb
       -0.049062606 -0.11026344 0.20736852 -0.0020182803
0000e0 39 42 5d 3e 32 e2 b5 3d 05 87 6b 3e 3e b7 25 bc
       0.21607293 0.08881034 0.23000725 -0.010114489
0000f0 fd 2b 4f be 51 7a ee bd 77 23 6b 3e f9 4d dc 3d
       -0.20231624 -0.11644424 0.22962748 0.107570596
000100 51 c2 87 be 36 24 01 3d 35 73 a9 bd c0 0a 80 3d
       -0.2651544 0.031528674 -0.08273927 0.062520504
000110 73 39 3b 3d 58 86 a9 be df 22 04 3d 7f 5c 78 bc
       0.045709085 -0.3311031 0.03225982 -0.015158772
000120 8b 43 f9 3e cd 89 a0 bd 3a df a5 3e 90 05 49 3e
       0.48684344 -0.078387834 0.3239687 0.19631028
000130 13 b7 58 3c 05 97 9f be ea 10 8b 3d da 22 82 3e
       0.013227242 -0.31169906 0.067903355 0.25417215
000140 e4 3a a9 be 0d c0 05 bf 9d 87 b9 3e 86 eb 4b 3e
       -0.33052742 -0.5224617 0.36236277 0.19914064
000150 4a 77 1f 3e a0 4b 97 be a7 87 2c 3e 74 d4 c3 3e
       0.15572849 -0.29549885 0.16848622 0.38248026
000160 31 05 11 3e 85 ac 87 3d 70 ea 14 3f 4a 02 ed be
       0.14162137 0.06624702 0.58170223 -0.4629081
000170 ac c8 4c be 4d ad 12 bf ab 41 c2 3e db 39 d0 be
       -0.19998425 -0.57295686 0.37940726 -0.4066914
000180 51 49 92 3d 7e 00 36 3e 29 ef aa bd 32 8a 02 be
       0.0714289 0.17773625 -0.083463974 -0.1274803
000190 28 85 a2 ba 74 0a fc bd 01 95 f2 3d 5b f0 b9 3c
       -0.0012399303 -0.12306681 0.118448265 0.022697618
0001a0 92 59 50 3d b6 33 60 3d cf bb 8d 3e 60 e7 0a bb
       0.05086667 0.054736815 0.2768235 -0.002119504
0001b0 e6 2f f1 3b 45 78 76 be fa 0d 16 3e fc 0b 0f 3e
       0.0073604463 -0.24069317 0.14653769 0.13969415
0001c0 9f 0f 56 3d a8 09 80 bd 10 d9 02 bd b8 30 39 3e
       0.05226099 -0.06251842 -0.03194529 0.18084991
0001d0 c6 2c 01 3e 3d 3b 73 bd ab 1e 52 be 7a a0 f2 bd
       0.12614736 -0.059382666 -0.20519511 -0.11847015
0001e0 d8 a2 39 3f 27 4d 08 40 93 f4 b1 bd 31 13 2e 3f
       0.72514105 2.129709 -0.08689227 0.67998034
0001f0 a9 ae 4f bc 09 a3 b3 bf 55 ea f6 be 27 fa 43 3f
       -0.01267592 -1.4034129 -0.48225656 0.7655358
000200 7a 8b c2 be 4a 4d 84 3f b8 26 ea be e5 b8 35 3f
       -0.37997037 1.0336087 -0.45732665 0.7098525
000210 10 dd cb 3e b2 5b 77 bf 5b 39 50 be 45 84 4f 3f
       0.39817095 -0.9662429 -0.2033438 0.810612
000220 95 b2 62 c0 80 11 38 c0 57 ba 08 3f ae f5 8a be
       -3.5421498 -2.876068 0.5340933 -0.27140564
000230 ad bf 9a be 8d 83 24 40 65 6e 0c 3f 6d 59 cf bc
       -0.30224362 2.5705292 0.5485595 -0.025311196
000240 68 d3 05 3f 1c 9b 3d 3e 35 37 4e 3e 90 1f 43 be
       0.52275705 0.18516201 0.20138247 -0.19055009
000250 5e 37 39 3e 57 3b 2c be 77 5f 5c 3d 44 d2 69 bd
       0.18087527 -0.16819511 0.05380198 -0.05708529
000260 53 f4 98 3f 25 36 21 3f 32 47 22 be 29 d1 90 be
       1.1949562 0.62973243 -0.15847471 -0.28284577
000270 d4 c1 75 3d 2c cc 54 bf b0 9f 37 3e 78 68 5f be
       0.059999302 -0.8312404 0.1793201 -0.21817195
000280 5f 31 86 bf a0 3f 65 bf 31 27 0d 3e 9d e5 51 3e
       -1.0483817 -0.8955021 0.13784482 0.20497747
000290 2e c4 cd bd c8 2d 22 3f fb af ee ba 39 6b dc 3c
       -0.10047184 0.63351107 -0.0018210405 0.026906596
0002a0 63 1a 08 3f d1 61 14 3e a5 39 4a be ce 03 25 bd
       0.5316526 0.14490439 -0.19748552 -0.04028683
0002b0 b6 f4 25 3d b3 b1 56 be 84 d5 8c 3d 1f 29 92 3d
       0.040516578 -0.20966224 0.068766624 0.071367495
0002c0 5e 7b 2e 40 dd bd d3 3f 61 92 fd bc 6a 30 08 3e
       2.7262797 1.6542317 -0.030953588 0.13299718
0002d0 3e 91 94 be e9 70 e0 bf b8 56 86 bd b1 e7 88 bd
       -0.2901706 -1.7534457 -0.06559509 -0.06684817
0002e0 53 fd 00 c0 5e 0b f2 bf 8e 61 50 bd 5b 74 36 3d
       -2.0154617 -1.8909719 -0.050874285 0.04454456
0002f0 3e 37 56 3e 2f 3d b1 3f 96 66 4b 3e d0 15 00 3e
       0.2091951 1.3846797 0.19863352 0.12508321
000300 ca 87 0b 3e f7 ad 92 3e 93 ad 6e bd 28 c3 bf bd
       0.13626018 0.2864835 -0.058271002 -0.09363395
000310 5e c5 e1 3d e4 2a 8c be 81 7b d0 bb 5c 4d be bd
       0.11023973 -0.27376473 -0.006362379 -0.09292099
000320 c6 90 ba 3d 0c 6a 4b 3d 7e b4 2c 3d de 1f 5f bd
       0.091096446 0.04966168 0.04216432 -0.05447375
000330 56 c6 13 3e 86 4c b7 be 86 8e 17 be 8f 0b 95 3c
       0.14431128 -0.3580057 -0.14800462 0.018193988
000340 37 b6 ef be 06 1c e6 bd 59 b1 58 bd 8d 00 d1 bc
       -0.46818706 -0.11235814 -0.052903507 -0.025512958
000350 57 16 91 be 2d 71 8b 3e 4e 16 bd 3d 21 c8 a5 3d
       -0.28337356 0.27234784 0.0923277 0.08094812
000360 66 a3 cf 3e 6e 21 27 be 75 6e 8b 3f 14 08 f8 bd
       0.4055435 -0.16321346 1.0893084 -0.12110916
000370 76 02 02 be bd 83 7b be 4f 91 80 3f d3 c6 e3 be
       -0.12696251 -0.24561973 1.0044345 -0.44487628
000380 f5 9d a2 be 3c 2b ce be c7 56 8e be 97 c9 34 3f
       -0.31761137 -0.4026736 -0.2780058 0.706201
000390 27 a2 5b 3e 39 aa 86 3e 3d 9a 8b be 73 4f cc 3e
       0.21448575 0.26301745 -0.27266112 0.39904365
0003a0 ae 26 20 3e 2b 32 d6 bd fb 38 7b 3e 0d 22 51 be
       0.15639755 -0.104587875 0.24533455 -0.20423146
0003b0 3f cb 9e bd 03 76 e9 3d 92 1c ea 3e b8 f8 d4 be
       -0.0775361 0.11399462 0.45724922 -0.41596007
0003c0 88 5e c1 3d e6 df 38 3e ff da c5 3d 40 81 80 3e
       0.094418585 0.1805416 0.09660911 0.2509861
0003d0 d5 b0 2f be b7 48 80 be aa 55 39 be 44 ab e6 3d
       -0.171573 -0.25055477 -0.18099084 0.11263135
0003e0 cf 45 f7 3d 74 c6 d3 3e 43 d9 da 3d 07 b2 a9 3d
       0.12073862 0.41362345 0.10685971 0.08285909
0003f0 75 36 b5 bd d8 0f 66 be 43 25 47 bd 3a b5 4c 3d
       -0.088482775 -0.22466981 -0.04861952 0.04997752

fc1.bias f4 [16]
000000 dd 0b 0a be 0d 8d 7e 3e 81 d6 8f 3d 03 1d 45 3e
       -0.13481088 0.24858494 0.07023335 0.19249348
000010 07 ad 67 bd f3 a8 4b 40 89 56 79 3f 26 e8 0a 40
       -0.056561496 3.1821868 0.9739767 2.1704192
000020 90 9e b3 3e 8f 84 77 bb 1e 8c 14 3f 1e 16 48 3f
       0.3508191 -0.003776822 0.580263 0.7815875
000030 f9 03 4b 3f 85 86 56 bd db a0 13 3f ed c4 8b 3c
       0.79302937 -0.05237438 0.5766732 0.017061675

fc2.weight f4 [8, 16]
000000 53 3d 51 be 49 de 00 3e a7 7b 3e bc 59 e3 5f bf
       -0.2043355 0.12584795 -0.011626161 -0.8745628
000010 05 5a 72 bd a0 04 90 bf 2a 78 07 3f 70 56 1f 3f
       -0.05916788 -1.1251411 0.5291773 0.6224127
000020 0c c0 18 3e 13 50 17 bd ce f9 b9 3d b5 7a 40 3f
       0.1491701 -0.0369416 0.090808496 0.75187236
000030 ae d4 e6 3e 15 e4 b8 be 53 f8 6f 3e 36 14 36 3e
       0.45084137 -0.36111513 0.23434572 0.17781147
000040 79 f4 ca be e8 63 34 3e 00 5d 72 3d 58 7e 8c be
       -0.39639643 0.17616236 0.059170723 -0.27440143
000050 2e c4 ce 3d 93 aa 60 40 62 36 b0 40 2f 92 56 41
       0.10096012 3.510411 5.5066385 13.410689
000060 52 e8 0d bc ec 1d 61 c0 0a 74 0c bd d4 be 37 3f
       -0.0086613465 -3.5174513 -0.03429035 0.71775556
000070 d6 cb 3b 40 66 c6 3c bd e0 17 cd 3a 55 0b 78 c0
       2.9343162 -0.046087645 0.0015647374 -3.8756917
000080 ce 9a 74 bd c7 86 ea 3d 22 69 2c 3d 11 cc 74 bf
       -0.059717946 0.11451488 0.04209245 -0.9562388
000090 ba b7 d6 be ad 9c 7a be 8b e2 90 3e e0 ad 5e 3e
       -0.41937047 -0.2447383 0.2829784 0.21746016
0000a0 36 41 78 be 57 b8 18 3e 49 c7 c7 bc 72 bd b1 3e
       -0.24243626 0.1491407 -0.024387019 0.34714848
0000b0 46 0e 8b be c2 44 cf 3c f8 12 c8 bd cf 74 d0 3d
       -0.27159327 0.025301341 -0.09769243 0.101785295
0000c0 6a 67 30 be 44 a5 1c 3b 62 74 ea 3d 77 bb 49 bf
       -0.1722695 0.0023902217 0.114479795 -0.78801674
0000d0 79 06 8a 3e 14 f4 72 bf 1f d9 37 3f 73 41 04 3f
       0.26958063 -0.94903684 0.71815675 0.5166237
0000e0 05 d5 b2 bc 25 86 51 be cd 4c 5f 3e e1 73 f3 3e
       -0.021830091 -0.20461328 0.21806641 0.47549346
0000f0 e0 93 94 3e bb d1 40 be 57 6e 91 3e dc 08 05 3e
       0.2901907 -0.18830006 0.28404495 0.12991661
000100 b3 40 08 be 8f 0d f3 bb 2c 4f ee bd d6 31 3c be
       -0.13305931 -0.007417388 -0.116361946 -0.18378386
000110 71 37 57 3d 55 98 c6 bf b7 0b 1b 3f 8c 1d 0a 3f
       0.052543107 -1.5515238 0.6056475 0.53951335
000120 a5 6b eb 3d 8c 32 27 be 26 fa 8f 3d d3 db 68 3f
       0.11495141 -0.16327876 0.07030134 0.90960425
000130 ea 9a 13 be 40 75 84 bc 95 04 44 3e 0a e8 d6 bd
       -0.14414564 -0.01616919 0.19142373 -0.10493477
000140 de 93 a5 3d 6a 43 46 be 8e 24 1f bd 7e f6 84 3f
       0.08084844 -0.19361654 -0.03885322 1.0387723
000150 4b 18 e7 3d 2e 4f 23 3e 58 f7 9f be c5 3d 2f be
       0.112839304 0.15948173 -0.31243396 -0.17113407
000160 58 de 6c 3d ff a9 d3 3e 95 ea 78 3d af 2f 1a be
       0.05782923 0.41340634 0.06077059 -0.15057252
000170 1c c4 6b 3e 63 98 94 be 8e b3 c8 bc c0 43 30 3c
       0.23024029 -0.29022512 -0.02449968 0.01075834
000180 26 d6 92 3c 30 03 fc bd 2c e5 0c 40 94 03 36 3e
       0.01792438 -0.123052955 2.2014875 0.17774802
000190 be 55 10 40 f1 5d 1d 3f 1a 15 8c 3f 4a 41 8f 3f
       2.2552333 0.6147147 1.094394 1.11918
0001a0 1b 67 83 bd 4c e7 a0 bf 0c 51 eb 3d 6a 19 c3 3e
       -0.0641615 -1.2570586 0.11490068 0.38105327
0001b0 08 37 34 3f 96 5e ee bd 87 d5 01 3e b6 55 14 c0
       0.7039647 -0.116391346 0.1267911 -2.3177314
0001c0 ca 69 3f be 90 32 33 3e 38 34 13 3e fc 92 7b be
       -0.18692699 0.17499757 0.14375389 -0.24567789
0001d0 3a f2 48 be e6 cc 28 be b9 ab 86 be 7c 89 af bd
       -0.19623652 -0.16484413 -0.2630289 -0.08571145
0001e0 32 66 b0 be 38 ca 3d be 0a e5 11 bd 37 87 49 be
       -0.3445297 -0.18534172 -0.03561882 -0.19680487
0001f0 7c bc cb bd 2e 99 86 be ee 69 4d bd 30 9f 90 3c
       -0.0994806 -0.26288742 -0.05014985 0.017654032

fc2.bias f4 [8]
000000 89 6b 72 3e 6c 40 a6 bd fb a4 a1 3d f6 27 93 3e
       0.23673834 -0.08117756 0.07892796 0.28741425
000010 95 ce 8b 3e d3 4b 2d 3d e3 67 65 3e fb e9 89 be
       0.27306047 0.04230864 0.22402911 -0.26936325

fc3.weight f4 [2, 8]
000000 2a 46 b3 3e ea 02 ba bf 8d 2e 43 3d c7 cd 1c 3f
       0.35014468 -1.4532139 0.047651816 0.6125149
000010 cf 50 9e 3e 8f 7b 01 be 8a 20 ae be 10 1a ee bd
       0.30921027 -0.1264479 -0.340092 -0.11626065
000020 b8 13 e9 bd bf 0d 79 3f be db ce bd c5 76 50 be
       -0.11380714 0.972866 -0.10100506 -0.20357807
000030 8a 7c 2e 3d a1 4e c8 be c3 45 69 3d 16 f4 20 be
       0.04259924 -0.3912249 0.056951296 -0.15718111

fc3.bias f4 [2]
000000 9d 15 ae 3e 89 0d 2a be
       0.34000865 -0.16606726

exp_avg f4 [16, 24]
000000 42 2f 08 33 01 12 ce 30 dc 44 95 33 01 55 36 b0
       3.170795e-08 1.499359e-09 6.9508786e-08 -6.633201e-10
000010 70 52 bf 32 72 9d b9 b0 dc 44 95 33 01 55 36 b0
       2.2272815e-08 -1.350527e-09 6.9508786e-08 -6.633201e-10
000020 d4 58 28 33 de f5 84 31 fd c0 aa 32 f0 a4 84 30
       3.9196337e-08 3.8696575e-09 1.9878366e-08 9.651142e-10
000030 48 a8 b5 32 d2 20 26 b2 fd c0 aa 32 f0 a4 84 30
       2.1147699e-08 -9.669934e-09 1.9878366e-08 9.651142e-10
000040 d0 4f 06 33 41 8a 8a 31 c0 de b7 b2 3c fc 51 31
       3.1271895e-08 4.0320463e-09 -2.1405299e-08 3.0556881e-09
000050 55 02 b6 32 16 22 17 b2 c0 de b7 b2 3c fc 51 31
       2.1188649e-08 -8.797107e-09 -2.1405299e-08 3.0556881e-09
000060 05 76 63 33 8d f7 3f 31 e3 68 2b 33 b3 5e 83 b2
       5.2959894e-08 2.7934874e-09 3.9909434e-08 -1.5293471e-08
000070 47 02 a6 30 08 a7 bd b2 e3 68 2b 33 b3 5e 83 b2
       1.2078737e-09 -2.2078453e-08 3.9909434e-08 -1.5293471e-08
000080 87 b0 57 33 3a c9 6d 30 a2 50 00 b2 5f 3c 35 b2
       5.021914e-08 8.650606e-10 -7.468914e-09 -1.0549313e-08
000090 bd b4 e3 30 fe c2 93 b2 a2 50 00 b2 5f 3c 35 b2
       1.6567793e-09 -1.7201724e-08 -7.468914e-09 -1.0549313e-08
0000a0 27 f6 b2 33 79 66 f8 31 af eb 06 b2 0d 9b 06 b2
       8.333546e-08 7.2293997e-09 -7.853415e-09 -7.835081e-09
0000b0 55 af 8f 30 2b e7 33 b3 af eb 06 b2 0d 9b 06 b2
       1.0454452e-09 -4.188693e-08 -7.853415e-09 -7.835081e-09
0000c0 e1 f6 50 b5 53 85 1d b3 0e 42 23 b4 75 66 1b b3
       -7.7845294e-07 -3.667567e-08 -1.5204589e-07 -3.6181934e-08
0000d0 33 3c 83 b4 32 fa 2d 34 0e 42 23 b4 75 66 1b b3
       -2.4444452e-07 1.6202901e-07 -1.5204589e-07 -3.6181934e-08
0000e0 48 74 58 b5 9a 23 69 b3 a0 4a 6c 34 f0 f3 a3 b3
       -8.063548e-07 -5.428192e-08 2.2006361e-07 -7.634651e-08
0000f0 d1 ff 9e b4 16 e0 22 34 a0 4a 6c 34 f0 f3 a3 b3
       -2.9615924e-07 1.5168948e-07 2.2006361e-07 -7.634651e-08
000100 7a c6 51 b5 40 de 5e b3 29 19 90 b4 e9 7a cc b3
       -7.814739e-07 -5.1890538e-08 -2.6840397e-07 -9.5218475e-08
000110 2b e3 b5 b4 fd c7 6f 33 29 19 90 b4 e9 7a cc b3
       -3.3879164e-07 5.5828412e-08 -2.6840397e-07 -9.5218475e-08
000120 9d 04 98 b3 ff 1f 5b b3 43 f8 67 35 8a aa d7 b1
       -7.078891e-08 -5.101901e-08 8.6415474e-07 -6.2767116e-09
000130 65 ca bb b1 bd 22 d4 33 43 f8 67 35 8a aa d7 b1
       -5.465426e-09 9.878338e-08 8.6415474e-07 -6.2767116e-09
000140 92 81 a1 b3 26 42 67 b3 4c 65 52 35 d7 12 b1 b1
       -7.5207154e-08 -5.384404e-08 7.83785e-07 -5.15352e-09
000150 fc 19 b8 b1 a4 7d ba 33 4c 65 52 35 d7 12 b1 b1
       -5.358059e-09 8.684154e-08 7.83785e-07 -5.15352e-09
000160 54 ca 73 b3 d5 ed 69 b3 de 6a 82 35 e8 e6 d6 b1
       -5.6761863e-08 -5.4465847e-08 9.716857e-07 -6.2544707e-09
000170 0e e4 b0 b1 ce 7b 88 33 de 6a 82 35 e8 e6 d6 b1
       -5.148201e-09 6.3555134e-08 9.716857e-07 -6.2544707e-09
000180 23 52 9b b3 0a 5a 8c b2 e1 c9 19 b3 f2 33 d3 31
       -7.2326905e-08 -1.633909e-08 -3.5806696e-08 6.1468137e-09
000190 38 db ce b1 78 ca 54 33 e1 c9 19 b3 f2 33 d3 31
       -6.0203114e-09 4.954424e-08 -3.5806696e-08 6.1468137e-09
0001a0 d3 98 48 b4 de f6 4a b3 06 a6 c0 34 ee 3b 64 ae
       -1.8682049e-07 -4.7256314e-08 3.5883585e-07 -5.1894426e-11
0001b0 8c de 98 32 f1 9a 32 34 06 a6 c0 34 ee 3b 64 ae
       1.7796332e-08 1.6633909e-07 3.5883585e-07 -5.1894426e-11
0001c0 ff 1a 53 b4 f3 fb 02 b3 5b f1 0d b5 22 00 88 33
       -1.9660727e-07 -3.049713e-08 -5.287781e-07 6.333018e-08
0001d0 b8 b8 10 b3 bd 64 fb 33 5b f1 0d b5 22 00 88 33
       -3.3695613e-08 1.17064225e-07 -5.287781e-07 6.333018e-08
0001e0 0e 6c 95 b6 9e 38 99 b4 66 4a 56 34 1c 4a 63 b4
       -4.4531253e-06 -2.8539665e-07 1.9957369e-07 -2.1167983e-07
0001f0 53 aa b3 32 f3 2c a7 35 66 4a 56 34 1c 4a 63 b4
       2.0915797e-08 1.2455552e-06 1.9957369e-07 -2.1167983e-07
000200 4b 42 ad b6 8b 4e ec b4 bb 5b 87 b5 b8 9c 89 b4
       -5.1635193e-06 -4.4015573e-07 -1.0084981e-06 -2.5632266e-07
000210 c1 3f e4 33 ec 91 c6 35 bb 5b 87 b5 b8 9c 89 b4
       1.0628674e-07 1.4794618e-06 -1.0084981e-06 -2.5632266e-07
000220 82 25 9a b6 f9 84 a2 b4 9f 39 ae b5 31 80 92 b4
       -4.593924e-06 -3.0271602e-07 -1.298078e-06 -2.728789e-07
000230 31 04 3f 33 03 aa 17 35 9f 39 ae b5 31 80 92 b4
       4.4474465e-08 5.6499283e-07 -1.298078e-06 -2.728789e-07
000240 23 f5 23 32 31 3a 68 32 e8 0b 8c b4 a2 8c fc 30
       9.543586e-09 1.35174085e-08 -2.6085695e-07 1.8375383e-09
000250 7c b6 0d b1 1e f9 e7 b2 e8 0b 8c b4 a2 8c fc 30
       -2.062193e-09 -2.7005225e-08 -2.6085695e-07 1.8375383e-09
000260 f2 f1 85 b3 03 87 bc b0 c6 ee 6c b4 0b c6 65 30
       -6.237305e-08 -1.3717173e-09 -2.2066078e-07 8.359115e-10
000270 c3 6c 94 b3 c8 b5 19 33 c6 ee 6c b4 0b c6 65 30
       -6.911571e-08 3.5788418e-08 -2.2066078e-07 8.359115e-10
000280 aa dc 99 35 22 dd 83 34 ec 83 4d 33 89 18 38 b2
       1.146361e-06 2.4561547e-07 4.7850264e-08 -1.0715788e-08
000290 75 16 27 b4 43 84 6e b5 ec 83 4d 33 89 18 38 b2
       -1.5561257e-07 -8.8854375e-07 4.7850264e-08 -1.0715788e-08
0002a0 4c 04 21 b2 3d d7 28 b1 ac 14 97 31 f9 a2 e4 2f
       -9.37241e-09 -2.4569566e-09 4.3970285e-09 4.1588757e-10
0002b0 f3 dc 3e b2 9d ee 8e b0 ac 14 97 31 f9 a2 e4 2f
       -1.1109694e-08 -1.0399678e-09 4.3970285e-09 4.1588757e-10
0002c0 aa e8 63 b2 d1 a8 28 b1 dc 74 60 b3 67 e6 40 31
       -1.3266041e-08 -2.4543179e-09 -5.2260347e-08 2.8070646e-09
0002d0 61 46 63 b2 9c 40 29 30 dc 74 60 b3 67 e6 40 31
       -1.3229141e-08 6.157366e-10 -5.2260347e-08 2.8070646e-09
0002e0 e0 06 3c 36 88 05 1e 35 38 04 75 31 01 b0 f0 30
       2.8018185e-06 5.8867636e-07 3.565459e-09 1.7512322e-09
0002f0 ff cf 73 b4 5b b3 14 b6 38 04 75 31 01 b0 f0 30
       -2.2706807e-07 -2.2158117e-06 3.565459e-09 1.7512322e-09
000300 1c b0 3a b2 22 71 a8 b0 04 47 1f b1 da 18 d4 30
       -1.0866668e-08 -1.2255763e-09 -2.3177913e-09 1.5432093e-09
000310 a8 81 59 af 32 31 ca 31 04 47 1f b1 da 18 d4 30
       -1.9782098e-10 5.8845666e-09 -2.3177913e-09 1.5432093e-09
000320 ad 32 6a b2 b5 aa 99 b0 83 54 a2 b2 4e 3a 2b 31
       -1.3632115e-08 -1.1180733e-09 -1.8897714e-08 2.4916917e-09
000330 49 2c 0a af 7b 1e d0 31 83 54 a2 b2 4e 3a 2b 31
       -1.256676e-10 6.057062e-09 -1.8897714e-08 2.4916917e-09
000340 05 0a 98 b2 b7 3d 01 b1 d3 7c 1b 32 77 20 cf 30
       -1.7699685e-08 -1.8807051e-09 9.050569e-09 1.5070459e-09
000350 8b 8e e9 af 92 0f 1d 32 d3 7c 1b 32 77 20 cf 30
       -4.2483736e-10 9.142143e-09 9.050569e-09 1.5070459e-09
000360 0b ad e0 34 50 74 a0 33 8f f7 b9 34 51 a3 31 32
       4.1849157e-07 7.471738e-08 3.4639058e-07 1.033989e-08
000370 5e 0e 4c b2 2f e1 9b b4 8f f7 b9 34 51 a3 31 32
       -1.18776295e-08 -2.9034842e-07 3.4639058e-07 1.033989e-08
000380 de 40 27 35 b9 8e bb 33 47 ac ae 35 b7 5d f0 b3
       6.230674e-07 8.733827e-08 1.301415e-06 -1.11929175e-07
000390 82 e8 c0 b2 a3 d5 c6 b4 47 ac ae 35 b7 5d f0 b3
       -2.2457474e-08 -3.7035815e-07 1.301415e-06 -1.11929175e-07
0003a0 96 b7 83 34 28 cd 16 32 55 ff 04 b5 15 5f 33 b3
       2.4534228e-07 8.777796e-09 -4.954539e-07 -4.1763162e-08
0003b0 7e 0a c0 b4 8e a4 a8 b3 55 ff 04 b5 15 5f 33 b3
       -3.577042e-07 -7.853042e-08 -4.954539e-07 -4.1763162e-08
0003c0 3e a0 8f b3 e6 d4 63 b1 bf d5 19 b1 1b ae ac 31
       -6.688104e-08 -3.3153866e-09 -2.238593e-09 5.0256523e-09
0003d0 23 00 67 31 86 5c ab 32 bf d5 19 b1 1b ae ac 31
       3.3615002e-09 1.9949095e-08 -2.238593e-09 5.0256523e-09
0003e0 9e 05 a2 b3 d5 87 96 b1 67 18 9a b2 2f 04 0f 31
       -7.5447346e-08 -4.381017e-09 -1.7939056e-08 2.0811617e-09
0003f0 3a 75 9c 31 6e e5 b8 32 67 18 9a b2 2f 04 0f 31
       4.5535247e-09 2.1524752e-08 -1.7939056e-08 2.0811617e-09

exp_avg_sq f4 [16, 24]
000000 2b 32 b3 2f 0b 3b 5b 2d 9d 57 a3 30 f7 1f a6 2d
       3.2595557e-10 1.2461819e-11 1.1884712e-09 1.888621e-11
000010 5f c0 46 2f 1f 50 61 2f 9d 57 a3 30 f7 1f a6 2d
       1.8076339e-10 2.0492096e-10 1.1884712e-09 1.888621e-11
000020 27 8a 11 2f 03 a4 a8 2d c2 68 15 32 f1 1e 36 2e
       1.3236755e-10 1.9172225e-11 8.696761e-09 4.140949e-11
000030 a4 9d e5 2e e2 91 79 2f c2 68 15 32 f1 1e 36 2e
       1.0441717e-10 2.2698246e-10 8.696761e-09 4.140949e-11
000040 0e b2 92 2d 59 5d c3 2d 37 01 2f 32 68 dc fa 2d
       1.667735e-11 2.2210388e-11 1.0186617e-08 2.851959e-11
000050 09 eb e6 2e 67 28 57 2f 37 01 2f 32 68 dc fa 2d
       1.050094e-10 1.956849e-10 1.0186617e-08 2.851959e-11
000060 b1 ef 4d 2f b3 17 47 2d 5b b5 95 31 a6 c3 40 2e
       1.8729797e-10 1.1317103e-11 4.3570885e-09 4.3829516e-11
000070 da 45 cc 2f fa cd 18 2f 5b b5 95 31 a6 c3 40 2e
       3.7157016e-10 1.3897497e-10 4.3570885e-09 4.3829516e-11
000080 81 db 19 2e 7b 6d 79 2d c7 a2 25 32 9b 4b 09 2f
       3.498313e-11 1.4178321e-11 9.641275e-09 1.2486938e-10
000090 3d 10 8a 2f 2c 6b ce 2e c7 a2 25 32 9b 4b 09 2f
       2.5113592e-10 9.386833e-11 9.641275e-09 1.2486938e-10
0000a0 b0 86 de 2e e4 a5 dc 2d c5 cb 17 32 70 9d 47 2e
       1.01193165e-10 2.5084775e-11 8.835689e-09 4.5387194e-11
0000b0 a7 f2 1d 2f be 63 20 2f c5 cb 17 32 70 9d 47 2e
       1.4365274e-10 1.4587351e-10 8.835689e-09 4.5387194e-11
0000c0 45 d8 e8 2e 4e 40 56 2c 0e 1e 0e 31 32 f3 8c 2c
       1.0588556e-10 3.0446925e-12 2.0680804e-09 4.0060394e-12
0000d0 6b 2a cc 2e 20 cd 9e 2e 0e 1e 0e 31 32 f3 8c 2c
       9.284381e-11 7.221446e-11 2.0680804e-09 4.0060394e-12
0000e0 e5 f8 9a 2e c6 4d a7 2c 1e 26 a1 31 a3 ea 96 2d
       7.047322e-11 4.75506e-12 4.69005e-09 1.7157225e-11
0000f0 65 7f 84 2e 5c 70 9d 2e 1e 26 a1 31 a3 ea 96 2d
       6.025295e-11 7.1594924e-11 4.69005e-09 1.7157225e-11
000100 0e 74 cb 2e 08 27 0e 2d cc 12 b9 31 90 84 32 2d
       9.251987e-11 8.080432e-12 5.3863456e-09 1.0147563e-11
000110 12 e8 08 2e 8c 4d ba 2e cc 12 b9 31 90 84 32 2d
       3.112894e-11 8.472076e-11 5.3863456e-09 1.0147563e-11
000120 7e ed 97 2d 0d 68 f6 2c 43 f8 50 31 ec 02 53 2b
       1.727218e-11 7.0032925e-12 3.0409104e-09 7.4966314e-13
000130 35 a3 ff 2d c4 4f 45 2e 43 f8 50 31 ec 02 53 2b
       2.9062622e-11 4.486346e-11 3.0409104e-09 7.4966314e-13
000140 b1 30 c6 2d 6a 12 06 2d 66 11 6c 31 9c e3 31 2b
       2.2531617e-11 7.621107e-12 3.435241e-09 6.3198904e-13
000150 a1 9b 0a 2e 42 9d 30 2e 66 11 6c 31 9c e3 31 2b
       3.1515793e-11 4.015744e-11 3.435241e-09 6.3198904e-13
000160 e3 f6 25 2e 28 b5 16 2d fc ae 7c 31 2c ee 57 2b
       3.7735936e-11 8.566738e-12 3.6770293e-09 7.6713874e-13
000170 10 bd 2b 2e 44 d1 34 2e fc ae 7c 31 2c ee 57 2b
       3.904882e-11 4.1113127e-11 3.6770293e-09 7.6713874e-13
000180 06 40 07 2f c9 a4 5a 2c 08 6d 26 31 d3 d5 84 2d
       1.2300924e-10 3.1071137e-12 2.4218156e-09 1.510162e-11
000190 41 20 48 2f f6 d0 8d 2e 08 6d 26 31 d3 d5 84 2d
       1.8201353e-10 6.4490566e-11 2.4218156e-09 1.510162e-11
0001a0 8e b1 93 2e 24 42 9a 2c 01 a2 a8 31 84 da 82 2e
       6.716326e-11 4.3842863e-12 4.9078612e-09 5.950532e-11
0001b0 a4 e7 4c 2f 05 7b 5f 2e 01 a2 a8 31 84 da 82 2e
       1.8635987e-10 5.0813593e-11 4.9078612e-09 5.950532e-11
0001c0 7e 36 de 2e c5 6d ed 2c b0 74 ac 31 65 11 48 2d
       1.0105071e-10 6.748132e-12 5.0191247e-09 1.1372546e-11
0001d0 17 df 8e 2f 18 b7 80 2e b0 74 ac 31 65 11 48 2d
       2.5988164e-10 5.85329e-11 5.0191247e-09 1.1372546e-11
0001e0 ad 71 40 2f f8 ee 05 2c 3d a9 fc 2e 37 4a 7c 2b
       1.7502684e-10 1.903309e-12 1.1489696e-10 8.963138e-13
0001f0 3d 8d fd 2c be 92 c4 2d 3d a9 fc 2e 37 4a 7c 2b
       7.206373e-12 2.2347787e-11 1.1489696e-10 8.963138e-13
000200 df e5 75 2f a5 af 41 2c 82 52 11 2f 19 fc 99 2b
       2.2364287e-10 2.7524452e-12 1.3216986e-10 1.0941275e-12
000210 d6 4f 38 2d 5b 7f 01 2e 82 52 11 2f 19 fc 99 2b
       1.0476916e-11 2.944432e-11 1.3216986e-10 1.0941275e-12
000220 b1 ce 63 2f ce ac 4e 2c f7 a4 b4 2f ba ab d1 2b
       2.0718961e-10 2.9370287e-12 3.2859024e-10 1.4898007e-12
000230 e8 f0 8e 2d 8a 2a fc 2d f7 a4 b4 2f ba ab d1 2b
       1.6250515e-11 2.8667974e-11 3.2859024e-10 1.4898007e-12
000240 0d 57 a2 2d 84 56 9e 2b 2a 20 42 2f 5e 59 2e 2b
       1.8455926e-11 1.1250588e-12 1.7655624e-10 6.194124e-13
000250 c2 ac 1a 2e 65 d0 af 2d 2a 20 42 2f 5e 59 2e 2b
       3.5168986e-11 1.9987742e-11 1.7655624e-10 6.194124e-13
000260 8e b5 a6 2d 63 cb fe 2b 7b 5f 32 30 cc 24 17 2b
       1.8952642e-11 1.8104237e-12 6.489171e-10 5.369704e-13
000270 06 cc 5c 2e 21 54 fa 2d 7b 5f 32 30 cc 24 17 2b
       5.0203418e-11 2.845907e-11 6.489171e-10 5.369704e-13
000280 1d c3 09 31 ae 53 ca 2e 1a 6c 80 30 c0 15 cc 2b
       2.0047033e-09 9.200761e-11 9.34395e-10 1.4501109e-12
000290 4b eb 85 30 97 a6 b0 30 1a 6c 80 30 c0 15 cc 2b
       9.743898e-10 1.2853033e-09 9.34395e-10 1.4501109e-12
0002a0 14 da 16 2c 8b ef 88 2a 71 2c ee 2e d0 3f cb 2a
       2.143734e-12 2.432467e-13 1.0830881e-10 3.6104323e-13
0002b0 f7 66 3c 2c a5 cf cb 2b 71 2c ee 2e d0 3f cb 2a
       2.6773564e-12 1.448165e-12 1.0830881e-10 3.6104323e-13
0002c0 2e f0 40 2c 38 ba aa 2a 37 8f fa 2e c2 9c 03 2b
       2.7418168e-12 3.0327281e-13 1.1394124e-10 4.6758094e-13
0002d0 ee 5a 80 2c 4b 02 16 2c 37 8f fa 2e c2 9c 03 2b
       3.648074e-12 2.1317555e-12 1.1394124e-10 4.6758094e-13
0002e0 2d 9b e3 2f 23 b1 9f 2d a0 31 1c 2f e8 f1 65 2b
       4.1401318e-10 1.8154872e-11 1.4205748e-10 8.1692856e-13
0002f0 b5 4e 0e 2f 86 0d 78 2f a0 31 1c 2f e8 f1 65 2b
       1.2942787e-10 2.2560273e-10 1.4205748e-10 8.1692856e-13
000300 01 94 d2 2e 7c 1c 35 2e 48 7e 71 32 83 09 bd 2d
       9.575985e-11 4.1179934e-11 1.4056759e-08 2.1491036e-11
000310 43 e4 97 2f 74 62 76 2f 48 7e 71 32 83 09 bd 2d
       2.762893e-10 2.2408547e-10 1.4056759e-08 2.1491036e-11
000320 2f ff ac 2e e3 42 4e 2e ee 84 8f 32 26 f0 5d 2e
       7.866984e-11 4.6898384e-11 1.670784e-08 5.0462877e-11
000330 65 3e 71 2f 30 78 5c 2f ee 84 8f 32 26 f0 5d 2e
       2.1940989e-10 2.0051583e-10 1.670784e-08 5.0462877e-11
000340 0d c4 9c 2f df 89 31 2e 1c 86 9c 32 ec f4 c8 2d
       2.8515537e-10 4.0367595e-11 1.8221776e-08 2.2846135e-11
000350 b9 f7 66 2f cd fd 5d 2f 1c 86 9c 32 ec f4 c8 2d
       2.1006387e-10 2.0190001e-10 1.8221776e-08 2.2846135e-11
000360 2a 90 71 2d 69 8a 96 2b ed 13 28 2f 37 cb 9c 29
       1.3731275e-11 1.0696558e-12 1.528659e-10 6.963044e-14
000370 0c 26 6f 2d 50 e9 53 2d ed 13 28 2f 37 cb 9c 29
       1.3594025e-11 1.2045767e-11 1.528659e-10 6.963044e-14
000380 d5 12 11 2e b1 e4 4d 2c 2b 69 bf 2f 2b ee f4 2a
       3.298591e-11 2.9259201e-12 3.4817424e-10 4.350837e-13
000390 24 5d e2 2d 86 28 28 2e 2b 69 bf 2f 2b ee f4 2a
       2.5734588e-11 3.823477e-11 3.4817424e-10 4.350837e-13
0003a0 a1 24 56 2f 03 d4 92 2d ea 1c 95 30 32 51 33 2c
       1.94762e-10 1.669243e-11 1.0849395e-09 2.5482502e-12
0003b0 07 88 8d 2f 48 1b 58 2f ea 1c 95 30 32 51 33 2c
       2.5744404e-10 1.9654778e-10 1.0849395e-09 2.5482502e-12
0003c0 06 1a 8b 2e 02 62 31 2d 43 79 85 31 03 87 11 2c
       6.325611e-11 1.0083047e-11 3.8845953e-09 2.0680686e-12
0003d0 cf 8e 03 2f 78 0c f4 2e 43 79 85 31 03 87 11 2c
       1.1965116e-10 1.109805e-10 3.8845953e-09 2.0680686e-12
0003e0 b5 ef 05 2e be ea 26 2d 99 33 bd 31 3e 13 9e 2c
       3.04536e-11 9.488131e-12 5.50649e-09 4.4927664e-12
0003f0 a2 bd 0f 2f a4 b5 d1 2e 99 33 bd 31 3e 13 9e 2c
       1.3073145e-10 9.5364855e-11 5.50649e-09 4.4927664e-12

exp_avg f4 [16]
000000 4d 87 4d b1 4f 7c 20 b2 e6 f8 9d 33 1d 90 15 33
       -2.9908336e-09 -9.34149e-09 7.3561566e-08 3.4822836e-08
000010 a0 6e d9 32 ce 52 e0 34 59 d0 2f b4 30 cc d2 b4
       2.5312431e-08 4.17835e-07 -1.6373941e-07 -3.9264114e-07
000020 2e b7 07 31 ab fa 8c b2 22 ae 01 32 10 98 b7 2f
       1.9749211e-09 -1.6412136e-08 7.5483815e-09 3.3395553e-10
000030 81 63 b8 b3 19 36 1f b3 ac d7 59 31 31 b7 86 b3
       -8.586267e-08 -3.7069274e-08 3.1700251e-09 -6.2731836e-08

exp_avg_sq f4 [16]
000000 9a 77 47 2d bd 7c 6f 2d 02 37 12 2d 05 cf 9d 2c
       1.1338397e-11 1.3613275e-11 8.311353e-12 4.485192e-12
000010 a0 fa 01 2d d8 f4 17 2c e1 db 35 2e 3e 4a 0d 2d
       7.388451e-12 2.1594306e-12 4.1349927e-11 8.031407e-12
000020 e7 8c 95 2d a8 0d f3 2c 65 51 0f 2d 2a 96 4d 2e
       1.7001912e-11 6.9079915e-12 8.146682e-12 4.6744976e-11
000030 b3 b0 09 2d 6e 95 7a 2d ba d2 7c 2d 39 ff 49 2d
       7.8267835e-12 1.4244035e-11 1.4371332e-11 1.1482198e-11

exp_avg f4 [8, 16]
000000 04 00 00 80 1a 2e 6e b0 e9 64 8b b2 5c ba 45 a9
       -6e-45 -8.664941e-10 -1.6227618e-08 -4.3904428e-14
000010 b4 23 95 b2 d9 64 5b ae d4 a0 93 af 27 66 f7 2b
       -1.7362119e-08 -4.9884406e-11 -2.685342e-10 1.7578759e-12
000020 17 f2 81 af 97 73 23 2f 38 31 2c b2 7d af 8b ae
       -2.3636978e-10 1.486583e-10 -1.0022909e-08 -6.352161e-11
000030 17 bd f2 a4 3c 33 35 2f c5 3e 0f b1 04 00 00 80
       -1.052711e-16 1.6480056e-10 -2.084492e-09 -6e-45
000040 05 5f 66 33 46 14 3f 35 f2 a7 7b 34 97 9a 95 34
       5.3637468e-08 7.1182546e-07 2.3437295e-07 2.7865892e-07
000050 f0 25 32 34 9d 1f 5d 36 e7 19 cf b4 e1 c7 53 b5
       1.6591343e-07 3.2949968e-06 -3.85756e-07 -7.889449e-07
000060 5f fd 1a 34 30 11 d4 34 f0 e4 06 34 7f 4e da b3
       1.4434544e-07 3.9500583e-07 1.256301e-07 -1.01656944e-07
000070 9d 1c 97 b4 9d cf 3b 35 d2 ca e2 34 64 ac 52 34
       -2.814676e-07 6.9965046e-07 4.2243352e-07 1.962049e-07
000080 05 37 0a ad 3b c2 cd 2e 19 1a 54 2e a6 33 50 2c
       -7.856609e-12 9.356823e-11 4.82264e-11 2.9587248e-12
000090 e7 32 54 2d 99 22 1b 30 f6 fb a7 2f 83 7f bf 2f
       1.2062107e-11 5.643784e-10 3.0556152e-10 3.48333e-10
0000a0 f9 85 ed 2e 39 61 ff 2f a8 fa ec 2e f3 1c 79 2f
       1.08013105e-10 4.645331e-10 1.0776563e-10 2.2656703e-10
0000b0 0d 19 5b 2d dc 13 9b 2e 64 29 70 2f 26 39 41 2e
       1.2454271e-11 7.052112e-11 2.1842578e-10 4.3933877e-11
0000c0 a0 1d b9 2a 2b 9f 16 b1 ea 30 2a b3 84 92 ab a9
       3.2883158e-13 -2.191835e-09 -3.9625697e-08 -7.619342e-14
0000d0 fe f6 39 b3 d3 8a ad b0 fa 9a 15 b0 e6 17 58 2c
       -4.3298307e-08 -1.2626863e-09 -5.442612e-10 3.0708712e-12
0000e0 7b e2 e8 af 8b 65 d0 b0 ab 41 d5 b2 9b 90 e4 af
       -4.2361478e-10 -1.5162852e-09 -2.4826326e-08 -4.1575707e-10
0000f0 e2 8a 9e a9 ab a8 d9 a3 d5 23 86 b1 04 00 00 00
       -7.040702e-14 -2.359862e-17 -3.903987e-09 6e-45
000100 d8 92 c0 82 f2 c4 c4 b0 de af c8 b2 45 6a 7e a9
       -2.8296149e-37 -1.4316852e-09 -2.336304e-08 -5.6491504e-14
000110 b0 56 d9 b2 1f 3a 87 af 66 3f d5 af ba 2c 99 a4
       -2.5301546e-08 -2.4597654e-10 -3.8789522e-10 -6.642894e-17
000120 01 ce da af 61 93 5a b0 b8 44 77 b2 cc c5 eb af
       -3.9800344e-10 -7.9517376e-10 -1.4392917e-08 -4.2886794e-10
000130 61 c5 a7 20 ba ab 95 2e f2 97 40 b1 04 00 00 80
       2.8421515e-19 6.80624e-11 -2.8026048e-09 -6e-45
000140 c8 3e 9f 34 18 04 36 35 e6 7e f1 34 81 d5 d8 35
       2.9661737e-07 6.780624e-07 4.498208e-07 1.6155392e-06
000150 f7 93 7e 34 fc 1c 90 36 ac 56 ad 34 c4 86 19 33
       2.3709423e-07 4.2949086e-06 3.2286823e-07 3.5745657e-08
000160 ea ee 7a 34 39 ed 16 36 99 5d 8d 34 7b 7d 0c 34
       2.3369981e-07 2.2489824e-06 2.6331398e-07 1.3084166e-07
000170 ca 4c b5 32 68 e9 21 35 98 f7 14 35 56 ca 49 34
       2.1106093e-08 6.0316825e-07 5.549459e-07 1.8793193e-07
000180 72 21 85 32 58 f7 a6 34 15 6a e3 33 2f 48 8f 33
       1.5498447e-08 3.1099876e-07 1.05898074e-07 6.6720865e-08
000190 0d 6f 9a 33 e4 af dc 35 7d 8b 87 b3 dd 39 0b b4
       7.191384e-08 1.6442468e-06 -6.3118e-08 -1.2966434e-07
0001a0 db 53 ab 33 78 84 e9 31 2e 34 02 34 9f df 26 32
       7.978061e-08 6.7962524e-09 1.2126176e-07 9.713317e-09
0001b0 3b 08 47 b3 8b 0f 8c 34 c7 ee 63 34 1b c9 a4 31
       -4.6340784e-08 2.608834e-07 2.1227889e-07 4.7958912e-09
0001c0 00 00 00 00 00 00 00 00 00 00 00 00 00 00 00 00
       0.0 0.0 0.0 0.0
0001d0 00 00 00 00 00 00 00 00 04 00 00 00 04 00 00 00
       0.0 0.0 6e-45 6e-45
0001e0 04 00 00 00 00 00 00 00 04 00 00 00 04 00 00 00
       6e-45 0.0 6e-45 6e-45
0001f0 00 00 00 00 04 00 00 00 04 00 00 00 00 00 00 00
       0.0 6e-45 6e-45 0.0

exp_avg_sq f4 [8, 16]
000000 c5 43 7a 2f 69 a1 6b 30 e4 3f 03 31 9d a9 77 2e
       2.2761444e-10 8.572188e-10 1.9099327e-09 5.6311945e-11
000010 20 3e 6e 30 b1 61 c5 29 a3 0d 50 30 3c 56 ab 2b
       8.667218e-10 8.765504e-14 7.568934e-10 1.2174216e-12
000020 bf 10 c7 31 e5 f3 dc 2e 44 83 f8 30 bf 40 5d 30
       5.793566e-09 1.0047766e-10 1.8081683e-09 8.049134e-10
000030 d1 fc 10 2f e8 53 61 30 5b 47 3d 31 c9 88 42 30
       1.3186542e-10 8.197376e-10 2.754368e-09 7.077117e-10
000040 36 87 a4 2e a4 81 02 32 ce 35 b4 2f ec 34 f3 2e
       7.481875e-11 7.596473e-09 3.278004e-10 1.10597614e-10
000050 4f 3b 01 2f 0e fa c9 2e f9 89 6a 2c e0 13 87 2c
       1.1753552e-10 9.1848404e-11 3.332999e-12 3.8391373e-12
000060 11 24 3c 33 b7 07 a2 2c 97 ed 55 31 70 93 2c 2e
       4.3804963e-08 4.6051734e-12 3.1130634e-09 3.9239223e-11
000070 76 67 62 2c 94 65 92 32 81 0f 42 31 4b 4f ca 2b
       3.2173964e-12 1.704283e-08 2.8239528e-09 1.4374971e-12
000080 6e bb 70 2d 80 65 62 2f be fa 93 2e ad 66 ea 2a
       1.3684038e-11 2.059064e-10 6.729327e-11 4.1637996e-13
000090 e8 6a e3 2a 4e a3 a7 28 81 73 fb 2e 84 e0 a0 2b
       4.0397481e-13 1.8611547e-14 1.1434676e-10 1.1430999e-12
0000a0 f3 4b 86 30 e1 b5 37 2d 6d 63 06 2f f2 da f8 2e
       9.771369e-10 1.0442731e-11 1.2222552e-10 1.1316627e-10
0000b0 90 bb 28 2e e7 79 05 30 76 e7 42 2f 52 37 9d 2e
       3.8365366e-11 4.855835e-10 1.7726429e-10 7.14936e-11
0000c0 7f 6b 1b 30 8b 3d 18 2f 6c 33 a3 31 24 01 9b 2f
       5.654143e-10 1.3846184e-10 4.7497704e-09 2.8195146e-10
0000d0 3d 4c 73 30 3f 5e 87 2b 5c f1 c8 30 82 bd a0 2c
       8.8511226e-10 9.618485e-13 1.4620514e-09 4.568513e-12
0000e0 f5 02 17 32 55 12 1d 2e 61 6a 1e 31 49 2d da 30
       8.790029e-09 3.571395e-11 2.3052495e-09 1.5874458e-09
0000f0 ba dd c0 2f 4a cb 81 2f 04 b2 ac 31 92 d9 3e 30
       3.5082143e-10 2.360941e-10 5.026097e-09 6.9430783e-10
000100 2a b3 25 31 18 49 cc 30 5a 52 65 32 4d cc 22 33
       2.4112503e-09 1.4863728e-09 1.3348279e-08 3.7904375e-08
000110 7a 8a a5 31 31 ff e3 29 d6 d2 58 30 16 c3 98 2b
       4.817875e-09 1.0125094e-13 7.887996e-10 1.0854397e-12
000120 16 00 26 34 8c 83 12 2f 8f 4c e7 30 09 77 65 30
       1.5459986e-07 1.3325357e-10 1.6829221e-09 8.3478874e-10
000130 63 3a 84 2f e9 72 69 33 a5 48 dd 31 f4 31 ce 30
       2.4052146e-10 5.435405e-08 6.4402053e-09 1.500267e-09
000140 7b 05 0c 31 58 d1 59 30 da 25 e6 32 6d 51 b4 30
       2.0375797e-09 7.9241635e-10 2.6792737e-08 1.3119866e-09
000150 b0 f7 13 32 56 90 99 2f 86 2a 3b 2f 7b ac ae 2c
       8.612844e-09 2.7933095e-10 1.7022658e-10 4.9645266e-12
000160 d5 39 a3 33 7e 95 19 31 b9 a7 17 31 98 ba 8c 2d
       7.6007986e-08 2.2349407e-09 2.2068731e-09 1.5999022e-11
000170 6a 88 39 2f 75 f7 9d 31 c4 4a 35 32 b1 58 43 31
       1.6874116e-10 4.597434e-09 1.0552586e-08 2.842665e-09
000180 6e 0c 2b 30 89 5f 32 2f 8c 4b 5a 2e 24 b5 95 32
       6.22271e-10 1.6222947e-10 4.963456e-11 1.7428256e-08
000190 bf 3d 66 2e 2f 9c c0 2f 10 7e b3 2c 2d b0 46 2b
       5.2350787e-11 3.5035572e-10 5.1014817e-12 7.0588224e-13
0001a0 6f d7 08 32 0b d0 41 2e d7 1d 8d 2f 4c a8 d7 2c
       7.965226e-09 4.40679e-11 2.5668953e-10 6.1293522e-12
0001b0 68 f9 94 2f 6d 7c b7 31 16 94 26 2f 07 3e 66 2b
       2.7098257e-10 5.3401465e-09 1.5150223e-10 8.1798495e-13
0001c0 00 00 00 00 00 00 00 00 00 00 00 00 00 00 00 00
       0.0 0.0 0.0 0.0
0001d0 00 00 00 00 00 00 00 00 e3 83 7a 24 68 5e 18 24
       0.0 0.0 5.432182e-17 3.303971e-17
0001e0 45 de 82 23 00 00 00 00 b9 8a 50 25 85 6a 0b 24
       1.4188763e-17 0.0 1.8088125e-16 3.0231046e-17
0001f0 00 00 00 00 bb ed 25 22 65 97 68 25 00 00 00 00
       0.0 2.2487523e-18 2.0174087e-16 0.0

exp_avg f4 [8]
000000 90 f4 93 b0 c0 3d e6 33 63 4c db 2d 03 30 3a b1
       -1.0765167e-09 1.0721442e-07 2.493134e-11 -2.7093854e-09
000010 3f ec da b0 bf 88 14 34 bf 6e 65 33 04 00 00 00
       -1.5928733e-09 1.3833322e-07 5.341894e-08 6e-45

exp_avg_sq f4 [8]
000000 e2 1f a0 2e ce 16 4e 2e 34 0f a6 2d 66 04 23 2f
       7.281621e-11 4.6859232e-11 1.8878767e-11 1.4826326e-10
000010 e2 08 e1 2f 16 5a 0b 30 dc c6 bd 2d 2c 25 d1 22
       4.0933573e-10 5.0695925e-10 2.1575124e-11 5.668892e-18

exp_avg f4 [2, 8]
000000 6c d3 4c b1 23 10 9b b7 a3 0f 98 b1 c2 8d 57 b3
       -2.9806086e-09 -1.8484954e-05 -4.42556e-09 -5.0187516e-08
000010 55 ef 14 b1 d0 00 f6 b6 01 fb 8f b6 04 00 00 80
       -2.167288e-09 -7.331466e-06 -4.290953e-06 -6e-45
000020 ce 0d 20 b1 8d de 07 b8 3f 58 69 b1 50 22 2c b3
       -2.3290911e-09 -3.2393775e-05 -3.3956125e-09 -4.0078078e-08
000030 3e 4f eb b0 14 81 b0 b6 a9 7d c6 b6 04 00 00 00
       -1.7121022e-09 -5.2602354e-06 -5.9154886e-06 6e-45

exp_avg_sq f4 [2, 8]
000000 00 26 21 35 c9 00 94 31 25 ea 48 2f aa 24 65 32
       6.003247e-07 4.307456e-09 1.8273079e-10 1.3337891e-08
000010 5f e4 bb 35 42 9f 11 35 b8 c0 45 32 78 21 e6 1d
       1.399905e-06 5.424846e-07 1.1510728e-08 6.09151e-21
000020 f4 91 4c 35 76 51 01 33 f5 f5 fc 2e b0 f5 34 31
       7.620831e-07 3.010924e-08 1.1503324e-10 2.6333105e-09
000030 77 18 87 36 b0 15 17 35 47 0a 9e 32 f2 2b 9c 1c
       4.0261616e-06 5.6283443e-07 1.8398294e-08 1.0334574e-21

exp_avg f4 [2]
000000 be f7 99 b4 ec 01 8e b4
       -2.8678727e-07 -2.645096e-07

exp_avg_sq f4 [2]
000000 f1 9b 94 33 be 42 8f 33
       6.9201526e-08 6.671097e-08

fc1.weight f4 [32, 4]
000000 e0 fa c8 96 20 8e 21 18 13 8c 06 98 51 8a 25 98
       -3.2470067e-25 2.0880517e-24 -1.7389813e-24 -2.1395582e-24
000010 87 d7 0a 31 d4 3f 53 30 88 c1 46 31 1d 04 8e 2f
       2.0204156e-09 7.685206e-10 2.8922802e-09 2.5832572e-10
000020 48 6f 79 b2 8b 3e 03 b1 7e f7 9e b1 a4 8f 56 b0
       -1.451901e-08 -1.909856e-09 -4.626542e-09 -7.805687e-10
000030 73 00 19 9f 61 b9 67 1f 72 ef 4a 9e f1 9f 40 9f
       -3.2399382e-20 4.9069495e-20 -1.0743307e-20 -4.0789882e-20
000040 4b b6 c7 ba d3 84 cc bb e7 78 92 bb d9 9d 94 bb
       -0.0015236823 -0.00624142 -0.004469979 -0.0045354185
000050 7c 13 ec 1a 7f 51 07 1c 0d aa 63 1b 1e 11 8f 1b
       9.763879e-23 4.4773084e-22 1.8831946e-22 2.3668427e-22
000060 d9 08 33 3a 2c d4 7e ba 31 2d 48 3a 49 12 75 ba
       0.00068296265 -0.0009720947 0.00076361286 -0.0009348733
000070 f8 74 34 31 dd 79 e7 b0 9e 73 b6 31 d0 b9 07 b2
       2.6259936e-09 -1.6842098e-09 5.3100413e-09 -7.900283e-09
000080 ba 12 4f b2 fc 48 c3 32 03 54 15 b3 f0 3d 5a 33
       -1.2053244e-08 2.2734177e-08 -3.4768174e-08 5.0813412e-08
000090 4a 5c 97 99 3a fe 38 1a ee 5b 1b 1a 82 1a 21 99
       -1.565031e-23 3.825567e-23 3.212751e-23 -8.328858e-24
0000a0 12 f5 d9 af d4 1f 19 30 8a 76 db 2f dc 18 9b af
       -3.9646203e-10 5.5706306e-10 3.9920095e-10 -2.8212e-10
0000b0 f7 c7 88 ba 4c 1d f7 ba f0 82 ab ba 5b 31 12 ba
       -0.0010435571 -0.0018853336 -0.0013085287 -0.00055768125
0000c0 4a bd 65 3a 54 55 cf 38 83 ae 1b ba 47 00 44 ba
       0.0008763863 9.886423e-05 -0.0005938785 -0.0007476848
0000d0 8e 21 02 a9 16 a6 47 29 70 d1 d2 29 7c 9c 73 28
       -2.8894903e-14 4.4330933e-14 9.362205e-14 1.3523142e-14
0000e0 e5 f4 17 bb 89 05 29 bb 22 16 ea bb 8b 40 8d 3a
       -0.002318674 -0.0025790653 -0.0071437517 0.0010776682
0000f0 e8 9d b7 b7 8f 2e 23 38 e1 1c fc b7 dc 9f e9 37
       -2.188883e-05 3.890559e-05 -3.0054189e-05 2.7850205e-05
000100 9b af 04 3d ce 54 ab 3c f7 02 89 b9 ed 76 a7 bc
       0.032394033 0.020914461 -0.00026132885 -0.02044245
000110 de 42 92 3c a7 cc 51 3c f2 2b 80 ba f4 3f 25 3b
       0.01785415 0.012805141 -0.0009778722 0.002521512
000120 18 dd c5 a8 ee a2 15 28 16 a8 31 a9 b9 fc f2 28
       -2.1967278e-14 8.306491e-15 -3.9447686e-14 2.6976998e-14
000130 5d 23 19 39 e8 62 8b 38 d4 ba 1d b8 e7 1d d1 b8
       0.00014604391 6.646459e-05 -3.7605714e-05 -9.971466e-05
000140 13 d9 2b 2f b4 b6 a8 2d 32 1b 07 2d d9 37 a4 2e
       1.562948e-10 1.9180525e-11 7.6799e-12 7.467777e-11
000150 f1 2f 89 bb c4 e2 2f bc 5c 49 d2 bb 55 02 c3 bb
       -0.0041866233 -0.0107352175 -0.0064174365 -0.0059512057
000160 54 f8 25 39 c8 e2 c9 38 bd be 97 b6 8d 23 06 b9
       0.00015828136 9.626668e-05 -4.5223555e-06 -0.0001279248
000170 c4 f1 94 2e 76 4b ab ac d7 0e c0 2d 1b 55 4e 2e
       6.773207e-11 -4.86849e-12 2.1834463e-11 4.6914566e-11
000180 7a 87 b2 15 6a e9 b2 14 d2 1d 82 14 45 66 48 15
       7.210737e-26 1.8065472e-26 1.3138408e-26 4.0470355e-26
000190 62 7e 70 ba de fc 2a b9 15 5b 2e 3b 16 16 36 39
       -0.0009174106 -0.00016306664 0.0026604582 0.000173651
0001a0 8b 20 a8 bb d1 e1 0f bb 21 bc 2e bd 75 10 84 3c
       -0.0051308325 -0.0021954665 -0.042659882 0.016121129
0001b0 8a 67 e4 bb b3 9c f8 bc 5f 6d e5 3c 00 fd 87 bc
       -0.0069703506 -0.030348158 0.028006254 -0.016600132
0001c0 c7 27 33 ba 86 05 12 bb c5 4b b6 ba 80 6c 91 ba
       -0.00068342354 -0.0022281124 -0.0013908079 -0.0011094958
0001d0 b6 d2 bd 1a 30 23 24 1c 78 29 5f 1b ab 33 30 19
       7.850899e-23 5.4308527e-22 1.8459527e-22 9.109421e-24
0001e0 a4 3c 86 ba 36 ef 30 bb 6b 58 cc ba c4 86 e9 b9
       -0.0010241461 -0.002699805 -0.0015590315 -0.0004454163
0001f0 e2 a8 86 39 ec 09 d6 bb 72 06 04 3c 95 0c 12 3c
       0.000256843 -0.0065319445 0.008058177 0.008914133

fc1.bias f4 [32]
000000 b9 8e 8a 98 c5 13 8c b1 db 25 1e b3 5d 18 b6 9e
       -3.5816277e-24 -4.076784e-09 -3.682167e-08 -1.9280076e-20
000010 af 0e 1e 3b df 84 52 9c 7a 78 dd ba a6 ae a5 b3
       0.0024117639 -6.9654903e-22 -0.0016896867 -7.7151796e-08
000020 3e e0 63 b4 bc fb 1b 9a 71 40 0a b1 d7 66 8e 3a
       -2.1222601e-07 -3.2256598e-23 -2.0118274e-09 0.0010864389
000030 14 d4 11 ba 74 16 c5 a8 88 2f 58 3b f8 32 08 b8
       -0.0005562913 -2.1881131e-14 0.0032987315 -3.2472395e-05
000040 2b cc 02 3d b2 e3 a0 ba 50 86 13 aa af 3c 73 b9
       0.03193299 -0.001227489 -1.3102822e-13 -0.00023196892
000050 f5 35 ea ad a5 8c 84 3b d2 78 79 b9 8c 23 1b ac
       -2.6626682e-11 0.0040450864 -0.000237915 -2.2046557e-12
000060 1e c9 fe 13 84 da 66 3a ce 5b b4 3c b9 2f 31 bd
       6.431693e-27 0.0008806365 0.022016432 -0.043258402
000070 44 5a 5c 3a c3 32 56 1b 54 6a ba 3a 6a 7f 9e 3a
       0.00084057846 1.7718067e-22 0.0014222362 0.0012092416

fc2.weight f4 [16, 32]
000000 d4 f1 41 80 1e 74 04 84 10 28 81 ba e0 97 f1 85
       -6.056059e-39 -1.5569844e-36 -0.0009853859 -2.2719321e-35
000010 73 aa 91 39 ee 92 21 00 f0 91 29 3c 02 96 bd a7
       0.0002778355 3.08328e-39 0.010349736 -5.2620677e-15
000020 ad 74 0c 38 db 46 15 00 d2 b4 d9 88 7a 6d bc 39
       3.3487264e-05 1.953964e-39 -1.3102723e-33 0.0003593972
000030 08 c9 24 b6 63 a0 73 00 fa 0d c2 37 e2 57 14 b7
       -2.455492e-06 1.0618618e-38 2.313311e-05 -8.841949e-06
000040 88 63 a4 3c 35 ac 63 3d c0 8c 6f 0e 64 14 57 ba
       0.020066991 0.05558415 2.9526793e-30 -0.00082046376
000050 51 4e 10 00 1d d9 5f 38 79 00 06 3c 14 e5 11 80
       1.497463e-39 5.3369546e-05 0.008178824 -1.643381e-39
000060 ba 17 10 00 75 23 8f bb 2e 35 f4 ba ac 06 14 ba
       1.47788e-39 -0.0043682405 -0.0018631571 -0.0005646746
000070 54 a1 91 3a ae f3 32 00 0a e9 a9 ba a2 73 9b 3c
       0.0011110702 4.67919e-39 -0.0012963128 0.018976036
000080 7c b0 44 17 fe 4f fe 30 d7 5a 3f 3b 54 3d 02 9e
       6.355377e-25 1.8503667e-09 0.0029198432 -6.894825e-21
000090 a7 2b 49 3c 0f f7 4d 1b 31 df 18 3b 24 7f a5 b2
       0.012278474 1.7037031e-22 0.0023326392 -1.9266345e-08
0000a0 dc 20 10 15 41 51 c9 98 5b 50 a7 aa 25 93 0d 3a
       2.910649e-26 -5.2039328e-24 -2.9720917e-13 0.00054006494
0000b0 87 5d 4f ba 20 2d cc 28 99 e0 3a 3a c4 31 cc b7
       -0.000791036 2.266812e-14 0.00071288046 -2.4341869e-05
0000c0 1e c9 1a 3d 95 77 f8 bc 1d 00 4b 1d 6a 29 09 3b
       0.037789457 -0.030330459 2.6866885e-21 0.0020929226
0000d0 4e ed 11 2f 9f 04 95 3b 7a 88 62 ba 32 e3 5e 2d
       1.3271981e-10 0.00454767 -0.00086415524 1.26696865e-11
0000e0 8a 7f fa 15 d2 dc f7 b8 2e cb d3 3b ee 6b b5 3b
       1.0117542e-25 -0.00011819009 0.00646343 0.005536548
0000f0 bd e0 80 3c bd bc c4 1b 23 d0 25 ba ea d0 a0 bb
       0.015732164 3.254745e-22 -0.0006325265 -0.004907717
000100 dd da 03 80 69 20 16 01 b2 f9 44 b2 48 19 9f 00
       -3.5402e-40 2.7573902e-38 -1.1465476e-08 1.4610913e-38
000110 a4 e5 53 a1 6a 9b ff 01 9a df e1 b6 b1 0d e3 9b
       -7.179351e-19 9.3895214e-38 -6.731553e-06 -3.7562848e-22
000120 a9 14 ad a1 d9 36 17 00 c5 f8 07 80 a2 9a 1a 2f
       -1.1728405e-18 2.131892e-39 -7.3209e-40 1.4061155e-10
000130 d0 4d 80 ad 08 53 40 80 4f 5f 07 2d c1 08 55 8a
       -1.4586471e-11 -5.907258e-39 7.695024e-12 -1.02572234e-32
000140 75 58 aa 37 88 95 65 3a 0a 6a 49 00 fc a2 23 00
       2.030677e-05 0.00087579386 6.742031e-39 3.27271e-39
000150 58 a2 6a 01 c8 77 0c 00 b4 0c 91 b5 11 d3 3a 80
       4.3095488e-38 1.144995e-39 -1.0807039e-06 -5.402175e-39
000160 de 90 0a 00 06 d2 e9 35 e3 e4 9d 9a de bb 1d a1
       9.70324e-40 1.7420978e-06 -6.5303465e-23 -5.344231e-19
000170 b2 99 0a 00 3f 2f 23 80 e1 5a e8 b0 3e ad 1c ba
       9.7349e-40 -3.231191e-39 -1.6906051e-09 -0.0005976743
000180 13 42 65 81 24 a0 a9 00 ef 81 26 80 1c 73 4d 82
       -4.2108063e-38 1.5577646e-38 -3.53636e-39 -1.5094056e-37
000190 5c bf b1 b1 70 60 a2 01 81 bb 27 80 a2 8b 5d 31
       -5.173133e-09 5.964778e-38 -3.648848e-39 3.2239105e-09
0001a0 59 79 e1 0d 5d 73 0f 80 5d cc a3 22 56 08 20 38
       1.3895909e-30 -1.418917e-39 4.4397617e-18 3.8154736e-05
0001b0 43 e8 6c b6 35 1d 37 80 09 63 22 00 46 bf 88 ab
       -3.5301935e-06 -5.06143e-39 3.157934e-39 -9.71647e-13
0001c0 ad 0c 77 b9 56 74 8e b7 fe 71 45 80 d8 61 80 8d
       -0.00023560478 -1.6981892e-05 -6.377542e-39 -7.912164e-31
0001d0 8b 24 52 80 ce 14 10 00 64 4b 29 37 61 c4 36 00
       -7.54362e-39 1.476831e-39 1.0090738e-05 5.029564e-39
0001e0 6f 04 0c 80 a1 ae 17 00 09 7d 03 80 ac ec 52 80
       -1.103616e-39 2.174861e-39 -3.2036e-40 -7.615413e-39
0001f0 55 f7 24 00 ba 30 1d 80 37 cf a3 37 40 59 e3 0b
       3.394804e-39 -2.680709e-39 1.9527606e-05 8.757151e-32
000200 1d 2a 09 80 5c ab 60 0b 0b 9f 0c 00 7a c7 47 00
       -8.41627e-40 4.3269747e-32 1.15908e-39 6.591879e-39
000210 be 56 86 95 55 69 42 82 07 68 20 92 3b 89 2e 04
       -5.4259024e-26 -1.4283098e-37 -5.061532e-28 2.0516615e-36
000220 86 e6 28 00 6a b2 71 01 ef 90 22 00 b8 29 b9 94
       3.756116e-39 4.4392715e-38 3.174399e-39 -1.8696681e-26
000230 76 2b 04 92 7c 7c 27 83 82 89 7b 95 9d 00 ee 91
       -4.1705426e-28 -4.921979e-37 -5.079752e-26 -3.7550157e-28
000240 71 f5 b5 95 f9 64 0d 94 0e e3 64 80 fa b6 87 07
       -7.3492556e-26 -7.138594e-27 -9.265001e-39 2.0420086e-34
000250 34 25 3e 09 1c 5b ef 95 3a 9b 6f 8b 16 aa a9 88
       2.288791e-33 -9.6675076e-26 -4.6146505e-32 -1.02113045e-33
000260 96 13 98 00 65 49 9e 93 be ca f6 95 57 95 da 94
       1.3966022e-38 -3.995718e-27 -9.967848e-26 -2.2071279e-26
000270 6e f3 93 94 64 ee 03 80 f9 b5 f3 94 53 60 b5 94
       -1.4939223e-26 -3.61025e-40 -2.4608505e-26 -1.8314323e-26
000280 74 a0 10 15 87 d5 2e af 05 62 2b bc dd 00 e5 1d
       2.9207144e-26 -1.5901068e-10 -0.010460381 6.0616688e-21
000290 3d 32 c7 bb a5 b9 eb 18 25 5d ef bb 82 05 97 b1
       -0.006078987 6.093353e-24 -0.007304805 -4.3953046e-09
0002a0 7c f5 c8 39 65 b6 3c 98 db 15 87 a7 35 56 1e bb
       0.00038329873 -2.4390516e-24 -3.7493723e-15 -0.002416027
0002b0 5a bf 08 3a 7f 96 5f 27 a7 d9 36 3a 1c 28 8f 39
       0.0005216502 3.102905e-15 0.0006975182 0.0002730497
0002c0 ff 5a a9 3c 22 05 61 3d b4 06 25 23 ee cd 5c 3b
       0.020673273 0.054936536 8.946087e-18 0.003369208
0002d0 b2 02 a4 2e ab 3b 42 b9 3c 68 fa bc 3c f6 df ac
       7.458335e-11 -0.0001852351 -0.030567281 -6.3653787e-12
0002e0 f0 24 04 15 4e ef cb bb 24 1c fc ba 87 e1 d8 3a
       2.6686326e-26 -0.0062235957 -0.0019234461 0.0016546705
0002f0 52 68 f3 ba 45 74 15 9a f0 03 e9 3b 5d 13 8c bd
       -0.0018570519 -3.09064e-23 0.007111065 -0.06839631
000300 09 c3 6a 18 2d a6 0c b1 a2 fa 46 bc 2e 4b 0a 9f
       3.0342259e-24 -2.0467141e-09 -0.012144716 -2.9284824e-20
000310 0a 1c ee 3b 43 dd fb 19 6d cf 88 3c 1f 3d 42 34
       0.007266526 2.6042159e-23 0.01670047 1.8089894e-07
000320 16 53 f6 3a f9 94 fd 99 e1 7e e4 ab c8 2f 70 3b
       0.0018793072 -2.6219756e-23 -1.623559e-12 0.0036649574
000330 8f 8d b0 b8 fc 35 ad a8 1a 18 fe 3b e8 9c 0e 39
       -8.418701e-05 -1.923027e-14 0.007754338 0.00013600627
000340 38 54 27 bd d5 03 c5 3d 0f dd 60 a8 a1 be ad bb
       -0.0408518 0.096198715 -1.2482432e-14 -0.0053022658
000350 9d 94 e8 2f 46 14 86 3c bb e2 80 3c ae 65 77 2e
       4.230615e-10 0.016367089 0.015733114 5.6251608e-11
000360 b3 41 34 16 f7 45 70 bb 68 4e f9 3c d2 37 2d 3c
       1.4561015e-25 -0.0036662796 0.030432895 0.010572391
000370 6b 7d 3c ba 35 7f 9d 9b 19 6b 8c 3b c3 48 26 bc
       -0.00071903196 -2.6055677e-22 0.004285228 -0.010149184
000380 d3 5a 1f 00 cc e5 24 00 14 8b 0d b6 12 5f ca 00
       2.879482e-39 3.388513e-39 -2.1091591e-06 1.8584875e-38
000390 89 92 22 36 fe 13 8e 00 76 78 46 35 fb 15 9e a6
       2.4225176e-06 1.3047812e-38 7.393604e-07 -1.096941e-15
0003a0 fe fd 21 00 aa 9f 24 80 b7 09 2e 0b b3 b5 02 34
       3.121687e-39 -3.363355e-39 3.351849e-32 1.2173295e-07
0003b0 8b 65 d5 2c 75 34 2e 00 a3 d9 02 00 1c d2 b4 98
       6.0650976e-12 4.243251e-39 2.61744e-40 -4.6741066e-24
0003c0 ca b6 88 b9 6e 3a e5 b4 59 40 81 80 d8 26 f2 36
       -0.0002607613 -4.2697087e-07 -1.1869863e-38 7.216684e-06
0003d0 e4 4b 2f 01 bb a4 91 b0 1d fc fc b3 f5 45 1b 00
       3.2196873e-38 -1.0596958e-09 -1.17805236e-07 2.504654e-39
0003e0 b6 08 36 80 4f d6 75 00 35 3b 3d 80 e6 d7 a6 36
       -4.962242e-39 1.0821632e-38 -5.623205e-39 4.9723194e-06
0003f0 17 1c f9 36 96 f3 24 00 31 48 c9 30 4b 0d c9 b1
       7.4240484e-06 3.39346e-39 1.4645193e-09 -5.851381e-09

fc2.bias f4 [16]
000000 61 0b 2a bd 68 67 d0 3c 0e 06 1c ba 1d 48 c5 b9
       -0.041514758 0.025439933 -0.000595183 -0.00037628497
000010 3e e4 30 98 4b 3d 26 3d 18 10 3b 3e c8 fe 2e ba
       -2.28627e-24 0.040585797 0.18267858 -0.00066755386
000020 bb ab 7e 3c 1d e1 20 a9 e5 35 ff ad df e1 26 bb
       0.015543873 -3.572239e-14 -2.9014078e-11 -0.002546422
000030 05 ce 4c ba d6 fd c7 aa 26 97 99 a9 ce 8d 4e 9b
       -0.0007812682 -3.5525635e-13 -6.820785e-14 -1.708574e-22

fc3.weight f4 [1, 16]
000000 89 7e f3 3c 40 28 18 bd 6e db 08 b8 a8 5b 09 b7
       0.029723423 -0.03714776 -3.2629287e-05 -8.187177e-06
000010 e9 f0 88 18 d0 11 88 bc 08 d4 13 be 3f 38 fb b5
       3.5398433e-24 -0.016610056 -0.14436352 -1.8717327e-06
000020 bb 54 ed bb 4b f6 0b 00 ad fd d4 b5 ff 13 7b b6
       -0.0072427667 1.098544e-39 -1.586906e-06 -3.7413554e-06
000030 9c 2b d8 38 68 2a 11 00 57 3a c8 a9 36 6b 6c b5
       0.000103078055 1.576416e-39 -8.8919045e-14 -8.8072863e-07
