p2_continuous-control/checkpoint_actor.pth (torch_old, 541413 bytes, 6 tensors)

fc1.weight f4 [400, 33]
000000 d9 fd 5b 3d 42 22 e6 bc a1 2d 04 bd e2 9c 5b 3e
       0.053708885 -0.028092507 -0.032270078 0.21446565
000010 94 cf 47 bd 67 2a 0f 3d 0d 23 a7 bd 02 4d 12 bc
       -0.048781946 0.034952547 -0.08160982 -0.008929493
000020 8d ab ee bd 13 1c 1f bc 4b ae 04 bd 60 41 8c bc
       -0.116538145 -0.009711283 -0.03239278 -0.017121017
000030 b8 00 55 bc ab 6c 13 bc a0 06 b5 3b 94 f5 dd 3b
       -0.01300066 -0.008998076 0.0055244714 0.00677366
000040 38 98 bc 3c 12 1a 76 bd e6 fc ae bd 96 32 40 be
       0.023021802 -0.060083456 -0.0854433 -0.18769297
000050 45 bc f6 39 6f 7e 51 bd d4 ec 6c 3d 11 6e c2 bc
       0.00047061048 -0.051145967 0.057843044 -0.023734124
000060 63 c0 19 bc 4c 3a e3 3c 6f f2 bf bd af c4 16 be
       -0.0093842475 0.027737759 -0.093724124 -0.14723466
000070 43 7f a0 3a c3 d1 ab bc 8c b1 b3 3d d7 89 f0 bc
       0.0012244958 -0.020974046 0.08774099 -0.029362602
000080 14 91 d7 bf 0c b1 90 bc 2d c2 c1 bd 13 14 a4 bd
       -1.6841149 -0.017662548 -0.09460864 -0.08011641
000090 82 29 1e bc 3e 63 e9 3c eb 92 4a 3e ea 50 5b 3e
       -0.009653451 0.028489705 0.19782607 0.21417585
0000a0 77 65 89 3d b5 3d d8 3d ef ed 03 3e 19 16 97 3d
       0.06708806 0.10558645 0.12883733 0.07377262
0000b0 01 53 a9 bc 4a ff 90 3c 39 95 b6 bc 4e 96 1a bd
       -0.020669462 0.017699856 -0.022287952 -0.037740998
0000c0 9f a0 1c be bd e1 78 3e bd 1b 93 3e d8 64 3a 3e
       -0.15295647 0.24304862 0.287321 0.18202531
0000d0 14 ba 42 3e e5 09 8d bd 2c 52 8a bd 3e 07 82 bd
       0.19016296 -0.06886653 -0.06753954 -0.063490376
0000e0 90 4b 00 bd ff df 8a 3b 36 25 c8 3d 33 5a 28 3d
       -0.031322062 0.004238128 0.097727224 0.041101646
0000f0 de cc 1c 3c 33 5a 0a 3d 35 60 3b bd 92 eb 2c 3c
       0.0095703285 0.033777427 -0.045746047 0.010554211
000100 4e 2a 10 bd 79 73 f2 be 04 9c 80 3d c0 a1 2d bd
       -0.035196595 -0.47353724 0.062797576 -0.042390585
000110 18 2a 80 bd a0 54 a2 3e cb 43 e0 bc d7 04 91 3e
       -0.06258029 0.3170519 -0.027376076 0.28324005
000120 ae 81 06 be 00 04 bb 3d a0 35 0b be 8b 7d 1b be
       -0.13135406 0.09131622 -0.13594675 -0.1518461
000130 2a 39 89 3c 53 ed e9 bd 2c 96 0d 3d 5d 20 f7 3c
       0.01675089 -0.11422219 0.034567043 0.0301668
000140 43 48 af bd 48 df c4 bd ae 28 a5 bd 8b e0 e6 ba
       -0.08558705 -0.096129 -0.080644 -0.0017614526
000150 d1 9c e5 bd ac e4 25 3d 28 25 2e 3e 75 42 9a 3d
       -0.11211551 0.04050128 0.17006361 0.07532207
000160 8d 30 92 3d e6 1a 04 3d 19 e3 96 bb d0 bc a8 bc
       0.071381666 0.032252215 -0.004604709 -0.020597845
000170 be ba b9 bd a6 3b 8f bb 1a 84 90 bb c3 f1 c9 bc
       -0.09068821 -0.0043711243 -0.004410279 -0.024651414
000180 72 fe 4f 3d 49 b0 05 3d 0a af 0f 3f f7 83 e5 3d
       0.050779767 0.03263882 0.56126463 0.11206811
000190 a4 4c 93 3d 3e 8f 11 3d 8e a7 d4 bd 90 f4 16 bd
       0.071923524 0.035536997 -0.10383521 -0.036854327
0001a0 f8 f7 70 bd 3d 5d a8 bd b3 10 05 be 07 c1 5e 3e
       -0.05883023 -0.08220909 -0.12994651 0.21753322
0001b0 68 4f 95 3c 47 d7 39 3d b3 47 a1 bd 3e 8a 02 3d
       0.01822634 0.04537132 -0.07875004 0.03187012
0001c0 ad 98 f5 3d d9 51 a9 3d 66 14 a9 3b 34 da f4 3d
       0.11992011 0.08267564 0.0051599024 0.119556814
0001d0 bf e8 98 bd 45 68 b6 3d 82 e9 3c be cb d5 80 3d
       -0.07466268 0.089066066 -0.18448451 0.06290778
0001e0 57 40 22 3d fc 12 13 bd a6 ba 58 3c 28 50 b6 3d
       0.03961214 -0.035906777 0.013228094 0.08902007
0001f0 ba 6b 34 bd 7a 5a 2a be e6 77 f4 3b 44 80 da 3c
       -0.04404805 -0.16636077 0.007460582 0.02667249
000200 d4 10 14 3c 04 f2 1d bd a7 57 29 3d fd d5 f6 3e
       0.009037215 -0.038560882 0.041343357 0.48210135
000210 e2 7f 58 3c 35 f4 24 3b 08 1a 4c 3c e6 5d cf 3e
       0.013214083 0.0025169973 0.012457378 0.40501326
000220 37 86 82 3d 5a 5e 11 bd aa b8 cc bd de 79 90 bd
       0.06373256 -0.03549037 -0.099961594 -0.07054494
000230 04 ba b4 bd b3 36 64 3d fa d4 98 3d 35 e5 38 3c
       -0.08824542 0.055716228 0.07462497 0.011285116
000240 c8 e1 95 3d 62 d5 9b 3c d6 ef d0 3c 49 17 b9 bd
       0.07318455 0.019022647 0.025504988 -0.090376444
000250 32 63 98 be 2e 96 66 3e 41 b9 64 be 94 08 88 3c
       -0.2976318 0.22518227 -0.22336294 0.016605653
000260 9c ed af 3c 4f ba 65 be 3f 8d 69 3e 6c df 12 3c
       0.021475606 -0.22434352 0.22807787 0.008964401
000270 6b 26 e7 bd a8 a2 fa bd 2f 0f f5 3d 87 4f 2a 3d
       -0.112866245 -0.122380555 0.11965787 0.04157975
000280 f1 e2 99 3d c3 71 a0 bc 13 00 22 3d b2 76 c8 3c
       0.07513989 -0.019585496 0.039550852 0.02447066
000290 85 c8 5c 3e e9 ad 1c 3d e7 eb 1e 3e 3e 1e 3b 3e
       0.21560867 0.03825179 0.15519677 0.18273255
0002a0 2b 0d a3 3e 9f 31 a7 3d 3a 51 15 be e3 34 dc 3d
       0.31845984 0.08163761 -0.14581767 0.10752275
0002b0 a1 4d 09 bd 3c 89 ea bc 56 f6 92 3d ac fc 68 3d
       -0.0335213 -0.028629892 0.07175891 0.05688159
0002c0 9f 97 3f 3e ca 6b a6 3c aa ac e4 3d d8 ea 90 3d
       0.18710183 0.02031507 0.111657456 0.07076043
0002d0 8c 33 ef bb 58 69 a4 3e d8 87 32 3e 20 d8 e3 be
       -0.007299846 0.3211162 0.17434633 -0.44500828
0002e0 da 10 3d bd 06 aa 92 3d 6d 64 3d 3d 47 19 e3 bc
       -0.04615865 0.07161336 0.04623835 -0.027722014
0002f0 80 f6 6d bd de 31 89 3e 76 1b 98 bd 59 eb 27 3c
       -0.05809641 0.26795858 -0.07427113 0.010248982
000300 69 30 b0 3d 27 ec 95 3c 23 ca 24 3d ba 35 ac bb
       0.086029835 0.018301083 0.040231835 -0.005255428
000310 fd 16 f9 bc 09 4f fb 3e 96 a7 14 be 6b e6 98 bd
       -0.03040647 0.49083737 -0.14517054 -0.07465824
000320 8a 7a 5b 3e 7a 3d 7c be 05 bf 7c 3e d3 ae 30 be
       0.21433464 -0.24632826 0.24682243 -0.1725419
000330 56 30 eb 3c 18 b5 77 3d 94 92 08 bd db 2a 27 3d
       0.028709572 0.06047544 -0.033342913 0.040812355
000340 69 53 95 3d 2c e6 40 bd 32 a2 36 bc ce c1 54 bd
       0.072913 -0.04709451 -0.011147069 -0.05194264
000350 19 99 ae bd 53 6b bb 3d da 13 62 be 61 93 02 be
       -0.08525295 0.0915133 -0.22077885 -0.12751533
000360 7d b3 df 3d 46 d4 67 be c3 b0 40 3e 8c 57 e8 bd
       0.109229065 -0.2263957 0.18817429 -0.11344823
000370 33 f8 cc 3d be 40 ec bb 75 fa ee 3c 28 27 65 3c
       0.10008278 -0.0072098663 0.029172162 0.013986386
000380 89 3d 27 be 6e 7a 73 bd fd 39 e0 3c f3 e5 1d 3d
       -0.16332068 -0.05944293 0.027371401 0.038549375
000390 fd d8 fe 3d 74 a5 74 3c 18 3b 82 3e 80 05 81 3c
       0.12443731 0.014932025 0.2543571 0.015749693
0003a0 3a e7 f8 bc 6a db ba bd b0 54 96 bd 2f 53 32 be
       -0.030383695 -0.09123881 -0.073403716 -0.17414545
0003b0 44 3b d7 3e dc 4b 46 3e c8 ea 13 3d 48 ab 60 bc
       0.42037404 0.19364876 0.036112577 -0.013712712
0003c0 f5 76 8c bc f7 b8 7d 3d 42 2e 86 bd 5f 2d c1 bd
       -0.017146567 0.061943974 -0.06551792 -0.09432482
0003d0 08 f9 cf 3c bc 28 0a bd 7e 05 5e bd da 2c e4 3b
       0.025387302 -0.033730254 -0.054204457 0.0069633545
0003e0 c9 b3 88 3d f3 42 f0 3e f1 4d 79 3e 38 95 39 bb
       0.06674916 0.46926078 0.24346139 -0.00283177
0003f0 eb eb d4 bc 8c 48 ab bd 3b 59 dc bd 55 29 b8 bd
       -0.0259914 -0.083634466 -0.10759207 -0.089922585

fc1.bias f4 [400]
000000 4f 12 93 3e fb bf 11 3e ce ad 06 3e f6 cd 9f 3d
       0.28724906 0.14233391 0.13152239 0.07802956
000010 3d 82 c7 3d 47 1c f8 3d dd a8 68 3e c5 f1 10 3d
       0.09741638 0.121147685 0.22720666 0.03538682
000020 a3 1b 2c 3e 0e 5b f2 bd dc 0a 83 3e af f0 64 3d
       0.16807418 -0.118337736 0.25594223 0.055893596
000030 69 18 b2 39 4d 54 d7 bd ca 0f 50 3e d3 22 c4 3d
       0.00033968993 -0.10514126 0.20318523 0.09576955
000040 d8 28 0a bc c6 12 b2 bd 79 c0 29 be c5 d7 88 3e
       -0.0084325895 -0.08694987 -0.16577329 0.2672712
000050 ef d8 20 be cb 70 a7 3d 51 98 b1 3e c5 d6 7c 3d
       -0.15707754 0.081758104 0.3468652 0.061728258
000060 a3 ab a3 bd 75 2c 7b bd 45 39 be bd df 0b 05 3d
       -0.079917215 -0.061321694 -0.09288267 0.032482024
000070 02 1b 8a bc 4b c9 6a 3c 63 39 73 3d 75 08 bd 3d
       -0.016858581 0.014330219 0.0593809 0.09230129
000080 82 80 a9 3d 46 19 ff bb 27 6b 0a 3e 3b f2 21 3d
       0.08276464 -0.0077849953 0.13517438 0.03953765
000090 60 7a 0a be c0 51 ff bb 93 8e 66 3d 2d b1 56 bd
       -0.13523245 -0.007791728 0.056288313 -0.05241506
0000a0 91 41 b8 3c bf 2e 0d be 86 c4 49 3e 1d d8 59 bd
       0.022492202 -0.13787363 0.19703874 -0.053184617
0000b0 e5 d9 96 3c 4d 40 21 be 1c d0 89 bd 97 c3 24 3d
       0.018414447 -0.15747185 -0.06729147 0.04022559
0000c0 27 81 d6 3d 6e ae 0c bd 86 da 2d be ce 1b 11 3d
       0.104738526 -0.034346037 -0.16977891 0.035426907
0000d0 85 7e d0 3c eb 82 8f bd a9 fd 99 bd 37 65 94 3c
       0.025450954 -0.070073925 -0.07519085 0.01811467
0000e0 84 0a bf bb 06 fb 47 bc a4 bf c2 bd 51 ca b0 3d
       -0.005830111 -0.012205845 -0.09509209 0.08632339
0000f0 bd 62 4f 3d 55 44 dc 3d 46 9f b0 bd 94 1e f1 3d
       0.050631274 0.10755221 -0.08624129 0.117734104
000100 24 bf 2f be 88 dc 4d 3d f8 4b 37 be 66 23 52 be
       -0.17162758 0.050259143 -0.17900074 -0.20521316
000110 e9 05 93 3d 93 b1 14 3e 42 cb 47 bd e4 eb ff 3d
       0.07178862 0.14520864 -0.048777826 0.124961644
000120 e1 ed 43 3b 7a 79 14 be 8d 63 19 3e 95 ed 0a bd
       0.0029896426 -0.14499465 0.14979382 -0.033917982
000130 c0 26 df bb 58 94 d7 bd 1b 9c 0b be 29 a6 82 bd
       -0.0068100393 -0.10526341 -0.13633768 -0.06379349
000140 b7 53 37 be d8 85 21 3e a8 77 fe bd d7 72 da bc
       -0.17903028 0.15773714 -0.12425166 -0.026666088
000150 b5 b1 92 3b 67 80 8d be c6 61 01 3e 05 7a 35 3e
       0.0044767507 -0.27637026 0.12634954 0.17722328
000160 92 44 f4 bd 4d a5 2e be 12 8c 58 3e a7 7c 43 3d
       -0.11927141 -0.17055245 0.21147183 0.0477263
000170 47 49 38 3e 32 7d 17 be 93 b4 18 be 1b 4f f6 3d
       0.17996703 -0.14793852 -0.14912634 0.12026807
000180 cd 7a b0 3e 2b 79 38 be 64 64 82 3d 22 2b 0e be
       0.3446869 -0.18014972 0.06366804 -0.13883641
000190 31 a4 89 bd 61 76 2f 3e 03 0b 8d 3c 7c 53 61 3e
       -0.0672077 0.17135002 0.017217165 0.22004503
0001a0 b1 f8 a5 3d ce ad 1e bc 53 13 9e 3d ab f9 d9 3d
       0.08104075 -0.009684993 0.077185296 0.106433235
0001b0 58 b3 15 be 60 f1 b9 3c 4f b0 19 3e e6 05 41 bd
       -0.14619195 0.022698104 0.15008663 -0.047124766
0001c0 fd e6 86 3e 56 64 fa bd f4 c5 be 3a 69 c2 ed bd
       0.26348105 -0.12226169 0.0014554844 -0.116093464
0001d0 fb fa 45 be f8 7c ba 3c 32 0d 39 3e aa 7e 29 3e
       -0.19334023 0.022764668 0.1807144 0.16552225
0001e0 28 17 09 3e 45 e3 f7 bd de a3 ee 3d 8b 2f 98 3e
       0.1338774 -0.12103895 0.11652349 0.29723772
0001f0 d2 39 58 be 12 64 11 3e 0c d5 0e 3e 33 cd 64 3e
       -0.21115807 0.1419833 0.13948458 0.22343902
000200 f0 fe 31 be 9e 53 41 3e 85 69 e5 3d f5 9e 36 bd
       -0.17382407 0.18879554 0.11201767 -0.044585187
000210 58 40 c9 3d 18 27 ad bd 89 87 9e 3c 2b d5 a3 3d
       0.09826726 -0.08454722 0.019351738 0.07999643
000220 99 88 80 3b 8f f2 e2 bd 20 30 27 bd e7 b8 86 be
       0.0039225337 -0.11081421 -0.04081738 -0.26312944
000230 5c b3 01 be e9 ea c1 3d d5 fd 2e be c5 dd b1 3d
       -0.12666076 0.09468634 -0.17089017 0.08684877
000240 b6 c5 87 3d 07 ec 29 bd 46 76 0f 3e a5 b1 e4 3d
       0.06629507 -0.04148486 0.14009961 0.111666955
000250 87 e6 16 be a8 1e 4d 3e aa 79 f2 bd 58 1b ff 3d
       -0.14736377 0.20031226 -0.11839612 0.12456387
000260 49 5d ef 3d b4 4d 10 bc a7 1a ec bd 98 bd 37 3e
       0.116877146 -0.008807588 -0.11528521 0.17943418
000270 60 56 72 bd f9 ca d5 bd 85 95 0c 3e f2 05 0b 3e
       -0.059164405 -0.104391046 0.13728912 0.13576487
000280 9b 97 ab 3d 39 b6 36 bd 58 bd e7 bc b1 c1 2e be
       0.08378526 -0.044607375 -0.028288528 -0.17066075
000290 d3 b8 11 3e 4b fa 27 be 66 ef f8 3c c7 ff 26 be
       0.14230661 -0.16404073 0.030387592 -0.16308509
0002a0 90 04 e7 bd fb b3 0a 3e 59 16 12 3e aa e4 12 3c
       -0.11280167 0.1354522 0.14266337 0.008965651
0002b0 14 84 d7 3b 11 f0 d6 bd 5b 59 a8 3d b2 83 32 be
       0.0065770242 -0.10495008 0.08220168 -0.1743305
0002c0 c3 95 29 bd 6e 69 bd bc ac 68 a3 3d 09 ee 11 bc
       -0.04140259 -0.023121562 0.07978949 -0.00890685
0002d0 44 12 3a be bf c2 69 3d 8c 4a d3 bc 1b 90 01 3e
       -0.1817103 0.05707049 -0.025792383 0.12652628
0002e0 dd ba fe bc 83 98 fd bd 6a 8b 70 3e 13 71 36 3d
       -0.031094963 -0.12382605 0.23490682 0.04454143
0002f0 06 c8 b8 bd 6d 08 a5 3d ab e9 5e bc 12 a8 e7 bb
       -0.090225264 0.08058248 -0.0136055155 -0.007069596
000300 12 7b 47 bd 3a 03 22 be 57 58 b7 bc 4c 34 d2 bd
       -0.048701353 -0.15821543 -0.02238099 -0.10263881
000310 5e 84 a5 bc dc e2 9f bd e4 cf ad 3d 17 8d a7 3d
       -0.02020472 -0.07806942 0.084869176 0.081812076
000320 87 fb d9 bd 80 d9 4b 3d 4c 7a 84 3d 6a cf a3 3d
       -0.10643678 0.04976797 0.06468639 0.079985455
000330 09 17 9b 3d c3 10 05 3d ee 2e 2e be f2 a5 05 be
       0.07572753 0.03248669 -0.1701009 -0.13051584
000340 1e cf 55 3d 74 54 80 3b da 3a 2d 3d c6 92 31 bd
       0.052199475 0.0039163176 0.042292453 -0.043352865
000350 3a 90 34 be 40 a6 94 3d 40 1f db bd 0e 9d fc bd
       -0.17633143 0.07258272 -0.1069932 -0.12334643
000360 fc cb a3 3d c7 cc 55 3b 02 0b 7c bd ab d0 7e 3e
       0.07997891 0.0032623278 -0.061533935 0.24884288
000370 04 1c de 3d fe 39 4f be 71 da 1c 3e 8a d1 01 be
       0.10845187 -0.20236966 0.15317704 -0.12677589
000380 8b 06 d9 bd 01 79 79 3e 9d 8b 77 3e 52 2c 78 be
       -0.10596951 0.24362566 0.24174352 -0.24235657
000390 89 48 06 be 78 4e 05 be 59 5f 28 be 06 a8 28 be
       -0.13113607 -0.13018215 -0.16442622 -0.16470346
0003a0 47 45 34 be 94 6e 78 bc 6d e1 8c 3d cb e6 7f 3e
       -0.17604552 -0.015163083 0.06878934 0.24990384
0003b0 3e 41 e1 3d c6 18 86 bd dc 94 17 bb 50 82 15 be
       0.10998772 -0.06547694 -0.0023129499 -0.14600492
0003c0 42 0a 82 3e 9f 4d 87 3d fa f7 17 3e 35 84 2d be
       0.2539845 0.06606602 0.1484069 -0.16944964
0003d0 c5 2e 01 3e c2 86 46 be fc b9 db 3d fa 31 94 bc
       0.12615497 -0.19387344 0.10728833 -0.018090237
0003e0 78 2b b0 3c fe 46 39 bc 9e a7 bb 3b 3a 07 6d 3d
       0.021505103 -0.01130843 0.0057267686 0.05786822
0003f0 c7 b2 14 3e 62 52 a9 bc 3e ac ab bd 08 24 1f 3e
       0.14521323 -0.020669166 -0.08382462 0.15541089

fc2.weight f4 [300, 400]
000000 bd ba 3f 3d c4 c5 49 3d b4 e2 42 be 09 3d 7e bc
       0.046808947 0.04926087 -0.19031793 -0.015517482
000010 b1 b6 8f 3d bb 00 82 3e 98 ce 8e bd 0f a8 0a bd
       0.070172675 0.25391182 -0.069729984 -0.03385168
000020 0c fa bc 3d 8c d5 61 3d 3c c2 c6 be 9b bf d4 3d
       0.0922738 0.055135295 -0.38820064 0.10388108
000030 0a 7b cc 3d c2 5b 2a 3e 7f 6d fc bd 75 ba 46 bc
       0.09984405 0.16636565 -0.12325572 -0.012129416
000040 56 5a 84 bc 82 49 85 bd 2e b6 1d be f9 23 09 be
       -0.016156357 -0.06508161 -0.15401527 -0.13392629
000050 e1 59 0d 3e 44 03 8b bd 5f d4 78 bc d2 20 37 bd
       0.13803817 -0.06787732 -0.015187352 -0.044709034
000060 ae 81 9b 3d 0b b2 01 3e a7 a8 6b bd 6c 00 05 3e
       0.07593094 0.12665574 -0.057533886 0.12988442
000070 03 bc c3 3d 27 df 40 be 2b a1 97 3d 0f 83 00 3d
       0.09557345 -0.18835126 0.07403787 0.031374987
000080 12 c1 1d 3c ac 3d 9b 3d 71 4f 21 be f9 34 96 3b
       0.009628551 0.07580122 -0.1575296 0.0045839516
000090 5d c2 8d bc aa a5 92 bc 11 e2 c0 bd 7b 97 0f be
       -0.017304594 -0.01790126 -0.09418119 -0.14022629
0000a0 45 dd fb 3d 99 2a bd 3d 30 c5 ec 3d f5 b7 a2 3d
       0.12298063 0.092366405 0.11561048 0.07945243
0000b0 9e 62 31 bb a0 e1 00 bc 07 7c 9b be 5c b1 cf bd
       -0.0027066837 -0.007866293 -0.30368063 -0.101412505
0000c0 56 91 08 3e 88 a8 b5 3d fb a8 80 bc a5 76 d1 bd
       0.13336691 0.088700354 -0.015705576 -0.10227708
0000d0 19 01 18 3d 3a ab a7 3c 32 f7 45 be e2 65 19 3e
       0.03711042 0.02046739 -0.19332579 0.14980271
0000e0 6e 19 a1 bd 9a d1 78 bc dc ab cd 3d 0d 4f 42 bd
       -0.078661785 -0.015186692 0.10042545 -0.04743867
0000f0 6c 8e 75 bd b1 4a 22 3e 0c d6 8f bd fe 1c d2 bd
       -0.059950277 0.15848805 -0.07023248 -0.10259436
000100 c7 54 1b 3e f9 ed 00 3e 1b 31 87 3d 89 5c ed bc
       0.15169059 0.1259078 0.06601163 -0.028974788
000110 32 f0 f0 3d b1 a5 71 bd f6 22 21 bd 96 45 6e 3d
       0.117645636 -0.058995906 -0.039339982 0.05817183
000120 e5 3e 94 3d 6c 22 44 3d b9 65 71 bd 8a a6 b9 bc
       0.07238559 0.04788439 -0.0589349 -0.02266242
000130 1b 9f 5b bd 64 2e 95 3d 32 e4 ce bc 64 b0 5c bc
       -0.05361853 0.07284239 -0.025255296 -0.013469789
000140 4e ae 66 bc e4 1f cd 3d da 99 e1 3d 2d 52 f4 bd
       -0.014079643 0.10015848 0.11015673 -0.11929736
000150 0f 19 fb 3c de a2 bb bc 2f 56 72 be fb ec 1b 3c
       0.030651597 -0.02290481 -0.23665689 0.00951695
000160 0e 25 a5 bd b0 7c 0c 3e be 09 54 bd 37 10 88 3d
       -0.08063708 0.1371944 -0.051767103 0.06643718
000170 1c a2 8f 3d 90 fd 71 ba e8 28 2b be bf c1 ab 3c
       0.07013342 -0.0009231204 -0.16714823 0.020966409
000180 aa 54 47 be 6c cf 4d 3b 6b f9 fe bd 1b de 14 3e
       -0.1946589 0.003140415 -0.124499165 0.14537852
000190 b0 96 4d 3d 68 86 59 bd 62 0d a7 be 2c 85 e4 bc
       0.050192535 -0.053106695 -0.32627398 -0.027895533
0001a0 f3 aa 06 bc 53 29 b1 3c 6b a9 6e bd 47 d7 ab bd
       -0.008219468 0.02162615 -0.05826704 -0.0839067
0001b0 8a 1e 58 3e 90 42 36 bd 26 01 21 3e 78 66 17 3e
       0.211054 -0.044497073 0.15723094 0.14785182
0001c0 6e 5d 87 bc d6 75 ad bd b0 e4 d4 3c 62 6a d9 3d
       -0.016524043 -0.08469741 0.025987953 0.10615994
0001d0 88 31 49 bd 83 0a 86 be b8 07 1c 3e f0 31 26 be
       -0.049119502 -0.26179895 0.1523732 -0.16229987
0001e0 46 ca c4 bd 6c 2d 8d 3d a4 30 5f 3d 15 76 14 be
       -0.09608893 0.06893429 0.054489747 -0.1449817
0001f0 60 56 11 3e 2c aa 17 bc 15 7d 2b 3e 1a 38 0f bc
       0.14193106 -0.009256881 0.16746934 -0.008741403
000200 3a 0e 1a 3e 54 37 7f 3d a9 b6 5a 3d 82 06 ca 3d
       0.1504449 0.062308624 0.053396855 0.098645225
000210 70 e1 bb bc da c0 0f be f2 9f f4 bd 8f 37 5f 3c
       -0.022934645 -0.14038411 -0.1194457 0.013624086
000220 26 b4 c4 3b 33 51 6f be bc 77 dc bd c1 3d c6 bc
       0.0060029207 -0.23370819 -0.10765025 -0.024199368
000230 b1 1f 8e bc 69 53 05 3d 98 42 ee 3c 6f 9a bc 3d
       -0.017349096 0.03255025 0.029084489 0.09209143
000240 ab ef dc bc 88 78 56 3d 04 24 02 3e 58 14 13 be
       -0.026969751 0.05236104 0.12709051 -0.1436323
000250 e0 c7 a0 bb 28 46 d4 3d d9 bb aa be 6b df 0d be
       -0.0049066395 0.10364944 -0.3334644 -0.13854758
000260 15 97 1b be 1a 11 83 be 37 5d 60 3d 94 72 81 3d
       -0.15194352 -0.25598985 0.054776397 0.06320682
000270 b0 82 a3 bb 67 35 f3 bd ff 04 2a be 9a c7 57 3d
       -0.0049899444 -0.1187542 -0.16603468 0.05268059
000280 c3 09 84 be 04 90 b9 3d eb 15 67 3e fb 5c 21 be
       -0.25788698 0.09060672 0.22566955 -0.15758125
000290 05 95 39 3e 79 af 1e 3d 96 8a 29 bd 49 9a db 3d
       0.18123253 0.038741563 -0.04139193 0.10722787
0002a0 00 9f e3 3d e6 e8 bb 3d fe 4d a4 bd b0 41 41 bd
       0.11114311 0.09175281 -0.08022688 -0.047181785
0002b0 3e 32 8f bd 80 93 b1 bc c0 42 54 3d d4 d9 75 bd
       -0.06992005 -0.021676779 0.05182147 -0.06002219
0002c0 65 66 71 be 7f e5 67 bc 49 d4 75 3d f3 d1 52 bd
       -0.23574217 -0.014153837 0.060016904 -0.051469754
0002d0 32 18 b4 bd b3 d5 61 bd 90 80 48 be 2f 53 8d bd
       -0.087936774 -0.05513544 -0.19580293 -0.06900632
0002e0 9f c0 de 3d 7a 09 72 bd 2a 6c be 3c 28 44 15 bd
       0.10876583 -0.05909107 0.023244936 -0.036441952
0002f0 f5 0b 53 bd 42 38 fa 3d dd 12 50 3d f8 75 d5 3d
       -0.051525075 0.122177616 0.05079924 0.104228914
000300 95 03 e4 3d cd a3 96 bd e4 e4 06 3d a0 77 6c 3c
       0.11133496 -0.07355461 0.03293313 0.014432818
000310 a4 8a 0e 3d cd 89 85 bd 2d 8a 79 3d f7 b5 bc bd
       0.034800187 -0.06520424 0.06092279 -0.092143945
000320 86 3b 92 3d 3d 7e 43 3d 0a dc a7 3d 3b 05 72 3d
       0.071402594 0.047727812 0.08196266 0.05908702
000330 18 84 e0 3d 4a fb 17 bc 6c 3b 54 be e9 88 e0 3d
       0.10962695 -0.009276221 -0.20725793 0.109636135
000340 94 68 2b 3d 63 6a 57 bd 05 5d 96 be fc 89 41 bd
       0.04184778 -0.052591693 -0.29367843 -0.047250733
000350 0a 54 a9 3d 03 b8 d3 3c 80 86 3e be 02 9c 66 bc
       0.08267982 0.02584458 -0.18605995 -0.014075281
000360 f1 25 30 3d 30 51 2c bc fb 67 88 bd 7d 99 25 3e
       0.043004934 -0.0105174035 -0.06660458 0.16171832
000370 07 48 0b 3c 36 9a fa bd 7c 09 1d bd 8e b9 44 bd
       0.008501059 -0.12236445 -0.038339123 -0.04802852
000380 d6 ca df bd f3 cb 8b 3d 35 da d8 bd 25 36 59 be
       -0.1092736 0.068260096 -0.10588495 -0.21212061
000390 13 55 84 bb 43 f4 4b bd e6 ae 42 be 28 e4 d9 3d
       -0.004038462 -0.049793493 -0.19012031 0.106392205
0003a0 5c a0 da 3d fb 1e 1c 3d cd a4 8c bd 4d cf 4a 3d
       0.106751174 0.038115483 -0.06867371 0.049514104
0003b0 c6 9d 33 3e de 96 4f 3d 4d a2 34 bd f8 91 a2 3b
       0.17540655 0.050680988 -0.044100095 0.0049612485
0003c0 30 3b 36 be ea 20 de bc a8 87 15 be 23 a9 33 3e
       -0.17796016 -0.027115304 -0.1460253 0.1754499
0003d0 3c 39 1f be bd 40 53 3c 02 4e b2 3c 7d d1 b8 bd
       -0.15549177 0.012893853 0.021765713 -0.09024332
0003e0 3d f0 51 be e5 3e 33 3e c2 4d 4a be 51 45 96 bd
       -0.205018 0.17504461 -0.19756225 -0.0733744
0003f0 b8 fb d8 bd bc e4 0e 3d c8 da bb bd dd 9b e2 39
       -0.105948865 0.034886107 -0.091725886 0.00043222206

fc2.bias f4 [300]
000000 e3 ab 81 bc 5c ee dc 3b 3e 26 96 bc 2d 50 12 3c
       -0.015829032 0.006742282 -0.018328782 0.008930248
000010 94 28 02 bd 9a 56 11 3d 3a 08 5d 3c d3 f0 66 3c
       -0.03177698 0.03548298 0.013490731 0.014095503
000020 81 7f 44 3d 20 1b 6f 3d 99 8c b2 bb 7a d5 87 bd
       0.04797316 0.058375478 -0.0054488895 -0.06632514
000030 87 f7 9c 3d 9f d0 4c bd 09 cf 98 3a 0e 44 61 3d
       0.076643996 -0.050003644 0.0011658381 0.054996543
000040 23 fc 0c 3d 83 3f 3a bc 40 de 0e bd 6d 0f fb 3c
       0.034420144 -0.011367681 -0.034879923 0.030647004
000050 69 d1 0e 3d 51 e2 71 bd a2 7f c8 bc 4d cc 01 bc
       0.034867678 -0.059053723 -0.024474923 -0.007922244
000060 c5 a8 fc 3c ee d2 cc 3d 3c 66 4e 3c 22 4a be bc
       0.030842194 0.10001169 0.012597617 -0.023228709
000070 c0 a5 01 3e 77 bd 71 3c a7 75 64 bb f4 52 95 3d
       0.12660885 0.014754645 -0.0034860165 0.07291213
000080 b5 95 4a 3c b0 2c ba 3d 44 88 c4 3c 1e 6f 71 bb
       0.0123647945 0.09090555 0.023990758 -0.0036839913
000090 4c cb bd 3d 35 2c ed bb b5 b5 42 3b 3d e9 2a bd
       0.092672914 -0.007237936 0.0029710357 -0.04172634
0000a0 5d 7c 96 bc 57 f8 5a 3d c0 60 e9 3c bb 0c 4b 3d
       -0.018369848 0.05345949 0.028488517 0.049572688
0000b0 8e f9 50 bd 40 f1 00 3d b4 a0 b9 3d 73 56 94 bc
       -0.051019244 0.031480074 0.09063855 -0.018107628
0000c0 4b a0 a8 bd 92 9b 71 bb 84 7a 94 bb 68 65 85 bd
       -0.082336985 -0.0036866409 -0.0045312066 -0.06513482
0000d0 fa d3 9b bd bd 86 21 bc 54 59 01 3d 29 6a b8 3c
       -0.07608791 -0.009858784 0.03157933 0.022511559
0000e0 19 08 f1 3c ba 0c 17 3d 4e 06 00 3c da d9 0a bd
       0.029422807 0.03687737 0.007814003 -0.033899166
0000f0 7b d8 e4 ba 4a 45 92 bc 3c 74 9e bc 4f 2c 19 3d
       -0.0017459536 -0.017855305 -0.019342534 0.03739577
000100 59 0d d7 bc aa 14 88 3d 45 35 3c bc 7e 08 00 3d
       -0.026251482 0.06644566 -0.01148731 0.0312581
000110 f5 fa 83 bd 60 01 1b 3b eb 32 9f 3c 74 a2 02 be
       -0.06444351 0.0023651943 0.01943346 -0.12757283
000120 ae e0 89 bb 6a 37 0d 3d 64 e1 ff ba db 11 5d bd
       -0.004207692 0.034476675 -0.0019522128 -0.053972106
000130 c9 78 07 3d 7e ee 66 3d 36 52 12 bc ab 87 43 bd
       0.033074174 0.056379788 -0.008930733 -0.047736805
000140 1d 5a cc ba e4 10 6f 3d 95 15 83 3d 90 68 af 3c
       -0.0015590821 0.058365718 0.06400601 0.021412164
000150 50 09 0f 3d 99 ae e1 3c ca 95 21 3c 35 68 c6 bc
       0.03492099 0.027549075 0.009862373 -0.024219612
000160 16 0a 34 bd e3 af 4a bd 1c 0e 5d bd d3 9f a0 3c
       -0.04395493 -0.049484145 -0.053968534 0.01960746
000170 41 1c 82 3d 5e 44 16 bc 1e 4f 6b 3c a1 8a 91 3c
       0.06353045 -0.009171573 0.014362125 0.017766299
000180 66 33 17 be 2b 84 52 bd 24 8e 19 bb 93 e5 be 3d
       -0.147657 -0.051395576 -0.002343067 0.093211316
000190 40 50 1b bc d4 02 cf bc 00 c3 1b bd f4 9c 54 3d
       -0.009479582 -0.025269903 -0.038027763 0.051907495
0001a0 b9 2e 8c bd fe 3d 66 3d b9 db e1 bc e1 ce af 3c
       -0.06844849 0.056211464 -0.027570592 0.021460952
0001b0 c5 1b 52 bd 1b f0 bb 3d 21 cf f6 3c a6 3b e1 3c
       -0.051296014 0.09176656 0.030128064 0.027494263
0001c0 5e ee 54 3d c9 97 9c 3d 0c bf 92 bc b6 cb b9 3c
       0.051985137 0.07646138 -0.017913364 0.022680145
0001d0 23 f2 e9 3c 35 be 0b bc 99 9d a3 bd 42 47 75 bc
       0.028557843 -0.008529236 -0.07989044 -0.0149706025
0001e0 dd a9 31 3d ee cb 79 3d 95 eb 3d bd 21 d0 1c bc
       0.043374885 0.060985498 -0.046367247 -0.009571106
0001f0 95 e6 1c 3d 1b d6 74 bd 5b e1 bf bc 66 05 5f bd
       0.038305838 -0.0597745 -0.023422888 -0.054448508
000200 8c d7 a4 3c 9d 40 b2 ba 9d 3d 8b bc 57 8f 62 3d
       0.020122312 -0.0013599579 -0.016997153 0.05531248
000210 52 d2 86 3b 43 23 8c 3d 20 ed 16 bd 58 58 56 bc
       0.0041144276 0.06842663 -0.036847234 -0.013082586
000220 0c 6d 4d 3d 30 ab 37 bd 38 cd 9a 3d 22 b5 53 3d
       0.050152823 -0.04484099 0.075586736 0.051686414
000230 e4 13 5a bd 6d fc 4a 3d 31 d3 f9 3c 47 28 48 bd
       -0.053241625 0.04955714 0.030496212 -0.048866536
000240 1a 88 10 3d cc 28 2a bd 6b 41 97 bc 2e b9 7f 3d
       0.035286047 -0.041542813 -0.01846381 0.06243246
000250 ec a5 57 bd ef 51 ef 3b 6d 1c c1 bc de 25 b3 bc
       -0.05264847 0.0073034684 -0.023573125 -0.021868642
000260 1c 08 0c 3d 58 a0 d7 3d 94 93 f8 3c be fe 0f bd
       0.03418742 0.1052863 0.030343808 -0.03515505
000270 9e de 3e 3d e6 00 ac 3d 30 15 2e 3d 10 da 5c 3c
       0.046599023 0.08398609 0.042500675 0.0134797245
000280 d6 b6 e0 bc 21 8b 45 bd 0a 0f 94 3d 28 64 7d 3d
       -0.027430933 -0.048228387 0.07229431 0.061863095
000290 df ac 4c bc b7 d2 8c bd b2 28 0c be aa 49 d3 b8
       -0.012492388 -0.06876128 -0.13687399 -0.00010074985
0002a0 7a 9f b4 3c f1 29 32 3d 2b 13 58 3d 96 d8 74 bd
       0.0220487 0.04349703 0.052752655 -0.059776865
0002b0 80 5e 85 3c 2a 50 04 3d 5f 53 3c bd 87 a2 35 bc
       0.016280413 0.032303013 -0.045977946 -0.011086113
0002c0 88 13 87 bd 56 5f 80 bc 0f bf cf bd 73 34 2b bc
       -0.06595522 -0.01567046 -0.101438634 -0.010449517
0002d0 1f 54 0e 3d b5 89 39 3d 08 5f e9 3c 1a eb 8a 39
       0.034748193 0.045297343 0.028487697 0.00026496575
0002e0 2b 6f 8e 3d d3 77 01 3d cd 92 87 bd 7b 8b 12 3d
       0.06954797 0.031608414 -0.06619797 0.03577755
0002f0 b5 e0 d0 3c 68 67 04 3d 22 be 1a bc 8a db 8a 3d
       0.025497774 0.03232518 -0.009444745 0.06780155
000300 c1 63 46 bd ef f0 94 3c 59 37 89 bd ae 74 46 bd
       -0.048434976 0.018181292 -0.0670001 -0.04845112
000310 c4 1a 0a 3d 99 a6 0d 3d 7b 6e 89 3d 81 ac ec bc
       0.033716932 0.034582708 0.067105256 -0.02889085
000320 03 e3 68 3d d2 ad 98 bb 3e 1d 52 bd 91 b1 d7 3b
       0.05685712 -0.004659393 -0.05129742 0.006582447
000330 bb d5 f3 3c 53 d9 a1 bd 17 a1 63 3d 74 d8 0d be
       0.029765 -0.079027794 0.05557355 -0.13852102
000340 d8 99 eb 3c ad 92 92 3d ad 88 ea bb 07 89 31 bd
       0.028759882 0.071568824 -0.0071574063 -0.04334357
000350 e1 b5 4d 3c c2 3c c6 bc fa 5a ff bc 10 58 5b bd
       0.01255557 -0.024198893 -0.03117131 -0.05355078
000360 83 f4 42 3d c9 59 aa 3c 1f c0 96 3d 70 65 47 bd
       0.047596466 0.020794766 0.07360863 -0.048680723
000370 95 9c e5 bb d6 5e b7 bc 2d 67 0f 3d 93 d2 13 bd
       -0.0070071914 -0.022384088 0.035010505 -0.03608949
000380 bb 41 4f 3d 64 d2 81 3d 3a 7f 17 3d c9 7f 71 bc
       0.050599795 0.06338957 0.036986567 -0.014739939
000390 a4 99 57 3d 87 12 94 bd ba 20 ac bc c8 0d 3c 3d
       0.052636757 -0.07230096 -0.021011699 0.04591158
0003a0 bc f4 c9 3d 3a 9b ca 3c bf 68 14 3c 4d 6d c4 3c
       0.098611325 0.02473222 0.009058177 0.0239779
0003b0 f0 41 83 bd 14 ab 3b 3d 21 a5 3e bd 11 30 c8 3c
       -0.06409061 0.04581745 -0.046544198 0.024436982
0003c0 b0 d9 1d bd aa 6b a9 3d a1 c8 81 bc ab 41 88 3d
       -0.03853768 0.082724884 -0.015842738 0.0665315
0003d0 36 98 cc 3c 84 48 ce 3b 21 38 ba bd fc 57 bf bd
       0.024974924 0.0062952656 -0.09092737 -0.093429536
0003e0 f4 65 08 3c 3f dd 4e bb 98 55 8a bd 0a dc 3a ba
       0.008325089 -0.0031564978 -0.06754607 -0.0007128125
0003f0 50 00 e5 bc 1a 25 f0 bd 93 07 c9 3d 7b 31 1b bd
       -0.02795425 -0.117258266 0.09815898 -0.037888985

fc3.weight f4 [4, 300]
000000 45 86 12 bf 14 4d 74 be b4 ec c4 3e f3 25 12 3d
       -0.5723613 -0.23857528 0.3846184 0.035680722
000010 cb 17 f5 3e cd 61 25 3e 39 45 a6 3e 73 23 79 bd
       0.47869715 0.1615059 0.32474688 -0.060824823
000020 7e 45 35 3d 3e 88 16 be f2 b1 b0 be 01 86 63 3e
       0.044255726 -0.1470041 -0.34510761 0.22219087
000030 e6 4e 77 3d ac 69 6a bc 96 83 96 3e d2 0a be bc
       0.060377978 -0.014307421 0.29397267 -0.023198519
000040 82 a9 4c 3e fe e5 d6 3b 21 d0 6c bd d8 55 8d bd
       0.19986537 0.006558179 -0.057815675 -0.06901139
000050 ce 42 09 3e cc 48 81 3e b5 ea 6c 3c bd 6e cc bd
       0.1340439 0.25250852 0.014460255 -0.09982059
000060 05 75 e5 3d 3a c6 9c 3e b5 9c 57 bc 31 1f 96 be
       0.1120396 0.30619985 -0.01315992 -0.29320672
000070 04 be 8a 3e cf 24 1b 3e 19 ec 1c 3e 60 ea de be
       0.27098095 0.1515076 0.15324439 -0.4353819
000080 b0 b5 ae be 4e f7 af 3d cb 8e 56 be 98 b6 4e 3e
       -0.34122992 0.085920915 -0.20952909 0.20186841
000090 05 56 99 3e 79 66 47 bd 40 18 8b 3d cc af a4 3d
       0.2994844 -0.04868171 0.06791735 0.08041343
0000a0 63 c4 94 bd 10 2a 0b 3e 1b 79 ae 3d bd da 3e 3d
       -0.0726402 0.13590264 0.08519193 0.046595324
0000b0 af e9 1c bf a5 0a 60 bd 9c 82 f5 3d e4 73 c1 be
       -0.6129407 -0.05469765 0.119878024 -0.3778373
0000c0 f6 dc 7d bd 8e 28 d2 be eb e4 bb bd 55 de 17 bc
       -0.061978303 -0.41046566 -0.09174522 -0.009269317
0000d0 32 b5 03 3d 40 67 01 be e6 66 99 bb 27 ff 2c 3e
       0.032155223 -0.12637043 -0.004681456 0.16894208
0000e0 89 47 c6 3e 1d 80 66 3e 45 4a b2 3e 01 0c eb bd
       0.38726452 0.22509809 0.34822288 -0.11476899
0000f0 7d c5 28 bc b2 01 31 bc 00 22 90 bd 67 53 79 3b
       -0.010300991 -0.010803627 -0.07037735 0.0038044096
000100 68 64 05 bf d1 13 38 3d fa 1d d0 be 88 b5 88 be
       -0.5210633 0.044940773 -0.4064787 -0.26700997
000110 39 10 64 3e db 5e ca 3d d4 dd e8 3c 0c 15 89 be
       0.22271813 0.098813735 0.028426088 -0.2677387
000120 09 34 ad bd fa a3 e2 be 52 38 33 be a2 3e a0 3d
       -0.084571905 -0.4426573 -0.17501953 0.07824446
000130 31 07 1a bf 96 e0 2a bd be af c2 3e 45 d3 2d 3d
       -0.60167223 -0.041718088 0.38024706 0.04243781
000140 ed 70 56 be 50 8c 86 3d bd b5 96 3e 31 fd 05 3e
       -0.20941515 0.06569731 0.2943553 0.13084866
000150 f2 01 79 be 0e 12 bd 3d 42 9b 97 be fb 9a 70 bd
       -0.24317148 0.09231959 -0.2961064 -0.05874155
000160 20 ee 23 3e 16 25 37 3e 72 be d0 be 8a 7d 50 3e
       0.16008806 0.17885241 -0.40770298 0.2036039
000170 69 2a b0 3d 0b 01 ac 3e 89 e2 86 bd 8b d9 65 3d
       0.08601839 0.33594546 -0.06586177 0.05611567
000180 9c 77 48 3f d9 4e 4d bd 92 19 9d bd bc 30 96 3e
       0.7830751 -0.050124023 -0.07670893 0.29334056
000190 60 e9 db be fe e3 6c bd 24 9d 14 be cd d2 69 3e
       -0.42951488 -0.057834618 -0.1451307 0.2283432
0001a0 41 ae 69 be f4 99 05 bf 3f 91 62 3d 10 e7 5c be
       -0.22820379 -0.5218804 0.0553143 -0.21572518
0001b0 5e 9c 4f bd 63 84 2a be 3f 04 40 3e fa 59 52 3e
       -0.050686233 -0.16652064 0.1875162 0.20542136
0001c0 6d 12 f8 bd 2f c0 69 3b 88 49 06 3e 0c 5d a7 bc
       -0.121128894 0.003566753 0.13113987 -0.02043011
0001d0 aa 0a 19 bd 98 00 78 3e 8b 23 bd 3d 5f f8 93 be
       -0.037363686 0.24218976 0.09235295 -0.2890043
0001e0 40 96 47 3d e3 8c 81 3d 6c a6 b1 be 10 d4 d0 3b
       0.048727274 0.063257 -0.34697282 0.006372936
0001f0 7a 87 3b 3e 70 48 13 3f d3 f5 cb 3e c6 59 2b be
       0.18313399 0.57532406 0.39835986 -0.16733465
000200 4f 2c 8f 3d 22 c2 2f bf 61 9a ab 3e 53 14 5d bd
       0.06990873 -0.686556 0.3351622 -0.05397446
000210 04 82 97 be 96 9c d6 be 22 03 ca 3d d4 61 69 bd
       -0.29591382 -0.4191634 0.09863879 -0.05697806
000220 db 4c 97 be d7 2b 51 3e 28 de 38 be fe 53 4c 3e
       -0.29550824 0.2042688 -0.18053496 0.19953915
000230 7e 2c 1e bf 28 71 73 3e 5e 91 e9 3d 52 9d 6d 3e
       -0.6178664 0.23773634 0.1140468 0.23204544
000240 82 6a 1d 3d f4 f6 c3 be 62 8e 01 be c0 17 26 3e
       0.038431652 -0.38274348 -0.12651971 0.16219997
000250 32 c2 f6 bd ab 2d 71 3e 25 25 01 3e 13 34 5c 3e
       -0.120487586 0.23552577 0.12611826 0.2150424
000260 d0 81 6c 3e 24 f8 1e 3e 9e 94 03 3e e8 5a 21 3f
       0.23096395 0.15524346 0.12849662 0.63029337
000270 e7 f6 0c 3e a7 be 9b 3d 68 e6 a8 3d af ee 99 3d
       0.13766061 0.076047234 0.082470715 0.075162284
000280 85 70 38 3d 88 2a 10 bf 7d 14 2f 3e f3 82 d1 3c
       0.045029182 -0.563149 0.1709766 0.025575137
000290 f5 71 a2 3c 70 22 44 3d 15 7f 90 bc 76 9d 83 3d
       0.01982973 0.047884405 -0.017638722 0.06426518
0002a0 7a 8c 75 3d b5 e7 44 bf 36 81 cf be 41 dd cc be
       0.059948422 -0.76916057 -0.40528268 -0.40012553
0002b0 f7 d3 e7 3d ae 9b 0a be 0d d5 d1 be 1b 83 f5 3d
       0.11319726 -0.1353595 -0.40982857 0.11987897
0002c0 12 5b 37 3e dd 43 7b be 0b 86 ca bd 0d c8 15 be
       0.17905834 -0.24537607 -0.09888848 -0.14627095
0002d0 d6 e6 45 be 83 d0 b9 bd 8a c0 b8 3e 4a e6 06 bf
       -0.19326338 -0.090729736 0.36084396 -0.52695143
0002e0 8e c0 f3 bd fe b8 7d 3c d7 80 ba be b8 89 95 be
       -0.11901961 0.015486 -0.36426422 -0.29206634
0002f0 ce 8a 01 bf df 9a d0 3d 91 23 46 be 57 9a 71 3e
       -0.50602424 0.10185789 -0.19349505 0.23594032
000300 2a 2d 54 3e ab ba df be c8 81 b4 be aa 19 2b 3f
       0.20720354 -0.43697104 -0.35255265 0.66836035
000310 3a 68 1d be da f1 c3 3d f1 4a 3e 3e 52 6b 83 3d
       -0.1537179 0.09567614 0.18583275 0.06416954
000320 50 52 61 3d 09 77 6a 3d fb fc 19 bf ae aa 02 bf
       0.05501014 0.057242427 -0.6015164 -0.51041687
000330 75 c4 0c bd 78 a5 25 3e 66 82 25 bd 47 91 ae 3e
       -0.034367044 0.16176403 -0.04040756 0.34095213
000340 6d 7a aa bd 40 28 97 bd a7 9f a5 bc f4 f9 6c be
       -0.08324132 -0.07380724 -0.02021773 -0.23142225
000350 d8 74 b2 be 4d eb 32 bb 13 05 63 bf 65 fc 95 3e
       -0.3485477 -0.0027300895 -0.8867962 0.29294124
000360 0c bf 23 bf 12 f9 93 be 30 fd 1a 3e b8 43 9a be
       -0.6396339 -0.28900963 0.15135646 -0.3012979
000370 b6 69 e7 bc 9d 7c 81 3d 86 18 20 bf 99 6a 22 3e
       -0.02824865 0.06322596 -0.6253742 0.15860976
000380 33 a6 73 be 30 2c f6 3d ab 40 ea bb ac 17 a1 3d
       -0.23793869 0.12020147 -0.0071488223 0.07865843
000390 63 d7 52 be ac 12 80 be 20 a3 06 3e ee b6 6e bc
       -0.20589976 -0.25014246 0.13148165 -0.014569981
0003a0 9f c7 74 3d 2d 24 db 3d a7 42 35 be 08 5a 97 be
       0.059760686 0.10700259 -0.17701207 -0.29560876
0003b0 ad ce 5c be 1c 0b 57 3d 0d 18 47 3e c1 f2 f6 3d
       -0.21563216 0.05250083 0.19442768 0.120580204
0003c0 67 99 6a bc e9 78 8e 3e 7b fe 86 3c cb 4f fc bd
       -0.0143188005 0.27826622 0.016478768 -0.12319907
0003d0 c7 7d 93 3d 2d 64 97 3e 69 de 89 bc 4f a1 aa bd
       0.072017245 0.29568616 -0.016829686 -0.083315484
0003e0 1b fe 81 3e 19 7e 08 3e 17 17 f4 be 53 2b 3b 3e
       0.2538918 0.13329352 -0.47673866 0.18278246
0003f0 f4 89 a0 be f6 e2 83 bd 5f 3c 56 3e db a5 be bc
       -0.3135525 -0.06439774 0.20921467 -0.023272445

fc3.bias f4 [4]
000000 67 ca 22 3c 52 c8 9f bc c6 06 ff 3c c2 d1 f2 3c
       0.009935952 -0.0195047 0.03113116 0.029641036
