p2_continuous-control/checkpoint_actor.pth (torch_old, 542376 bytes, 10 tensors)

bn1.weight f4 [33]
00000000: a85c 1d3f 1e14 c33e ed19 233f 90ec f23e
00000010: 16ae 363f 2b79 1e3f a493 e23e 5822 c43d
00000020: 6839 1d3f 70d0 6a3d a2d2 103f b181 083f
00000030: beb4 c73e 4baa 683f d58a 083f 2f14 353f
00000040: 3f2b 363f 7cf4 513e b495 9d3e 9419 7b3f
00000050: 001f 283c e89c ee3e 4ab6 eb3e a7ca 5a3f
00000060: 86a9 e73e 66b4 213f 08b6 f33e a84e 613e
00000070: accd 5d3e 66a0 833e 7096 3b3d 98b8 333e
00000080: ea1f 1e3f
0.6146951 0.38101286 0.63711435 0.47446108 0.71359384 0.6190364 0.44253266 0.09576863
0.6141572 0.057327688 0.565714 0.53322893 0.39005083 0.90884846 0.5333684 0.7073392
0.7115974 0.2050342 0.30778277 0.98085904 0.010261297 0.46604085 0.46037513 0.8546547
0.45246524 0.6316589 0.47599816 0.22002661 0.21660489 0.25708312 0.045797765 0.17550886
0.61767447

bn1.bias f4 [33]
00000000: 0000 0000 0000 0000 0000 0000 0000 0000
00000010: 0000 0000 0000 0000 0000 0000 0000 0000
00000020: 0000 0000 0000 0000 0000 0000 0000 0000
00000030: 0000 0000 0000 0000 0000 0000 0000 0000
00000040: 0000 0000 0000 0000 0000 0000 0000 0000
00000050: 0000 0000 0000 0000 0000 0000 0000 0000
00000060: 0000 0000 0000 0000 0000 0000 0000 0000
00000070: 0000 0000 0000 0000 0000 0000 0000 0000
00000080: 0000 0000
0.0 0.0 0.0 0.0 0.0 0.0 0.0 0.0
0.0 0.0 0.0 0.0 0.0 0.0 0.0 0.0
0.0 0.0 0.0 0.0 0.0 0.0 0.0 0.0
0.0 0.0 0.0 0.0 0.0 0.0 0.0 0.0
0.0

bn1.running_mean f4 [33]
00000000: 0000 0000 0000 0000 0000 0000 0000 0000
00000010: 0000 0000 0000 0000 0000 0000 0000 0000
00000020: 0000 0000 0000 0000 0000 0000 0000 0000
00000030: 0000 0000 0000 0000 0000 0000 0000 0000
00000040: 0000 0000 0000 0000 0000 0000 0000 0000
00000050: 0000 0000 0000 0000 0000 0000 0000 0000
00000060: 0000 0000 0000 0000 0000 0000 0000 0000
00000070: 0000 0000 0000 0000 0000 0000 0000 0000
00000080: 0000 0000
0.0 0.0 0.0 0.0 0.0 0.0 0.0 0.0
0.0 0.0 0.0 0.0 0.0 0.0 0.0 0.0
0.0 0.0 0.0 0.0 0.0 0.0 0.0 0.0
0.0 0.0 0.0 0.0 0.0 0.0 0.0 0.0
0.0

bn1.running_var f4 [33]
00000000: 0000 803f 0000 803f 0000 803f 0000 803f
00000010: 0000 803f 0000 803f 0000 803f 0000 803f
00000020: 0000 803f 0000 803f 0000 803f 0000 803f
00000030: 0000 803f 0000 803f 0000 803f 0000 803f
00000040: 0000 803f 0000 803f 0000 803f 0000 803f
00000050: 0000 803f 0000 803f 0000 803f 0000 803f
00000060: 0000 803f 0000 803f 0000 803f 0000 803f
00000070: 0000 803f 0000 803f 0000 803f 0000 803f
00000080: 0000 803f
1.0 1.0 1.0 1.0 1.0 1.0 1.0 1.0
1.0 1.0 1.0 1.0 1.0 1.0 1.0 1.0
1.0 1.0 1.0 1.0 1.0 1.0 1.0 1.0
1.0 1.0 1.0 1.0 1.0 1.0 1.0 1.0
1.0

fc1.weight f4 [400, 33]
00000000: 902a 403a b72d 003d be7c 0ebb dbe5 643d
00000010: fa84 c4bc e83c 6a3d a42b f9bc 3a21 c13d
00000020: 3578 eab9 05ca a93d d7e9 0cbd 517e 2c3d
00000030: 180b 553d a852 8c3d 122b be3c b142 8fbc
00000040: b70d 953d 8983 d83c bb52 893c 68b7 ddbc
00000050: 55a5 6d3c c551 d53c 9873 1fbb 4c1c 5ebd
00000060: f824 89bc 3d31 533d 1b4c f83c 44a9 bebc
00000070: 40e0 f93d 3560 3bbd 3dc3 313d 4e2a 10bd
00000080: 90de cf3d 1e38 3b3d e603 29bc 15d3 0abc
00000090: cc14 eb3b e9bb cc3d 9742 89bd 8d3e b6bd
000000a0: 907c 1ebd a8e0 35bd 6beb acbc 488d f1bc
000000b0: 8cca 4abd f895 89bd 8a8f 3fbc 2be4 9a3c
000000c0: 802d 133d 1754 13bc 3e0d ddbc 7d1b b23c
000000d0: 51f2 85bc 1557 253d 3bdf e33b e2dc aabc
000000e0: 86eb 18bc d74c f9bb a075 373c fca7 49bc
000000f0: 7b33 2c3d 5eae 24bc c3f1 c9bc 1020 8f3b
00000100: 49b0 053d c2ea ad3c 55b2 733d 6146 fb3b
00000110: f6da c3bc 4fac be3d 3bd3 453d 59e1 a03d
00000120: 60b8 49bd 6273 bd3c 981f a6bb 7661 7d3d
00000130: 0b22 6e3d cab9 9c3c c90d 7bbd 253b f83c
00000140: 1001 8dbc 2834 18bd 3f5e 533c c217 3c3c
00000150: d957 803d 712d aabd ae46 563d be35 d5bb
00000160: 93c7 4b3d 5615 353d cc45 333c 66cb 5fbd
00000170: ad62 e4bd 6000 f8bc a5b7 863d d410 143c
00000180: 2fd3 58ba a757 293d 8496 b03d 331e e3bc
00000190: fb4e 2ebd 0709 813c 8eeb 563c 5101 8d3c
000001a0: dc70 2f3d 25f5 f53b 24e6 49bd 7bb8 28bd
000001b0: ac5f a839 60ff aa3b e10c 183d 00f5 0fbc
000001c0: c0e0 e43b a491 1abd 96da df3c fa4b 923c
000001d0: 3ae9 0a3d 4a55 3a3d c873 a83c ae8b 4bbd
000001e0: c4e0 eabb 92e2 223d 2b48 303d 1dc3 cb3c
000001f0: 40a9 c9bb 6927 6abd ea06 5e3d 7276 943d
00000200: c371 a0bc 9293 dc3c b276 c83c cc78 87bc
00000210: bc06 713d 72f6 c83c f73a 7bbb fafe 4f3d
00000220: 0d65 60bc f141 4a3d 5da1 f5bc b0d4 b03d
00000230: d60b 863d b725 693d f0da 84bd 5c76 923d
00000240: 7759 4b3c 6d81 9b3d 59e3 9b3d f0c0 423c
00000250: d299 1ebc ca9c c6ba 5ec8 2fbd a618 e4bb
00000260: d55b 913d 0850 683d 8342 093d b925 69bd
00000270: f66e 5e3d c53a 203d 3dac 703c 2d4c 5d3c
00000280: c331 003d 23ca 243d bfc4 893d fd16 f9bc
00000290: 1557 9d3b 3c37 b6bc 6b05 283d 7ea9 a43d
000002a0: 482b 5c3d 1092 0cbd bbbc 5a3c b295 883d
000002b0: fe2d f8bc 15c2 243c 15d9 4bbd 4100 6ebd
000002c0: f253 b0bd 123c 20bc bd98 36bd 437e e2bc
000002d0: 950b 023c 2243 763c 1be4 09bc dba4 c83b
000002e0: a268 f03c 0b80 debc 27de 1f3c 6454 dbbc
000002f0: 43a1 24bc 950d 2fba fd59 8bbb d08d a3bc
00000300: 287b 943d 6cb3 3dbc f3e5 1d3d 5906 f6bb
00000310: 74a5 743c 270b 6dbd f1f2 81bd 64af d43c
00000320: 9ba2 053d 55e8 4c3d c959 173d ec05 28bd
00000330: 2df1 623d 2a79 2abc 05e3 f9bc 7c74 d83c
00000340: 7296 b83c dc36 043d 02a1 c83c ac67 89bd
00000350: 2c9d 96bc 8467 e53b 0dbd e13d 0c09 c53d
00000360: e00a b73d 5990 703c 22a6 efbc 0648 073d
00000370: 31d1 24bc e263 39bc 5d47 9abc bd25 14bc
00000380: 302a 54bb 52c2 0a3c 2e9a 45bc 2630 0dbd
00000390: 3e30 2bbd 2a45 823c 2804 803d 75b5 73bc
000003a0: 3e5f 4a3d 6c04 433c f1a2 f23c 27c7 203d
000003b0: 5cb5 0d3d 19a7 293c 818e 8b3d ad5d 953c
000003c0: 013a 893d a841 59bd 4119 753d 3308 13bc
000003d0: 6162 7f3d 13ff a0bb f4dd 8a3c e174 1dbd
000003e0: d025 10bd d25c 2c3d adb0 b0bc 6e23 353d
000003f0: 928a 1c3a 7dc1 f2bc e331 6bbd 6212 653d
0.0007330561 0.031293597 -0.0021741833 0.05588327 -0.02398919 0.05718699 -0.030416317 0.094301656
-0.0004472152 0.08290485 -0.034402695 0.042112652 0.052012533 0.06851703 0.023213897 -0.017487856
0.072780065 0.026429908 0.016763082 -0.027064994 0.01450475 0.026039967 -0.0024330374 -0.054226205
-0.01674126 0.05156063 0.030309727 -0.023274072 0.122009754 -0.045746047 0.043399084 -0.035196595
0.10149872 0.045707814 -0.010315871 -0.008473177 0.00717411 0.099967785 -0.06702154 -0.08898649
-0.03869301 -0.044403702 -0.02110835 -0.029486313 -0.04950957 -0.067180574 -0.011691937 0.018907627
0.035932064 -0.008992217 -0.026983853 0.021741623 -0.016350897 0.04036625 0.0069541014 -0.020857278
-0.009333497 -0.007608037 0.011197478 -0.012308117 0.042041283 -0.010051338 -0.024651414 0.004367836
0.03263882 0.021230105 0.059496243 0.007668302 -0.02390812 0.09310209 0.04829715 0.07855482
-0.0492481 0.023126308 -0.0050696842 0.061860524 0.058137935 0.01913156 -0.061292443 0.03030164
-0.01721242 -0.037159115 0.012900888 0.011480274 0.062667556 -0.083094485 0.0523135 -0.0065066507
0.049750876 0.0442098 0.010941934 -0.054637335 -0.111516334 -0.030273616 0.06577996 0.009037215
-0.0008271215 0.041343357 0.086224586 -0.027724361 -0.04255579 0.015751375 0.013117684 0.017212542
0.04283224 0.00750603 -0.049291745 -0.04119156 0.00032114738 0.0052184314 0.037121657 -0.00878644
0.0069848 -0.03773655 0.02732591 0.017858494 0.03391383 0.045491494 0.020563021 -0.049693756
-0.0071679074 0.039766856 0.043037575 0.02487331 -0.0061542094 -0.05716649 0.054205813 0.07249154
-0.019585496 0.026925836 0.02447066 -0.016537093 0.058844313 0.024531577 -0.0038334706 0.050780274
-0.013695967 0.049379293 -0.02998417 0.08634317 0.06545226 0.056920733 -0.064870715 0.071514815
0.012411467 0.075930454 0.076117225 0.01188682 -0.009680228 -0.0015152928 -0.042915694 -0.006960946
0.07097594 0.05671695 0.033510696 -0.05692074 0.05430504 0.039118547 0.014689502 0.013506931
0.031297456 0.040231835 0.067269795 -0.03040647 0.0048016408 -0.022243135 0.041020792 0.080401406
0.053752214 -0.034318984 0.013350661 0.06669177 -0.030295368 0.010056038 -0.049767572 -0.05810571
-0.08609761 -0.009779947 -0.044579256 -0.027648097 0.007937332 0.015030654 -0.008416201 0.006123168
0.029346768 -0.027160665 0.009757555 -0.026773639 -0.010048213 -0.0006677744 -0.004252671 -0.019965082
0.07250053 -0.011578422 0.038549375 -0.007508081 0.014932025 -0.057871964 -0.063451655 0.025962539
0.032625776 0.050026257 0.03695086 -0.041021273 0.055405784 -0.010404864 -0.03050376 0.026422732
0.022532675 0.03227888 0.024490837 -0.06709227 -0.018385492 0.0070008654 0.11022387 0.09620866
0.08937621 0.014682853 -0.029254023 0.03302767 -0.010059641 -0.011315318 -0.018832857 -0.009042201
-0.0032373779 0.008469181 -0.012060685 -0.034469746 -0.041794054 0.01590212 0.06250793 -0.014874806
0.049407236 0.01190291 0.029618712 0.039252426 0.034596786 0.010354781 0.0681429 0.018233145
0.067005165 -0.05304113 0.059838537 -0.008974123 0.06234968 -0.0049132197 0.016951539 -0.038441543
-0.03519231 0.042080708 -0.02156862 0.04422324 0.00059715763 -0.029633278 -0.057420623 0.055925734

fc1.bias f4 [400]
00000000: 4ea3 453d 2812 ff3d 930f 4cbd c6e1 35bd
00000010: a7fc cfbd e8e9 b03d 240e e1bd d74c 0ebd
00000020: 6de9 24be fe64 013e a20e 0fbe 7ca2 ca3b
00000030: 3cbe bcbd 9d71 e8bc 1cc8 9e3d 9f88 a43d
00000040: 58f2 07be dd88 e0bd a45c 4c3c 562d 40bc
00000050: 82d1 9dbd aa90 09be 9ca9 c83d 521f 693d
00000060: 3155 a93d f972 be3c d3f1 a63d 50e7 b63c
00000070: 7459 04bc 758f a03d 80a3 c2bb f7f6 fcbd
00000080: 88ba 433e 24fe edbd 6fd5 27be 1bab b93b
00000090: b449 493e 22fc 05be 7ee5 523d 048a b7bc
000000a0: 0e84 78bd 72cf f93d 8afb 4abe 04af 2a3d
000000b0: 0ca9 12be eaf1 19be be06 b4bd 36a8 01be
000000c0: 7fbd f23d a99f 04be 3c88 3cbc d74b 55bd
000000d0: 018d 48be f96e 143e 3463 e73d d50c 10bd
000000e0: a853 12be 64eb 8f3d c75b 303e b957 1f3e
000000f0: 9a02 cabd 725e 08be 6662 453c 1777 403e
00000100: 9dd4 24be 9d4b d23c 4fc2 08be 1a01 a4bd
00000110: 6fdf d03d 0920 88bc 6df3 fc3d 6a01 4e3d
00000120: ddc4 eabb 2e41 023e 5973 c93d af4e 09be
00000130: d7ad dcbd a633 ed3d 3ec3 733d 7153 163e
00000140: 047d d3bd ef9c ac3d 5ce9 bbbd f2e1 0cbe
00000150: d327 643d de15 093d bd20 4f3e b5e8 163e
00000160: a9a2 32be 73b3 ca3d ac88 3e3e bed1 08be
00000170: 76cd 1e3e f344 373e 3172 683e 54cf 08be
00000180: f85c f73d eede 8a3d 1f2b dd3c ca99 163e
00000190: 593a 5cbd f0e6 18bd 0b89 ff3b 51b2 27be
000001a0: 519a 2bbe 1048 33be c2df 03be 22f6 8abd
000001b0: cbf0 ae3d c9de 3dbe 39b9 453e 542e 68bc
000001c0: 845e 21be c43c d23d 5b98 da3d 3ae9 dabd
000001d0: d152 293e 19e0 f2bd fea3 8a3d a4d6 513d
000001e0: 806e 98bc ae4b dfbd d146 033e 01c0 f9bd
000001f0: 050e 0c3d 2a5c 1fbd ccf9 843d 7570 2c3e
00000200: 781b 26bb ccb6 7bbd f36d 07be 3051 323e
00000210: 7e63 2fbe 1f71 3ebd 047b a3bd a1b6 32be
00000220: cdac 0f3d 063a be3d 16bd cc3d 2a1d 143d
00000230: 659c 36be 4374 8f3d de3c 4fbe b3ed d8bd
00000240: 9c76 263d 076a 5b3d f7e7 3b3d 7b8c 0dbe
00000250: 74d9 10be 5658 533d a05f 533d 085d b9bc
00000260: 04dc 9abd 1d9f c63d 2c9d c33b d016 11bd
00000270: e1ac 873c 8903 583d 9d72 2abd 36ae 4ebd
00000280: f9f0 5abd 7f3b 313d 314d 08be 297c 07be
00000290: 364c 24be ae8c 903d 5800 783d 4756 25bd
000002a0: f18f 05bd 519b 373d 5b7b a33d 24e1 fbbc
000002b0: 809f 07bc 0f48 71bd 9fb0 12be b9cc 9e3c
000002c0: 2f2b e8bd 9131 85bb cc68 bebd a112 4bbe
000002d0: 8450 3b3d d701 78bb b44f eabc 1ebd 8c3d
000002e0: aa9b 3a3d a77f 2dbd 110f 543e c41f a33d
000002f0: 11d4 19be 01b7 253e c166 01be 505f 98bd
00000300: f63b e03d 534e 0b3e a968 f4bd 272d 9ebd
00000310: 05d5 e3bd 572b 6abe 5447 1abe f1cb 3cbe
00000320: b4f1 783c 669a 7b3d e924 bd3d 0a61 143e
00000330: ff99 6fbd d100 fb3c 665a 40be f571 233e
00000340: 23ae 0c3d b38b 193d 44da a1bd 2b30 f43d
00000350: dffc 10be b8d7 6f3d c073 89bd ff30 04bd
00000360: f434 86bc a1ce 0d3e 683c b939 5f59 0e3e
00000370: 6b4c 62bd 9e3d 90bd fa49 353e 1263 25be
00000380: 438d 82bd f414 71bd 6155 0fbe 5243 c33d
00000390: e2de 223e e60a e9bd 0398 0abe 0806 01bd
000003a0: bd29 0c3e 1489 3a3e 1dac 4abd 539d 11bd
000003b0: 28a0 f0bd c5fd d6bd e17c 7fbc e7d2 afbc
000003c0: 539a 123e 5979 953d 1ed4 b2bd b1b9 ad3d
000003d0: 87fa 04be 93e4 8ebd 49af e33d bbf4 26bd
000003e0: ed79 6a3d 220f 1abe 3e7b 08be fada f438
000003f0: cd66 3bbe 19d4 1b3e a9e0 0b3e 5b76 d7bd
0.048251443 0.12454635 -0.04981954 -0.044404767 -0.101556115 0.08638364 -0.10989025 -0.03474125
-0.1610467 0.12636182 -0.13970426 0.0061839204 -0.09215972 -0.028374488 0.077530116 0.08033871
-0.1327604 -0.109636046 0.012473259 -0.011729559 -0.07705976 -0.13434091 0.097979754 0.056914635
0.08268202 0.023248183 0.08151593 0.022327095 -0.008077968 0.07839862 -0.005939901 -0.12351792
0.19114125 -0.11620739 -0.16390012 0.0056661493 0.19657022 -0.13084462 0.051488392 -0.022404678
-0.060672812 0.1219777 -0.19822517 0.041670814 -0.14322299 -0.15033689 -0.087903485 -0.12661824
0.1185255 -0.1295153 -0.01150709 -0.05207428 -0.19585039 0.14495458 0.11298218 -0.035168488
-0.14289725 0.07027319 0.1722251 0.15560807 -0.098637775 -0.13317278 0.012047386 0.18795429
-0.1609673 0.02567082 -0.13355373 -0.080080226 0.101988666 -0.016616838 0.12351117 0.050294317
-0.007164581 0.12720177 0.09836454 -0.13408922 -0.10775345 0.11582117 0.05951237 0.14680268
-0.10326579 0.0842837 -0.09175369 -0.13758066 0.05570204 0.03346812 0.20227332 0.14737208
-0.17444862 0.098975085 0.18606824 -0.1336126 0.15508065 0.17897396 0.2269981 -0.1336034
0.12078279 0.06780802 0.0269981 0.14707103 -0.053766582 -0.037329614 0.007798319 -0.16376616
-0.16758086 -0.17507958 -0.12878326 -0.06785227 0.08542021 -0.18542017 0.19308938 -0.014171202
-0.15758711 0.102654964 0.10673591 -0.10689016 0.16535498 -0.118591495 0.0676956 0.051230088
-0.018607378 -0.10903107 0.12819983 -0.12194825 0.034193058 -0.038906254 0.064929575 0.16839774
-0.0025345962 -0.061453626 -0.13225536 0.17413783 -0.17127797 -0.0464946 -0.07982448 -0.1745248
0.035076905 0.09288411 0.09997003 0.036160626 -0.17833097 0.07004597 -0.20238063 -0.105922125
0.04064046 0.053567912 0.045875516 -0.1382312 -0.14145452 0.051597916 0.051604867 -0.022627369
-0.07561496 0.09698317 0.005969664 -0.035422146 0.016561927 0.052737746 -0.04161321 -0.05045911
-0.053452466 0.04326963 -0.13310696 -0.13230957 -0.16044697 0.070580825 0.060547203 -0.040365484
-0.032607976 0.044825856 0.079825126 -0.030747004 -0.008277774 -0.05890661 -0.14325188 0.019384729
-0.113363616 -0.0040647467 -0.09297332 -0.19831325 0.045731083 -0.0037842894 -0.028602459 0.06872009
0.04555861 -0.042358067 0.20708872 0.07965043 -0.15022303 0.16183092 -0.12636854 -0.074400544
0.10948937 0.13604097 -0.11934025 -0.07723456 -0.111246146 -0.22868095 -0.15066272 -0.18437172
0.015194345 0.061426543 0.09235556 0.14490142 -0.05849647 0.030640038 -0.18784484 0.1596144
0.034345757 0.037486743 -0.07902959 0.1192325 -0.14158963 0.058555335 -0.06711531 -0.03227329
-0.016382672 0.13848354 0.00035330956 0.1390128 -0.05524866 -0.070430025 0.17704001 -0.16151074
-0.063746 -0.058857873 -0.13997413 0.09534325 0.15905336 -0.11379032 -0.1353455 -0.031499892
0.13687797 0.18216354 -0.049480546 -0.035550427 -0.117492974 -0.104976214 -0.015593738 -0.02146287
0.14316683 0.07298536 -0.087318644 0.084826834 -0.12986194 -0.06977191 0.11117417 -0.040760737
0.057245184 -0.15044835 -0.13328263 0.00011675614 -0.18300934 0.15217628 0.1365992 -0.105206214

fc2.weight f4 [300, 400]
00000000: 082b 96bc 7bfc c93c 1819 0d3d 5cec 013d
00000010: fed7 33bd df9a 0abd 3b42 60bd 09c7 f43c
00000020: a6ca 12bc 0721 3e3d ba5d 563d 71a3 69bc
00000030: 9cc5 a43b 7ea1 e03b 7921 4dbb 5326 553d
00000040: da78 353c 8831 74bd a079 4fbd cc0c 483d
00000050: ddd5 51bd 2de2 8dbc 9e94 373d 1d81 78bd
00000060: cc40 0a39 63c8 1fbd f333 c1bc 6f6e debc
00000070: d907 7c3c 7da9 983c 4d1c 14bd 0fd9 1a3c
00000080: 0b5b 3d3d 8012 003d aa92 bb3c ffb0 2b3c
00000090: 1932 a8bc c846 143d 0aee 273d e5d9 d03c
000000a0: a730 44bd 8523 94bc f7bf 0f3d f7d6 573b
000000b0: 2359 29bd 2912 ee3c d196 12bd 6cb4 60bd
000000c0: 1f5f 3a3d 1e27 3c3d a8b0 b1b9 5886 1d3d
000000d0: f0ab e5bc 43e5 2abd 9d20 fabc 4d2b 03bd
000000e0: 611b 29bc 9785 163d f918 bcbb f405 8d3c
000000f0: 52db 7fbc 3144 46bd 3a74 4abc 8a0d 5bbd
00000100: 8492 aaba 782c 0cbc 6dd5 08bb 86a4 2dbc
00000110: c76e 1a3d d33d 28bd c6e9 1dbd 31f7 18bd
00000120: 8fd8 d53c 2d30 5abc 229d acbc e9b4 ac3c
00000130: f63f 7bbd 2872 3dbc 35cb 4d3d 5d93 c83b
00000140: 2d6c 26bd 62d3 74bd 81e7 c43c 740b 5ebb
00000150: feb6 6ebc 201b 193d 1301 e33c 1a40 c7bc
00000160: 7a30 c1ba bc40 8e3b 74f1 0abc 8b22 313d
00000170: 59af 3a3c a2a5 523d 7786 09bd f02b 063d
00000180: f7ea 0e3d 1980 11bc 3027 1e3d e24b 153d
00000190: a3b5 27bd 00a5 cd3b 9a34 7cbd cc3c 17bd
000001a0: 9cef 78bd f460 3abd 722c 1d3d 06bb c23c
000001b0: 9a0b f63c ae90 2bbb 7f86 76bd 8846 4a3d
000001c0: 157d 4ebc b622 29bd 7276 6abd 9a02 f53b
000001d0: bfb4 a63c 79e7 0cbd 48f8 eabc 58c1 5abd
000001e0: 4cda 373c 0320 343d 97f5 38bc dee4 2dbd
000001f0: 3c5f e2ba c62a 55bc adf0 853c da60 2ebd
00000200: 05c6 09bd 924d 553d 5e27 72bd f97c 133d
00000210: 297e 2b3d 8d94 adbc 2b7f 83bc 6e9b 4d3d
00000220: 58a8 f03c 0729 6abd c8e4 1cbd f70e f03c
00000230: 449c 1cbd 06fc 493d 1f6e 68bc 94e1 0e3d
00000240: fbdc c0bc adab 46bd 867a febb 4637 993c
00000250: 43df 933a 3e15 7bbd 50d5 a1bc 6e2e a5bc
00000260: 7645 a4bc a184 3dbd 8726 293d 03cf 423d
00000270: a52c 27bc 8f6b 933c d6a7 3dbc e49c 223d
00000280: edb6 45bd bd4e 2abd f557 473c bca8 f63c
00000290: bada 36bc 1eac aebc 2521 32bd 4375 8cbc
000002a0: cf91 cebc 8f98 3a3b 2a26 7f3b 65a9 283d
000002b0: 3d3a 30bd 810b 7fbd 44e7 9ebc 0afa 873c
000002c0: 3e20 853c 0d7e cebc 1eba 0dbd 86b3 bb3b
000002d0: 0aa8 5ebd 1b29 b2bc 4d3f 18bd e9d5 5abd
000002e0: 6b23 6cbd 7cec 5dbc 221f 88bb 2145 0cbd
000002f0: 42f0 c33c cdf7 17bc ba56 3e3c 7cbd 1ebd
00000300: e312 47bd 9318 68bd 7eba c03b 3339 923c
00000310: 891e 04bd a036 d3bc 158c 29bd aa5b b63c
00000320: 5c17 953c a103 0cbd 8df4 af3b 2380 183d
00000330: 9ffb 263d 71aa 733c 8d3d 8d3c 3b5b 6bbd
00000340: d254 203c 3f13 e8bc bb5a cb3c f5b7 48bd
00000350: 21a2 f4bc 43c6 12bc 4b9f fa3c 2f35 2cbd
00000360: 06f4 563d e3e3 553d eb60 b7bc c6f4 53bd
00000370: 93f8 30bc 1836 7dbc 6642 ca3c 6417 0abc
00000380: 3099 413d 756e 08bc e36e 44bd bcf3 7cbd
00000390: 7446 72bd d894 a83b 715d 0abc 7ee4 ffbb
000003a0: 62f3 2dbd ef28 0a3d 30ed b3bc 5fc9 7dbd
000003b0: bec8 44bd 3849 82bc 2594 e13c 9c01 1d3d
000003c0: 81b1 e53a 546a 08bd e06a c939 29c4 043d
000003d0: b35f 4a3d 184e 363d 9f7b 413d a4df 633c
000003e0: feaa c63b 74ce 863c df31 60bd 6518 013c
000003f0: de9e 12bd 1f69 f13c 6b1b d7bc 3e6c d13c
-0.018331066 0.024656525 0.03444776 0.03171955 -0.043907158 -0.033839103 -0.054750662 0.029880064
-0.008959448 0.046418216 0.05233548 -0.014260159 0.0050284397 0.006855189 -0.003130047 0.052038502
0.011076177 -0.05961755 -0.0506531 0.04884033 -0.051229347 -0.017319763 0.044819467 -0.060670007
0.00013184844 -0.039009463 -0.023584342 -0.027152268 0.01538273 0.018635506 -0.036159802 0.009451165
0.046229403 0.031267643 0.022897083 0.010479211 -0.0205317 0.036200315 0.040998496 0.025494525
-0.04789796 -0.018083343 0.03509518 0.0032934526 -0.041344773 0.029061394 -0.03578836 -0.054859564
0.04550087 0.045935743 -0.0003389169 0.0384582 -0.028036088 -0.041722547 -0.03053313 -0.032023717
-0.010321469 0.036748495 -0.0057402817 0.017214753 -0.015616255 -0.048404876 -0.012356812 -0.05347971
-0.0013013636 -0.008555524 -0.0020879165 -0.0105983075 0.0377033 -0.041074585 -0.03855302 -0.037345115
0.02610424 -0.01331715 -0.02107102 0.021082358 -0.061340295 -0.0115628615 0.05024262 0.0061210827
-0.04063051 -0.059771903 0.02403617 -0.0033881338 -0.014569996 0.037379384 0.027710473 -0.024322558
-0.0014739179 0.004341213 -0.0084804185 0.043245833 0.011394345 0.05142749 -0.0335755 0.032756746
0.03489205 -0.0088806385 0.03861159 0.03644932 -0.040944707 0.006275773 -0.061573602 -0.036923215
-0.060775384 -0.045502618 0.038372464 0.02377082 0.030034829 -0.0026178765 -0.06018686 0.04938367
-0.012603064 -0.04129287 -0.057241865 0.007477117 0.020349858 -0.034400437 -0.028682843 -0.053407043
0.01122148 0.04397584 -0.011289022 -0.042454593 -0.0017270814 -0.013010686 0.016350115 -0.042572834
-0.03363611 0.05207593 -0.059119575 0.036007855 0.041868363 -0.021188999 -0.01605185 0.050197057
0.029377148 -0.057168033 -0.03830412 0.02930401 -0.038234964 0.049312614 -0.014186411 0.034883097
-0.023542872 -0.048503567 -0.007766071 0.018703114 0.0011281747 -0.061299555 -0.019755036 -0.020163741
-0.020052653 -0.046269063 0.04129651 0.047560703 -0.010203515 0.017995624 -0.01157566 0.039700404
-0.048270155 -0.041578997 0.012166967 0.030109756 -0.011160547 -0.021322306 -0.04348864 -0.017145758
-0.025216011 0.002847228 0.003893266 0.041177172 -0.04302429 -0.06226683 -0.019397385 0.01659872
0.016250726 -0.02520659 -0.034601323 0.005728188 -0.054359473 -0.021748116 -0.037169743 -0.053426657
-0.057650965 -0.013545152 -0.004154102 -0.034245614 0.023918275 -0.009275389 0.011617357 -0.038754925
-0.048601996 -0.05666406 0.0058816066 0.01784954 -0.032255683 -0.025782883 -0.04139336 0.022260506
0.018199615 -0.03418315 0.005369729 0.037231576 0.04076731 0.014872179 0.017241264 -0.05746005
0.009785848 -0.02832949 0.024823537 -0.04900356 -0.029862465 -0.008958402 0.030593535 -0.042042907
0.052478813 0.052219283 -0.022385081 -0.051747106 -0.010801452 -0.0154547915 0.024689864 -0.008428428
0.04726523 -0.008327116 -0.047957312 -0.06175588 -0.05914922 0.0051446967 -0.00844513 -0.007809221
-0.042468436 0.033730444 -0.021963686 -0.06195962 -0.048043005 -0.015904054 0.027536461 0.038331613
0.0017524214 -0.033304527 0.00038417336 0.032413635 0.049407672 0.04450807 0.047237035 0.013908301
0.0060628643 0.016455866 -0.05473506 0.007879351 -0.03579604 0.029469071 -0.026258191 0.02556431

fc2.bias f4 [300]
00000000: 63d8 fa3c 27d5 9abc 80ee 1bbd ce5b 193d
00000010: 6058 81ba 1fcf 5bbc 7a86 c1bc 27e1 12bd
00000020: 553a 093d 8122 c9bc fc60 d4bb 1b3b 233d
00000030: ed6e 7d3c 8d22 3f3c 630b 01bd f3dd 03bd
00000040: 8874 edbc 907f 29bd 64ec 3ebd 528e 51bc
00000050: e835 3c3c 7a16 223d 0dfd bfba fa3c f2bb
00000060: 1662 14bd e5f5 833b 883f 3dbd 0d37 853b
00000070: 0441 f43b 4e64 8dbc 73af 103d ac98 8e3d
00000080: 6361 cc3c 0c5e e73c 4f63 1b3c 779c 2abd
00000090: 8dfe 13bd 20a9 333c e92e 95bd a450 9bbc
000000a0: 9f9f 1c3d 62a1 04bd 292c 48bd 6310 27ba
000000b0: f046 a53b 53fc 86bb 35b9 1ebd afce 013d
000000c0: 9be4 e5bb dc32 c23c 943c f7bc 9544 da3c
000000d0: 6c8f 8f3d b5fb d1bc 1aaa 81bc 5944 4dbd
000000e0: 4dbe cfbc c708 a4bb 7576 923c a8d8 1fbb
000000f0: 11e5 0cbd c061 643c 2b3b 3abd 7254 f4bc
00000100: 991a 24bd 78d2 26bb 368e 153d 6dd1 38bd
00000110: 4c69 903c 33d2 3c3c d064 8b3b 7249 aabc
00000120: 3d27 b33c 51f7 41bd e60e 123d 7808 d7bc
00000130: 1285 0f3d b97f 9cbc ac74 04bc 83ef 363d
00000140: fefe e43c 6993 2bbd 5d22 d6ba 1a91 43b9
00000150: 3e77 d4bc a1cf 80bd c1f7 8a3b a77d ff3c
00000160: c68c 1e3d 8c9d ecbc de3a ea3c deb1 e93c
00000170: f4da 8b3e 62a0 6ebd b5ef febc 362d cbbc
00000180: 03a5 ecbc 4f70 f3bb f4f1 e23b 5f5d 1fbc
00000190: c96a eb3c 8238 07bd 6dff 1dbd 7490 193c
000001a0: 09a4 3cbd ce64 253d feb2 57bc 0b04 c53c
000001b0: d95a 523a 602c 8c3d d43c 9b3d 7dae 183d
000001c0: e9a8 2fbd cb2d dcbc ee09 1abd 5bd2 303d
000001d0: 92f9 80bc 8b32 90bd 6ef6 9dbc 5101 283d
000001e0: 6da6 e13c 5237 6dbc e0e1 edbc 8dcb 9b3c
000001f0: 454f 26bc d703 0a3d 3e04 3d3c 8c7b 1ebd
00000200: fc93 28bd 85e4 1d3d 004f 073d 6039 51bd
00000210: 0b3b 67bd 3711 c6bc 9178 3a3c aca1 10bd
00000220: 51da 2bbd 0dea 3bbd 82e5 18bd 725a b13d
00000230: 81fd 65bd 7544 49bd f37c 05bc 316f 493c
00000240: 372c e33c a2eb 5ebd e5ff df3b 77a8 083d
00000250: 6f88 b43c d5e5 54bd a00a 87bc 8422 f93c
00000260: 1bb8 f6bc c4e7 2bbd 0a1c 8bba a9f5 88bb
00000270: 7ffe 05bd cfbc 37bd 588b 313d f4c5 3fbc
00000280: 12d0 e6bc af88 49bd 4eb4 983c 5de4 2b3c
00000290: 4a7d fdb9 1cf1 733a 32cf 2abc 742e babc
000002a0: def3 65bd f691 bdbc 3cf2 c439 bbba 42bd
000002b0: ff8d 913c 24b8 073d e2e2 02bd 1954 d13c
000002c0: 7f38 eaba 955f 533c bd2d 3bbd 1518 5abd
000002d0: 4411 083b 5c1b 64bd 753e 9cbc e041 bf3c
000002e0: 91a3 33bc dc42 173d d166 bbbb a419 d9bc
000002f0: ec4f 24bd d7aa 4fbb 34da 1dbd 223b 2fbc
00000300: 8699 9b3c 8a31 043d 53ee 2bbd c09c 173d
00000310: 3ed3 853c 19a5 22bd 0a6e ab3c 8931 d43d
00000320: 5762 c13c 3fcb be3c d7f4 18bd cdd9 52bd
00000330: e8a8 c43c b5a0 18bd 9cbb 30ba 8327 20bd
00000340: 6bca 3b3c 1595 6d3c 2f86 8cbc 2e28 fa3c
00000350: c442 3dbd e911 34bb 2f2b 293d e8bf 20bd
00000360: 91ac 893c d65f 01bd 48ed 2e3c 6dc1 4abd
00000370: eca9 ecba 60e4 2b3d a9fb 0f3d 85c5 01bb
00000380: be98 c3bc 156f 143c be15 0bbd 62f3 82bd
00000390: d9cb 0c3c f55e b33c f93a 253d c467 e03b
000003a0: 4d60 cd3c 14bb f93c dcbb d8bc 160b 963b
000003b0: a085 0cbc 8696 693b 4115 403d 6b01 a73c
000003c0: 15d8 393c 38e8 58bd 19c8 7dbc b9d7 543c
000003d0: 036b 113d 9473 093d 960a 06bc e8d3 85bc
000003e0: fc49 943b 2f0e b13c f6d3 f43c 19e6 f33b
000003f0: 1120 cd3c 962e 79bc d720 9a3c beb6 49bd
0.03062076 -0.018900467 -0.03806925 0.037441067 -0.0009868257 -0.013416081 -0.023623694 -0.035859253
0.033502895 -0.024552586 -0.006481288 0.03985129 0.015468341 0.011665952 -0.031505 -0.03219409
-0.02898623 -0.04138142 -0.04661216 -0.012790279 0.011487462 0.039572217 -0.0014647559 -0.007392523
-0.036226355 0.0040271156 -0.046203166 0.0040654005 0.0074540395 -0.017259743 0.03532357 0.069627136
0.024948781 0.028243087 0.009484126 -0.041653123 -0.03613143 0.0109656155 -0.07284338 -0.01895935
0.038238164 -0.03238047 -0.04887024 -0.0006372986 0.005043857 -0.004119435 -0.038750846 0.03169125
-0.0070157773 0.023705892 -0.030180253 0.02664403 0.070097774 -0.025632719 -0.015828181 -0.05011401
-0.025359297 -0.005005929 0.01787875 -0.0024390612 -0.034398142 0.013939321 -0.045466583 -0.029825423
-0.040064428 -0.002545504 0.036512576 -0.0451216 0.017628334 0.011524725 0.004253961 -0.020786975
0.021869296 -0.047355 0.03565874 -0.026249155 0.035039015 -0.019103872 -0.008084457 0.04466201
0.027953621 -0.04188863 -0.0016337145 -0.00018650704 -0.025935765 -0.06289602 0.0042409603 0.031187845
0.03870847 -0.028883718 0.028592523 0.028527196 0.27315485 -0.05825842 -0.03112016 -0.024801832
-0.028887277 -0.0074291597 0.0069258157 -0.009726851 0.028737443 -0.033012874 -0.03857367 0.009372819
-0.046054874 0.040379338 -0.013165234 0.02404978 0.00080244016 0.06844401 0.075799614 0.03727578
-0.042885695 -0.026877305 -0.037607126 0.04316936 -0.015744004 -0.0704089 -0.019282546 0.04101688
0.027545178 -0.014478521 -0.02903837 0.019017959 -0.010150735 0.03369507 0.011536656 -0.038692042
-0.041156754 0.03854801 0.033034325 -0.051080108 -0.056452792 -0.02417813 0.011381284 -0.035310432
-0.04195625 -0.045877505 -0.03732825 0.08659829 -0.056149963 -0.04913755 -0.008147466 0.0122945765
0.027731044 -0.054423936 0.006835925 0.033363786 0.022037713 -0.051976997 -0.016484559 0.030411966
-0.030117085 -0.041969076 -0.0010613215 -0.0041796756 -0.03271341 -0.044857796 0.04334578 -0.011704911
-0.028175388 -0.049202617 0.018640663 0.010491458 -0.00048349268 0.00093056425 -0.010425376 -0.022727229
-0.056140773 -0.023140889 0.00037564512 -0.04754136 0.017767904 0.033134595 -0.031954654 0.025552796
-0.001786962 0.0129012065 -0.045697916 -0.053245623 0.0020762244 -0.055690154 -0.01907275 0.023346841
-0.01096429 0.036928996 -0.005719044 -0.026501484 -0.040115282 -0.0031687522 -0.038538173 -0.010695251
0.018994104 0.032273807 -0.04197533 0.037014723 0.01633608 -0.03970823 0.020926494 0.103610106
0.023606462 0.023290275 -0.037342872 -0.051477242 0.024006322 -0.037262637 -0.0006741823 -0.03910018
0.011461834 0.014500876 -0.017153827 0.030536737 -0.04620625 -0.0027476496 0.04130095 -0.039245516
0.016805919 -0.031585537 0.010676689 -0.04950087 -0.0018056012 0.041965842 0.03515211 -0.0019801569
-0.023876544 0.009059687 -0.03395628 -0.06394078 0.008593523 0.021895865 0.040339444 0.0068483073
0.025070334 0.030484714 -0.026456766 0.0045789583 -0.008576781 0.0035642697 0.04689527 0.020386418
0.011343022 -0.052955836 -0.0154896015 0.012990885 0.035502445 0.03355749 -0.008181235 -0.016336396
0.004525421 0.021613209 0.029886227 0.0074432013 0.025039705 -0.015208861 0.018814487 -0.049246542

fc3.weight f4 [4, 300]
00000000: 685c 0b3c 7206 71bb 18d7 86bb aa2f 5c3b
00000010: 249a 5d3b b638 ea3b 6668 983b 1a4b 183c
00000020: 463e 1e3c 0c0f 6c3b 7d08 8e3b 805b ff3b
00000030: 2c3f d43a 4e38 83bb dc4b 373b 071b c63b
00000040: e4e4 9f3b de60 c43b 8a8b b73a 5ef6 9c3b
00000050: bb38 273b fc08 a33b b257 cf3b 9db7 133c
00000060: 8ef9 ce3b 283e 4d3b fb52 093c 22ef a93b
00000070: dc5e d73b 1121 9b3b 4bce 023c 9820 913d
00000080: 1156 a73b cef4 ba3b c1c6 e83b d97c 9b3b
00000090: e565 74bb 5135 fd3b be3c e5bb 364f e03b
000000a0: 6248 df3b 7a82 753b 4db9 1b3b 387a 9e3b
000000b0: 9791 c23b 38fb 183c ef10 df3b ee80 723b
000000c0: 5901 893a 612c 163b deff 70bb 9d9f a23b
000000d0: 6e2f cebe c67f 84bc 4f6f d23b 2b4c 053c
000000e0: cb8a 6c3b 6f1d ab3b d208 223b 293e bb3b
000000f0: 40ff bc3b 6d97 983b 081f d73b 8497 103c
00000100: 63a5 c83b 93ae 753b 8931 923b 96c8 963b
00000110: 441b b6b9 6dcb 8538 c56a 443b ff48 7f3b
00000120: c42d c1bb 2eb4 d83b 0c79 9e3b 7ee3 2e3b
00000130: d987 aa3b 6d4c 4c3b f3b7 33b9 5c64 d03b
00000140: e1c2 e03b c1c4 ee3b ce4b c63b a124 e93b
00000150: 4fef ab3b 6da6 ecba 2cee b13b 261c 033c
00000160: 2bb5 fa3b 7ac8 af3b d230 ce3b 967b c13b
00000170: 992e b33e 2db7 b43b 1db0 aa3b 1712 ab3b
00000180: 6a76 463b e909 0c3c 4e78 b8bc 6817 783b
00000190: 4437 d53b 34a0 0e3c e83d 80bc d650 333b
000001a0: a4fe 8a3b 5b86 f53b a508 dc3b eaae 5a3b
000001b0: e408 a83b 78be 723d c5b3 a13d 9fe7 263b
000001c0: 4c9b 6a3b 8ff2 c03b 0879 0cbc 8fc5 f83b
000001d0: 6af0 df3b b9d7 673a ffd5 073c f5fa a03b
000001e0: e26f c53b 1bc1 983b 6810 123c 9dfc 003c
000001f0: 2536 673b b1bb a33b 9d95 c63b 882b f13b
00000200: dd0c b0bb e5ee ad3b d01c 173c 4b3c 8eba
00000210: 7fe7 d13b 8e36 313b 42d5 d23b f6c6 423b
00000220: 21f2 c53b d94d b43a 608b e3b9 78ae 903b
00000230: 5731 c43b 64fd ba3b e3c8 223e e23c f13b
00000240: 6d1a 033c 64e0 dd3b 6db9 a63b 199d fe3b
00000250: 1493 ad3b edb6 d63b 8864 c83b 5081 af39
00000260: d275 9d3b a7d0 8f3b 1721 eb3b 2389 bc3b
00000270: 9fb3 303b c14a 163b 529d ec3b 12dd bc3b
00000280: 8518 cc3b b51d 493b e302 063c 01da 063c
00000290: 7dad f93b 32e2 023c 0eec 66bc 2c85 413b
000002a0: 67d2 aa3b 2232 ef3b f41c f83a 3254 9f3b
000002b0: 605a 9b3b 52c3 ec3b 8f28 7d3b 0bc5 473b
000002c0: ce43 9b3b d59e 9d3b c281 b43b ea47 b13b
000002d0: 968f fb3b 5aab be3b fcbd 75b9 3151 89bb
000002e0: 418b 89bb e7c3 e93b 7279 c5bc 1a35 fb3b
000002f0: 0a75 453b cb29 4c3b 6ef1 10bc 3c08 9e3b
00000300: 3e94 9e3b e2eb 123b ab38 533b e1e0 da3b
00000310: f363 c23b 6d45 6ebc 29d5 413b 21bb 8b3d
00000320: 4867 20be 8b5e e03b 1699 eeba 0538 8a3b
00000330: 640d 003c 7cd1 fa3a dcf3 e63a c4ba 253c
00000340: 6b68 c93b 700f 063c 34a7 13bc f993 f03b
00000350: 2c6b 333b 6e8e 9d3b 3ff5 043d 521c 6f3b
00000360: e337 933a 7103 863b 9308 9b3b 565f a63b
00000370: 8f73 043c 9cc7 4b3a 9697 eb3b 4bc0 9a3b
00000380: 3851 213b 1f1c de3b 6fc2 d43b a08e cebb
00000390: 06f9 8bbb c974 a93b 9f10 173a 7a43 e43b
000003a0: beff 0f3b 5f4d 083c 69fa 933b 79c4 bf3b
000003b0: a653 bf3b 00f1 803a da3f 49bb be29 f83b
000003c0: 4f34 9c3b eebe 983b a57c a33b be5c 173c
000003d0: 74cc f23b f637 bf3b 9fcb 5e3b f588 033c
000003e0: 9b1c 083c e019 f83b 7cc7 84ba 55cf 723b
000003f0: 9d91 0c3b 976a 433a eeb3 bf3b 3935 963b
0.008505918 -0.0036777523 -0.0041149966 0.0033597746 0.0033813799 0.0071478738 0.004651117 0.009295249
0.009658402 0.003601971 0.004334508 0.00779289 0.0016193143 -0.004004515 0.00279688 0.0060457024
0.004879581 0.005992993 0.0014003378 0.0047901114 0.0025515992 0.0049754363 0.006327593 0.009015945
0.0063163703 0.0031317566 0.0083816005 0.0051859776 0.0065725874 0.0047341664 0.007983754 0.07086295
0.0051066955 0.0057054525 0.0071037714 0.0047451076 -0.003729218 0.007727303 -0.0069957664 0.00684538
0.0068140486 0.0037461803 0.002376157 0.004836347 0.005937766 0.009337239 0.0068074386 0.0037003118
0.0010452672 0.0022914635 -0.0036773602 0.004962875 -0.4027056 -0.016174208 0.0064219604 0.008135836
0.003609347 0.0052220146 0.0024724496 0.005714197 0.005767733 0.0046567232 0.0065649785 0.008825187
0.0061232313 0.0037488088 0.0044614715 0.0046015484 -0.0003473406 6.379825e-05 0.0029970866 0.0038953421
-0.0058953483 0.006613276 0.0048362073 0.002668589 0.0052041826 0.0031173483 -0.00017139297 0.00635962
0.006859169 0.0072866385 0.006051517 0.007114962 0.0052470337 -0.001805497 0.0054300036 0.008002317
0.0076509914 0.005364475 0.006292441 0.005904625 0.3499649 0.0055150003 0.0052089826 0.0052206623
0.0030282983 0.008547285 -0.022518303 0.0037855748 0.0065068323 0.008705188 -0.01565452 0.0027361414
0.0042417813 0.007492823 0.0067148977 0.0033368417 0.005128013 0.059263676 0.078956164 0.0025467647
0.003579813 0.0058882902 -0.008573778 0.00759191 0.0068340795 0.0008844096 0.008290767 0.004912729
0.0060253004 0.004661692 0.008915044 0.007872728 0.0035280075 0.00499674 0.0060603158 0.0073599257
-0.005372627 0.0053080195 0.009223178 -0.0010851709 0.0064057703 0.0027040574 0.0064341137 0.002972064
0.006040827 0.001375611 -0.00043400656 0.0044153295 0.005987327 0.005706476 0.15896945 0.007361994
0.008001906 0.006771134 0.0050880224 0.0077701923 0.005297074 0.006552568 0.0061155 0.00033474946
0.004805305 0.004388887 0.0071755755 0.0057536527 0.0026962531 0.002293274 0.0072209025 0.0057636583
0.006228509 0.0030687873 0.008179399 0.008230687 0.0076195584 0.0079884995 -0.014094366 0.002952884
0.00521307 0.0072996775 0.0018929527 0.004862332 0.004740998 0.0072254324 0.003862891 0.0030482437
0.0047383076 0.004810194 0.0055086324 0.005410184 0.007677029 0.0058187665 -0.00023435795 -0.004190587
-0.0041975086 0.007133949 -0.024105761 0.0076662423 0.0030129575 0.003115284 -0.008846624 0.004822759
0.004839449 0.002241843 0.0032229822 0.0066796397 0.005932325 -0.01454292 0.0029576516 0.068228014
-0.15664399 0.006847208 -0.0018203582 0.004218104 0.007815693 0.0019135918 0.0017620283 0.010115329
0.006146481 0.0081823915 -0.009012032 0.0073418585 0.0027377112 0.0048082387 0.032460447 0.0036485386
0.0011231866 0.0040897657 0.0047312467 0.005077283 0.008084192 0.00077735796 0.0071897013 0.00472263
0.002461506 0.0067782546 0.006492905 -0.0063036233 -0.0042716293 0.0051713926 0.00057626696 0.0069660516
0.0021972503 0.008319228 0.004515935 0.005852279 0.005838829 0.0009837449 -0.0030708225 0.0075733354
0.004766978 0.0046614325 0.004989224 0.00923842 0.0074096266 0.0058355285 0.003399588 0.008028259
0.008307601 0.007571444 -0.0010130252 0.003704985 0.0021449097 0.0007454543 0.0058503067 0.0045839814

fc3.bias f4 [4]
00000000: 5260 bfbc f780 5abd c389 0abd 426b 5fbd
-0.023361359 -0.053345647 -0.033822786 -0.05454565
