p2_continuous-control/checkpoint_actor.pth (torch_old, 542376 bytes, 10 tensors)

bn1.weight f4 [33]
000000 a8 5c 1d 3f 1e 14 c3 3e ed 19 23 3f 90 ec f2 3e
       0.6146951 0.38101286 0.63711435 0.47446108
000010 16 ae 36 3f 2b 79 1e 3f a4 93 e2 3e 58 22 c4 3d
       0.71359384 0.6190364 0.44253266 0.09576863
000020 68 39 1d 3f 70 d0 6a 3d a2 d2 10 3f b1 81 08 3f
       0.6141572 0.057327688 0.565714 0.53322893
000030 be b4 c7 3e 4b aa 68 3f d5 8a 08 3f 2f 14 35 3f
       0.39005083 0.90884846 0.5333684 0.7073392
000040 3f 2b 36 3f 7c f4 51 3e b4 95 9d 3e 94 19 7b 3f
       0.7115974 0.2050342 0.30778277 0.98085904
000050 00 1f 28 3c e8 9c ee 3e 4a b6 eb 3e a7 ca 5a 3f
       0.010261297 0.46604085 0.46037513 0.8546547
000060 86 a9 e7 3e 66 b4 21 3f 08 b6 f3 3e a8 4e 61 3e
       0.45246524 0.6316589 0.47599816 0.22002661
000070 ac cd 5d 3e 66 a0 83 3e 70 96 3b 3d 98 b8 33 3e
       0.21660489 0.25708312 0.045797765 0.17550886
000080 ea 1f 1e 3f
       0.61767447

bn1.bias f4 [33]
000000 00 00 00 00 00 00 00 00 00 00 00 00 00 00 00 00
       0.0 0.0 0.0 0.0
000010 00 00 00 00 00 00 00 00 00 00 00 00 00 00 00 00
       0.0 0.0 0.0 0.0
000020 00 00 00 00 00 00 00 00 00 00 00 00 00 00 00 00
       0.0 0.0 0.0 0.0
000030 00 00 00 00 00 00 00 00 00 00 00 00 00 00 00 00
       0.0 0.0 0.0 0.0
000040 00 00 00 00 00 00 00 00 00 00 00 00 00 00 00 00
       0.0 0.0 0.0 0.0
000050 00 00 00 00 00 00 00 00 00 00 00 00 00 00 00 00
       0.0 0.0 0.0 0.0
000060 00 00 00 00 00 00 00 00 00 00 00 00 00 00 00 00
       0.0 0.0 0.0 0.0
000070 00 00 00 00 00 00 00 00 00 00 00 00 00 00 00 00
       0.0 0.0 0.0 0.0
000080 00 00 00 00
       0.0

bn1.running_mean f4 [33]
000000 00 00 00 00 00 00 00 00 00 00 00 00 00 00 00 00
       0.0 0.0 0.0 0.0
000010 00 00 00 00 00 00 00 00 00 00 00 00 00 00 00 00
       0.0 0.0 0.0 0.0
000020 00 00 00 00 00 00 00 00 00 00 00 00 00 00 00 00
       0.0 0.0 0.0 0.0
000030 00 00 00 00 00 00 00 00 00 00 00 00 00 00 00 00
       0.0 0.0 0.0 0.0
000040 00 00 00 00 00 00 00 00 00 00 00 00 00 00 00 00
       0.0 0.0 0.0 0.0
000050 00 00 00 00 00 00 00 00 00 00 00 00 00 00 00 00
       0.0 0.0 0.0 0.0
000060 00 00 00 00 00 00 00 00 00 00 00 00 00 00 00 00
       0.0 0.0 0.0 0.0
000070 00 00 00 00 00 00 00 00 00 00 00 00 00 00 00 00
       0.0 0.0 0.0 0.0
000080 00 00 00 00
       0.0

bn1.running_var f4 [33]
000000 00 00 80 3f 00 00 80 3f 00 00 80 3f 00 00 80 3f
       1.0 1.0 1.0 1.0
000010 00 00 80 3f 00 00 80 3f 00 00 80 3f 00 00 80 3f
       1.0 1.0 1.0 1.0
000020 00 00 80 3f 00 00 80 3f 00 00 80 3f 00 00 80 3f
       1.0 1.0 1.0 1.0
000030 00 00 80 3f 00 00 80 3f 00 00 80 3f 00 00 80 3f
       1.0 1.0 1.0 1.0
000040 00 00 80 3f 00 00 80 3f 00 00 80 3f 00 00 80 3f
       1.0 1.0 1.0 1.0
000050 00 00 80 3f 00 00 80 3f 00 00 80 3f 00 00 80 3f
       1.0 1.0 1.0 1.0
000060 00 00 80 3f 00 00 80 3f 00 00 80 3f 00 00 80 3f
       1.0 1.0 1.0 1.0
000070 00 00 80 3f 00 00 80 3f 00 00 80 3f 00 00 80 3f
       1.0 1.0 1.0 1.0
000080 00 00 80 3f
       1.0

fc1.weight f4 [400, 33]
000000 da 74 a8 bd 8d 33 4a bd 30 64 19 be d6 ef dd be
       -0.08225413 -0.04936557 -0.14979625 -0.43347043
000010 f5 49 41 bf 30 3c a7 3d dc 5b 76 3e 96 68 35 bb
       -0.75503474 0.08165777 0.24058479 -0.0027680746
000020 aa eb 2a be 91 ca 82 3e 24 9e 47 bb 5d 4a 08 3e
       -0.16691461 0.2554517 -0.003045925 0.13309617
000030 a8 4b 39 3e 3e 1f c0 3c 0e 37 15 bd d0 dd 32 be
       0.18095267 0.023452397 -0.036429457 -0.17467427
000040 53 60 5c bd b5 e5 1c 3d 3d a9 02 3d 77 2b a8 3d
       -0.0538028 0.038305003 0.03189968 0.08211415
000050 91 6d 99 3c 53 ad 06 3e c9 6e cf bd 14 78 0c be
       0.018729003 0.13152055 -0.101285525 -0.13717681
000060 82 d4 5a be c7 a2 0c bd 3d 35 7e be 17 28 fd 3c
       -0.21370128 -0.034334924 -0.24824996 0.030902905
000070 55 36 8c 3d 35 60 3b bd f9 95 30 bc 4e 2a 10 bd
       0.068463005 -0.045746047 -0.010777944 -0.035196595
000080 aa 22 2d bd 74 8c 58 3e 7d 06 8c 3d a2 21 01 bd
       -0.042269386 0.21147329 0.06837175 -0.031526215
000090 e3 d4 73 3d 46 dd 27 bc ad f5 c6 bd b9 20 54 be
       0.059529196 -0.010245627 -0.09714828 -0.20715608
0000a0 d0 0d 25 3c ec 13 52 be 88 7e 7d 3e 14 26 83 3e
       0.010074094 -0.20515412 0.24755299 0.2561499
0000b0 68 3f 8b bc ac 8d fd bd 31 96 66 be c8 3b 24 3e
       -0.016998008 -0.123805374 -0.22518231 0.1603843
0000c0 67 ec 35 be 5c 13 24 be 54 e5 6e be 77 0f 8d 3e
       -0.17765962 -0.1602301 -0.23329669 0.2755086
0000d0 be e8 82 3e 34 bf 0a 3e 84 48 0f 3c 88 67 8d bd
       0.25568193 0.135495 0.008745316 -0.06904513
0000e0 b2 0a 94 bc 4a 79 8e 3d 8d 4b 50 be d2 07 7f 3d
       -0.018071506 0.06956728 -0.2034132 0.062263317
0000f0 e8 fb aa 3d 83 55 4c be c3 f1 c9 bc a0 df 17 bd
       0.083488286 -0.19954495 -0.024651414 -0.0370785
000100 49 b0 05 3d 10 7d 0e 3e 64 a0 00 3e d9 0d 0f bd
       0.03263882 0.13914895 0.12561184 -0.034925316
000110 3d 2a 33 be 34 2a 3e be 88 15 64 be db 61 7c bf
       -0.17496581 -0.18570787 -0.22273839 -0.98586816
000120 72 36 1e bf 09 11 14 be 0b 83 80 3b 5b 8b 41 be
       -0.61801827 -0.14459623 0.0039218715 -0.18900816
000130 63 7e 6e bd 26 64 89 3d 92 c5 2d 3e d1 e3 9d 3d
       -0.058226 0.06708555 0.16969898 0.07709468
000140 48 bb 2b 3d cd 66 2e 3c cf 16 2a be 6f e7 86 be
       0.041926652 0.010644627 -0.16610263 -0.26348445
000150 11 c1 a2 3e 8b b8 54 3e b1 d5 3a be 94 dd d5 bc
       0.31787923 0.20773523 -0.1824558 -0.026106633
000160 29 56 ba bd d7 be b5 bc c6 20 09 3d 7e b3 52 3d
       -0.09098465 -0.022185726 0.03347852 0.05144071
000170 a0 4e 5d bd ae d8 11 be 57 15 b2 bd d4 10 14 3c
       -0.05403006 -0.14242813 -0.086954765 0.009037215
000180 2f ff e3 3d a7 57 29 3d be 41 97 bf ce 68 9d 3b
       0.11132657 0.041343357 -1.1816938 0.0048037535
000190 2a 9b 02 be 6a cc 81 be b9 b9 90 bd ec 1c b1 be
       -0.12754503 -0.25351268 -0.07066674 -0.34592378
0001a0 17 d4 72 be 76 94 53 bd f0 b5 e1 3c c1 b9 87 be
       -0.23713718 -0.051655255 0.027552575 -0.26508906
0001b0 45 31 89 bd 66 28 f5 bd 97 f6 31 3c 80 6c 17 be
       -0.066988505 -0.11970596 0.010862014 -0.14787483
0001c0 11 aa 90 3d df 4c 22 bd 28 33 e6 3d f7 94 1f 3e
       0.070636876 -0.03962409 0.11240226 0.1558417
0001d0 df 5b 98 be 82 60 80 bd 2a 10 00 be 62 0c e6 3c
       -0.29757592 -0.062684074 -0.12506166 0.028082076
0001e0 73 a4 02 be d5 be 5b 3d b2 07 2d be 0d 05 44 bd
       -0.12758045 0.05364879 -0.16897467 -0.04785638
0001f0 3f 0e 29 3d ab b6 45 3e 29 55 84 3d c0 e2 9f 3e
       0.04127335 0.19307964 0.064615555 0.31227684
000200 c3 71 a0 bc 31 46 87 3c b2 76 c8 3c 2c ed 9a be
       -0.019585496 0.016512962 0.02447066 -0.30259073
000210 94 60 53 3d 3b 7a 43 bd 81 a5 de bd 49 bb 2a 3e
       0.051605776 -0.04772399 -0.10871411 0.16673006
000220 3f bf 94 3d ae 71 2b be 91 2a 3e bd a3 a9 9d be
       0.0726304 -0.16742584 -0.046427313 -0.30793485
000230 ab 5f 30 bd 73 2f 9c bc 65 7d 8a bd 7b 3b 4d 3e
       -0.043059986 -0.019065594 -0.06762198 0.20042221
000240 0d d4 d8 3d b5 47 a3 be 27 13 8d bb 62 78 47 bc
       0.105873205 -0.31890646 -0.0043052617 -0.012174698
000250 2f 43 7b be 6c 1a 66 bf 65 55 49 3d 9a 49 20 3c
       -0.24537347 -0.89884067 0.049153704 0.009783173
000260 09 2d e4 3d 8b e5 54 be a2 d7 90 3d 26 d3 a3 3d
       0.11141402 -0.20790689 0.07072379 0.07999258
000270 e8 9d b3 bd da 0c a4 3d 01 fa 4c 3e ee 6e 95 3e
       -0.087703526 0.08010264 0.20017244 0.29186195
000280 72 38 25 be 23 ca 24 3d 35 27 58 be fd 16 f9 bc
       -0.16134813 0.040231835 -0.21108706 -0.03040647
000290 a7 db af be 94 1f 5c 3e b3 60 22 3e bd 67 8b bd
       -0.3434727 0.21496421 0.158572 -0.06806896
0002a0 8b be b0 bd 1e 44 8d 3e 52 99 b6 bd d4 a3 a6 be
       -0.08630093 0.27591032 -0.08915962 -0.32546866
0002b0 f2 f5 8a 3d 3a ff b6 be 34 ac 00 3e 27 2b 64 bb
       0.067851916 -0.35741597 0.1256569 -0.003481576
0002c0 be e8 08 bb 8b b0 91 bd d7 7c 08 3e 67 19 a3 bc
       -0.0020890678 -0.07113751 0.13328873 -0.019909574
0002d0 96 ea ab bd 5f 50 af be 19 df b9 3e 57 5e d3 3e
       -0.08394353 -0.34241006 0.36303023 0.41282913
0002e0 73 c9 26 be 2e c7 d3 3c 2b a6 84 bd df 5b 59 3e
       -0.16287784 0.025851812 -0.064770065 0.21226452
0002f0 09 18 a9 bc ce 78 47 be 4b b9 50 bc 95 8c 89 3d
       -0.020641344 -0.19479677 -0.01273949 0.06716267
000300 b9 27 ca 3d ba 6d 0c 3a f3 e5 1d 3d 34 17 0a bd
       0.09870858 0.00053569267 0.038549375 -0.033713534
000310 74 a5 74 3c fb 83 9d bf 66 9a 3e 3d fe 40 06 be
       0.014932025 -1.2305902 0.046533965 -0.1311073
000320 b5 bb 4a 3d c6 86 5b bd 49 20 82 be 4e c1 8c bd
       0.049495418 -0.053595327 -0.25415257 -0.068728074
000330 5a dc fc be 4b 36 eb 3c 52 43 d7 bd 1c 94 8a be
       -0.49386865 0.028712412 -0.10510887 -0.27066123
000340 9b 74 87 bd f0 2c 3b bd 00 e1 ec 3d 53 5b 1f be
       -0.066140376 -0.045697153 0.11566353 -0.15562181
000350 d0 fe 0b be 4b f8 09 3e e1 07 a2 bd 5f 1d b6 3e
       -0.13671422 0.13473623 -0.07911659 0.35569283
000360 d1 70 b4 be ec 5e 06 bf 7f dd 38 3d 20 fd c8 bb
       -0.35242322 -0.5248859 0.04513311 -0.0061336905
000370 0b b1 1f be 91 e1 39 be ac f3 0d be 22 f1 6d bc
       -0.1559488 -0.18152453 -0.13862485 -0.014522823
000380 93 ad 12 3e ac 69 be 3d d6 c8 14 3e 26 30 0d bd
       0.14324026 0.09297499 0.14529738 -0.034469746
000390 f1 54 01 be 2a 45 82 3c 18 86 a8 bf 63 57 7e be
       -0.12630059 0.01590212 -1.3165922 -0.24838023
0003a0 a3 1d 00 be 62 66 78 be a6 60 45 3e e6 a0 f0 be
       -0.12511306 -0.24257806 0.1927515 -0.46997756
0003b0 5d 27 3f 3f 39 68 a9 3e 54 d7 43 bd f9 06 34 3e
       0.7466944 0.33087328 -0.047812775 0.17580785
0003c0 fa 2d 4b 3e f9 60 17 3e b5 0e 6f 3b 12 b3 ac bd
       0.19841757 0.14783086 0.0036477272 -0.084325925
0003d0 ee 51 0e 3e f1 44 3a bc 24 f9 81 3c 68 4b d5 be
       0.13898441 -0.011368976 0.01586587 -0.41659093
0003e0 a4 f3 8c bc 17 57 34 3f 99 83 93 be 0b 26 33 3d
       -0.01720602 0.7044539 -0.2881134 0.043737452
0003f0 ce ae 64 3d 9d d4 c1 3d 49 1e 58 bd 4e f2 60 bd
       0.05583077 0.09464381 -0.052763257 -0.05491858

fc1.bias f4 [400]
000000 19 2b c2 bb 69 2f aa 3d e0 53 7f 3d 77 85 60 bd
       -0.005925548 0.08309824 0.06233585 -0.054814782
000010 12 84 c2 be 21 7b 76 3d a7 10 47 be 93 62 a8 3d
       -0.37991387 0.06017602 -0.19439946 0.082219265
000020 04 2d a6 be 55 92 b9 3d 12 11 91 3b be 1e 98 be
       -0.3245622 0.09061114 0.004427084 -0.29710954
000030 97 57 97 3d 87 54 18 bb 30 08 70 3d 93 a3 c5 bd
       0.07389753 -0.0023243742 0.05860156 -0.0965034
000040 f8 0f a9 be 85 b8 98 be f8 91 25 3c 99 2d e9 bd
       -0.33019996 -0.29828277 0.010105602 -0.1138565
000050 56 c8 63 be d2 dd 13 be a8 de 11 3e 0f a3 e1 3d
       -0.22244391 -0.14440086 0.14245093 0.11017429
000060 40 df 0f 3c 00 2d e4 bd fe a0 67 bc af 9b d8 bc
       0.008781254 -0.111413956 -0.014137505 -0.026441423
000070 63 58 bf 3d 0f 77 00 bb 2c a5 45 be 11 94 39 be
       0.0934303 -0.0019602214 -0.1930129 -0.18122889
000080 86 c3 ae 3c 21 18 61 be 36 5d 90 3d 75 17 2a bd
       0.021333467 -0.2198186 0.070490286 -0.041526277
000090 f0 72 c1 3d 8e dd 6a be a1 dd 14 be ae 65 23 bd
       0.09445751 -0.22936079 -0.1453767 -0.03989189
0000a0 1a 7b a0 bc a9 49 d5 bd f5 80 b0 be 0d ed 02 bd
       -0.01958995 -0.1041444 -0.34473386 -0.03196435
0000b0 81 f6 d2 be 1a 7c 2d be c0 8b f7 bd e6 36 4f be
       -0.41203693 -0.16941872 -0.12087202 -0.20235786
0000c0 5a f0 38 bb 90 38 5c be 4a 81 00 3e 32 98 b6 bd
       -0.0028219433 -0.21505952 0.1254932 -0.08915748
0000d0 d0 b6 b2 3c a0 15 e3 3d 88 38 80 3e 2c fa d4 bb
       0.021815687 0.11088109 0.2504313 -0.0064995494
0000e0 ec 00 07 be be 3a 74 3e 5c ea 52 3e 71 76 1d bc
       -0.13183945 0.23850533 0.20597214 -0.009610758
0000f0 13 56 ec bd 30 52 61 be 0b d5 84 bd 86 75 a3 3c
       -0.11539855 -0.22004008 -0.06485947 0.0199535
000100 1e fb ca bd db d1 cf bd e9 ef 5d be dc 6e f4 bd
       -0.09911178 -0.10147449 -0.2167355 -0.11935207
000110 47 0d d5 3d 83 89 64 be c7 82 32 3e df 68 08 be
       0.10402923 -0.22318082 0.174327 -0.13321255
000120 ae 0d b8 bd d6 31 89 bc 32 94 76 3d b7 de 2f be
       -0.08986984 -0.016747396 0.060199924 -0.17174803
000130 be 76 20 bb 17 63 53 3e 1d a7 d6 3d 7f 5d 9b bc
       -0.0024484838 0.20643269 0.10481093 -0.01896548
000140 0e 88 a3 be 72 b4 75 3d 76 81 08 be 2f ef 81 be
       -0.3193974 0.05998654 -0.13330635 -0.25377795
000150 51 85 99 3c e7 5f cc 3d 64 4f d6 3d 32 ea 0c 3e
       0.018740328 0.099792294 0.10464361 0.13761213
000160 6a cc 23 be cb 80 44 3d 61 85 5b 3d fc bf e6 bd
       -0.15995947 0.04797439 0.053593997 -0.11267087
000170 d3 46 c9 3d dc bf 5a 3e 7e 07 e9 3d b1 9a a7 be
       0.09827962 0.21362251 0.11378382 -0.32735208
000180 c1 e4 52 3a 54 3c dc bd f0 6d 41 be 37 bf 98 bd
       0.0008044951 -0.10753694 -0.18889594 -0.07458346
000190 79 06 86 3d 04 5f 3a bd 28 ca 25 be 0e 31 5d be
       0.06544203 -0.04550077 -0.16190398 -0.21600744
0001a0 fe 17 7e be 7b 59 8c be ea 90 f1 3a b5 26 fa bd
       -0.2481384 -0.27412018 0.0018430029 -0.12214414
0001b0 9f 91 b5 3d ba 1d b8 be 4f db c8 3d 53 8d bb bd
       0.08865666 -0.3596018 0.09807455 -0.09157815
0001c0 2e bc 7f bd a3 09 8e 3e 4e 8e 38 3e 4f 10 56 be
       -0.06243532 0.27741727 0.18023035 -0.20904659
0001d0 91 73 59 3e 32 37 9e bd 1c bf 6c 3d fb 7d 94 3d
       0.21235491 -0.077253714 0.057799444 0.07250591
0001e0 6a d5 24 be e3 5e ea bb 54 6f d2 3d 22 7f 86 be
       -0.16097036 -0.0071524247 0.102751404 -0.2626887
0001f0 82 07 64 be 5c c6 3e be 9a 66 fa bc a8 4d 31 3e
       -0.22268489 -0.18630356 -0.030566502 0.1731478
000200 95 76 aa bd a0 91 03 be f0 d4 47 bd 14 ab 1b 3e
       -0.08323399 -0.1284852 -0.048787057 0.1520198
000210 d9 29 de be 5b e7 4e be 90 91 39 be 45 0c 5c be
       -0.43391302 -0.20205443 -0.18121934 -0.21489055
000220 26 b1 e8 bd ab 96 15 3d 8e 37 68 bd 86 97 fd bc
       -0.113619134 0.03652064 -0.056693606 -0.030956041
000230 81 d2 a2 bd 67 ce 6d 3e 79 cf 06 be 9a aa 37 be
       -0.07950307 0.23223267 -0.13165082 -0.17936173
000240 3a be be 3d 00 38 9f 3c c6 60 00 3e f1 b0 b9 bd
       0.093136266 0.019435883 0.12536916 -0.09066952
000250 2b c7 97 bd 16 43 5a bd 6c d0 1f bd f3 1d 4d be
       -0.07411035 -0.053286634 -0.039017126 -0.20030956
000260 4e 4c b1 3c f2 58 39 3d c4 24 0e 3e d3 0d 5d be
       0.02164283 0.04525084 0.13881212 -0.21587305
000270 c6 1a 8e bc a7 41 4a be 5e b5 8c bd 52 58 0d bc
       -0.017346751 -0.19751607 -0.068705305 -0.008627014
000280 d3 2c 7e be fb ba 76 bd be 7f a6 bd 19 3c 98 be
       -0.24821787 -0.060236912 -0.08129834 -0.2973335
000290 ea 9f a0 bd ab bc cd 3c 11 92 2d be bc 38 2b be
       -0.07843001 0.025114378 -0.16950251 -0.16720861
0002a0 d9 1a ef bc 52 c2 d6 3d e7 0b 6f bd 9c 0d 0b be
       -0.029187607 0.104862824 -0.05836096 -0.1357941
0002b0 54 a9 1b be 99 56 75 bd 7f 3a 27 be b1 82 37 be
       -0.15201312 -0.05989704 -0.16330908 -0.17920949
0002c0 88 f4 7b be ae 88 b8 bd 33 b1 4a be cd 92 ff bd
       -0.24605 -0.090104446 -0.19794159 -0.12479172
0002d0 93 bd fd bc bf 4f 67 bc 16 5a 42 3d ef b0 9b bb
       -0.030974185 -0.014118134 0.047449194 -0.0047513167
0002e0 1f 6c f4 bb f0 84 f8 bd a9 68 1f 3e 01 ef e1 bd
       -0.007459178 -0.12134731 0.15567268 -0.110319145
0002f0 83 f7 51 be 48 6e 0d 3e a1 df c8 bd 09 89 d2 bd
       -0.20504574 0.138116 -0.09808279 -0.10280044
000300 fc ce 08 3e 78 66 0a 3d df 3b 0f be 9a cf 41 bd
       0.13360208 0.033789128 -0.13987683 -0.047317125
000310 cd 3e fd bd 6b 4e 85 be 69 93 76 bc 9b b3 9c be
       -0.12365494 -0.2603639 -0.015049794 -0.30605778
000320 1e a9 76 3d 5d a6 f7 3c 49 30 56 3e 1b 3d 0d 3e
       0.060219876 0.030230695 0.20916857 0.13792841
000330 3f 9c 15 be 1e 00 01 be 11 86 13 be 21 22 bd 3c
       -0.14610384 -0.12597701 -0.14406611 0.023087563
000340 3c 0e e3 3d 37 d4 12 ba f0 01 4f be ee 01 56 3e
       0.11086699 -0.00056010805 -0.20215583 0.20899174
000350 ea 9a 76 be 63 38 c1 3d 15 67 87 bd 9a 65 5d be
       -0.24082533 0.09434583 -0.06611458 -0.21620789
000360 72 6e a5 bc 6b 3d 1f be a9 39 db bd 91 cc 8b bc
       -0.020194266 -0.15550773 -0.10704357 -0.017065318
000370 0c 1c 40 be 35 bc 27 be e0 73 69 3e a8 2d 83 be
       -0.18760699 -0.16380389 0.22798109 -0.2562077
000380 ed c7 14 be 84 46 f7 bc 04 31 79 3d dd c7 e4 3d
       -0.1452939 -0.030184992 0.06083776 0.111709334
000390 7d c2 15 3e 08 a5 f5 bd f8 bf b6 3c 10 ed 3d be
       0.14624973 -0.11994368 0.022308335 -0.18547463
0003a0 1c c3 2e 3c 4f c8 89 3e 8a 3c 85 bd 64 02 e0 bd
       0.010666635 0.26910636 -0.065056875 -0.10937956
0003b0 de c5 ae bd eb 36 47 be e6 75 3e be 51 2c b8 bd
       -0.08533834 -0.19454543 -0.18599662 -0.08992828
0003c0 cc 37 10 be e8 c7 83 3d ba 92 2f be ec 58 96 bd
       -0.14083785 0.064346135 -0.17145815 -0.07341179
0003d0 57 7c 91 be 2f 05 00 bd 9e 3e b3 3d 3d cb 07 bc
       -0.28415176 -0.031254943 0.08752178 -0.008288202
0003e0 a6 ff 06 3e 60 73 69 be 03 7a 2e be 2e 54 cc bc
       0.1318346 -0.22797918 -0.17038731 -0.024942484
0003f0 21 cd f6 be 8e 28 88 3d 14 d8 b4 3d c1 a6 8e bd
       -0.48203376 0.0664836 0.08830276 -0.069653995

fc2.weight f4 [300, 400]
000000 27 c0 18 be f8 d2 9c 3c 44 55 b6 be 6b 8c 00 3e
       -0.1491705 0.019143566 -0.35611928 0.12553565
000010 4f 96 b4 bd 5d b4 05 3e b8 a5 c4 be d0 2a 07 3e
       -0.088177316 0.13057084 -0.38407683 0.13199925
000020 f2 43 dd be 33 48 16 bd 84 83 0b 3d 74 ec 3f be
       -0.432159 -0.03668995 0.03406097 -0.18742543
000030 6e 21 3d be b9 93 3b 3c da 71 31 be a3 ac aa bc
       -0.18469784 0.011448794 -0.17328587 -0.020834273
000040 c9 6d 9e be bc 21 0e bd 78 b6 09 3d 11 e6 ad bd
       -0.30943134 -0.03470014 0.03362128 -0.08491147
000050 c0 f5 5e be 30 00 21 be a1 ad 00 3e 5a fe 9d bd
       -0.21773434 -0.15722728 0.12566234 -0.07714529
000060 7c 23 ba 3c 01 92 2b bf 6f f2 a2 be fd a2 20 3e
       0.022721998 -0.6701966 -0.31825587 0.15687175
000070 e0 be 1f be 48 72 86 3e a3 00 14 3e 1e 16 23 3e
       -0.15600157 0.26259065 0.14453368 0.15926406
000080 54 51 a6 bc b3 48 5f 3e 55 db 6a bc b6 49 f4 bb
       -0.020302452 0.21805076 -0.014334519 -0.007455076
000090 c0 68 f6 3d 25 4e 71 3e 2f 67 36 be a2 9e 66 3e
       0.12031698 0.23564966 -0.17812799 0.22521451
0000a0 05 5b a5 be 88 a3 e7 bd 2a 8c 63 3d 1c 18 df 3d
       -0.32296005 -0.11310488 0.055553593 0.108932704
0000b0 f8 b3 a7 be 5b 15 4a 3d 03 bb fc bd 8a ea c8 be
       -0.32754493 0.049336772 -0.12340357 -0.3924144
0000c0 69 5e b1 3d 78 96 2b 3d 0d 64 82 3e ac 0c d1 3d
       0.086605854 0.041891545 0.25466958 0.10207495
0000d0 15 c5 03 3e ac 6b 97 be 6d 77 2a 3d bb 7a 22 be
       0.1286815 -0.29574335 0.0416178 -0.1586713
0000e0 c7 00 37 be aa 2d 88 3d ce 6e 97 3d 0b 9b d3 bd
       -0.1787139 0.06649335 0.07394181 -0.103323065
0000f0 c5 f0 7a bc 9c 32 d0 be 50 ec 63 be f9 fe 4e 3e
       -0.015316193 -0.40663612 -0.22258115 0.20214452
000100 40 ec d3 bd c4 a4 a3 3d 11 6b 19 bf e8 da 63 3e
       -0.103477955 0.07990411 -0.59928995 0.22251475
000110 45 24 0a be c7 33 88 3c 4e 72 1d bc 66 5b 0f be
       -0.13490398 0.016626252 -0.009609772 -0.1399971
000120 f1 11 c7 3d 2e a9 a2 be f5 3c 07 3e 02 49 2c 3d
       0.09720219 -0.317697 0.13206847 0.042061813
000130 94 95 32 be 6e 61 f1 bd 46 23 51 3e 30 b2 a1 bc
       -0.17439872 -0.11786161 0.20423612 -0.019738287
000140 6b ea 9a bd 49 b5 e7 3d e6 1e c6 3b 00 39 97 be
       -0.07564243 0.11313874 0.006046164 -0.29535675
000150 6c ef a2 be 07 b3 61 3e 37 d5 0b bd 6e 8a 93 be
       -0.3182329 0.2204095 -0.034138884 -0.2881655
000160 bd 4b 11 be d8 11 64 be 59 87 8e bd 0a 07 d6 3c
       -0.14189048 -0.22272432 -0.06959409 0.026126403
000170 99 95 ba 3d 49 55 0a be d2 98 87 3e d2 50 77 3e
       0.09110565 -0.13509096 0.2648378 0.24151924
000180 5a 3e cf be 5c 2e 53 3c 38 14 87 be bc 1a 78 3e
       -0.40477258 0.012889471 -0.26382613 0.24228948
000190 f1 66 03 be 7e fc 35 bf dd 18 9a be f6 bf be 3d
       -0.12832238 -0.710884 -0.30097094 0.093139574
0001a0 d6 b3 10 be 3f e6 fa bd e3 c4 88 3d 39 9c 95 be
       -0.14131102 -0.12250947 0.06678178 -0.2922075
0001b0 cd 2a b1 3d 99 48 de bc c2 76 8e 3d d7 4a 44 bc
       0.08650742 -0.027134227 0.06956245 -0.011980734
0001c0 73 79 06 3e b2 2c 62 be 89 d7 ba 3d ff 27 45 3d
       0.13132267 -0.22087362 0.09123141 0.048133846
0001d0 b7 c8 15 3e 59 a1 5c bd 46 98 81 be da 56 09 be
       0.14627348 -0.05386481 -0.25311488 -0.13412037
0001e0 07 d4 15 3e dc ce 81 3e 36 3e f5 3d d5 54 78 3e
       0.14631663 0.25353134 0.119747564 0.24251111
0001f0 df 20 0f 3e 25 32 c7 3c 4f 99 75 be 0f c7 96 3e
       0.13977383 0.024315903 -0.23984264 0.29448745
000200 79 a0 3e bc c8 8e 81 3e 89 d8 fc bc 38 ed 42 3e
       -0.011634939 0.25304246 -0.03086497 0.19035804
000210 a4 bc d9 3d 19 5b 3a be 56 78 06 be a3 80 fc bd
       0.106316835 -0.18198813 -0.13131842 -0.12329223
000220 db 1c d5 be dc 54 30 be 46 1f b7 bd 29 b0 2e be
       -0.41623577 -0.17219871 -0.08941512 -0.17059387
000230 29 10 fb 3d ad 31 6a 3e 7c fe 5f be 5b 77 dc bd
       0.12258942 0.22870512 -0.21874422 -0.10764953
000240 cb da 1d 3e 0e 8c 3b be cb a6 16 bf 63 2a c8 bd
       0.15415494 -0.18315145 -0.58848256 -0.097737096
000250 5c 81 07 be c9 a6 80 be 13 27 c9 3d 5d 7e b4 3e
       -0.1323294 -0.25127247 0.09821906 0.35252658
000260 63 de c0 bd 87 e6 17 be 4d 42 91 3c f3 b0 16 be
       -0.09417417 -0.14834033 0.01773181 -0.14715938
000270 fb ac 28 3d d4 87 4b 3c f4 26 6c 3e e7 54 a6 3d
       0.041180592 0.012422521 0.23061734 0.081216626
000280 1d 47 27 3c e7 11 17 3e c5 cf b7 be 3c 1b e5 bc
       0.010209826 0.14752923 -0.35900703 -0.027967088
000290 74 4f 9f bc 7e 09 99 bd 6a 74 ba bd b6 f5 23 3e
       -0.019447066 -0.074725136 -0.091042355 0.160117
0002a0 e3 93 c6 3c db 5c 13 be a2 b1 a7 be 46 cb cd 3b
       0.02424044 -0.1439089 -0.3275271 0.0062803356
0002b0 5e 97 1f 3e 1f 2d 7c be 61 f8 5f bd b8 2f 3d be
       0.15585086 -0.24626587 -0.054680232 -0.18475235
0002c0 b8 d7 9f bd 02 50 90 be 89 01 1a bf 5d de 9f 3c
       -0.07804817 -0.2818604 -0.6015859 0.01951521
0002d0 3a 80 61 be 85 1c e1 3d 3f e6 07 3d 88 9f 06 be
       -0.22021571 0.10991768 0.033178564 -0.13146794
0002e0 9d 9a b8 bd 0b ec 77 be e2 3b 99 bd ed 89 33 3e
       -0.09013865 -0.24211137 -0.07482125 0.17533083
0002f0 1e d1 70 3e da b4 81 bd fd 0a f2 3c 07 99 2d be
       0.23517272 -0.06333323 0.029546255 -0.16952907
000300 a4 d8 9d be 33 c7 1d be 28 46 81 be b1 2e a3 bc
       -0.30829346 -0.1540802 -0.25248837 -0.019919725
000310 05 2c c3 be 69 f0 f7 be 99 01 21 3d 63 05 3a bc
       -0.38119522 -0.48425606 0.039308164 -0.011353823
000320 c1 aa 31 3d 77 d8 9f 39 30 5b 7d 3d 74 5a 24 3e
       0.043375734 0.00030488122 0.06185454 0.1605013
000330 cb bc 42 be 2c 35 55 be 8a 40 0c 3e f6 9c 8a 3d
       -0.19017331 -0.20821065 0.13696495 0.06768219
000340 31 95 e8 bd d6 81 e8 bd 67 c2 04 be c6 fe f8 3b
       -0.11356581 -0.11352889 -0.12964784 0.0075987307
000350 eb 2b 03 bf 61 1d 25 be d8 3b 6a 3d 4d 0d 42 3e
       -0.5123889 -0.16124488 0.057185978 0.18950386
000360 e3 d1 45 3d ca 5e 41 bd d8 81 32 be 17 59 f0 bc
       0.048295867 -0.04720954 -0.17432344 -0.029339356
000370 6c 9a df bd 96 a8 02 bf 79 cd 7b bb c8 b8 24 3e
       -0.109181255 -0.5103849 -0.0038422032 0.16086113
000380 22 f7 c0 3d 7a c2 2c bf 2c c7 a3 be b9 94 bb be
       0.09422137 -0.6748425 -0.31987894 -0.36636904
000390 6f 54 a9 be e6 ee ec bd 75 60 2c 3e f4 95 34 3e
       -0.3307223 -0.11569004 0.1683367 0.17635328
0003a0 5e 5e 85 3d 76 e3 89 3e 16 8f 8a be a7 c9 b8 be
       0.0651214 0.2693135 -0.2706229 -0.3609135
0003b0 34 d0 54 3d f0 fb 7b be 35 67 de 3c c8 7e 82 3d
       0.05195637 -0.24607825 0.027148822 0.06371838
0003c0 13 9b 2b bd 7c 10 89 3e 9f 3f 8e be 30 13 9e 3e
       -0.041895937 0.2677039 -0.27782914 0.30874014
0003d0 b0 e2 3c bd 7b 9a 25 3e dd 56 5b bd 59 20 41 be
       -0.046114624 0.16172211 -0.053549636 -0.18859996
0003e0 00 0c b1 bd 83 53 91 bd 77 07 68 3a a2 86 10 3e
       -0.08644867 -0.07096007 0.000885121 0.14113858
0003f0 9f 43 4c be 72 a8 b5 3d 75 27 11 bd 9b 9c 15 3c
       -0.1994767 0.08870019 -0.03543802 0.009131576

fc2.bias f4 [300]
000000 2a 94 b8 3d d8 c0 00 bd e4 ed 27 bd 33 4a 76 3d
       0.09012635 -0.03143391 -0.040998355 0.060129356
000010 15 7c b6 bd f2 ab a7 3d 35 64 6a 3c c2 f3 68 bd
       -0.089103855 0.08187093 0.014306118 -0.05687309
000020 3b 54 e8 bc 31 a2 21 bd 6c 50 b8 bd 6a 50 3b 3c
       -0.028360477 -0.03946132 -0.08999714 0.011432746
000030 cf 8b 9c bd ac 0d 80 3d a4 5c 3a bd fc fb 91 bd
       -0.07643854 0.06252608 -0.045498505 -0.0712814
000040 cf 97 38 be dd a5 ea 3b 65 4b df bb 8b c8 db bd
       -0.1802666 0.0071608857 -0.0068144077 -0.1073161
000050 e1 da 5d bd a6 e6 ae bc dc 86 f5 bc a0 1f 74 3d
       -0.054163817 -0.021350216 -0.029971533 0.059600472
000060 3f 7a e9 bc b1 4b d7 bd e8 ba 1a 3c 96 e9 36 3d
       -0.028500674 -0.10512484 0.009443976 0.04465636
000070 9b 14 0d 3d 4b 74 85 be e3 81 52 3d 65 f4 b8 bc
       0.03444348 -0.26065287 0.0513934 -0.022577474
000080 57 e0 bd bb 19 22 a9 bd ac 8d 72 bc 5c 6e 05 bd
       -0.0057945657 -0.08258457 -0.014804285 -0.03257595
000090 16 f4 0b be 99 26 be bc 65 dd 75 3c b4 37 02 3e
       -0.1366733 -0.023211764 0.015006398 0.12716562
0000a0 ad 9b 15 3d f0 8f c6 3d 8e ac c1 ba ef 8e d9 bd
       0.036525417 0.09695423 -0.0014776157 -0.106229655
0000b0 90 73 04 3e f9 de 61 bc 23 bb 19 bd c1 0e 20 bc
       0.12934709 -0.013786071 -0.037531983 -0.009769143
0000c0 27 56 f6 3b 82 b2 fb 3c 8d 0e 85 bd 3b b2 ec 3d
       0.0075175944 0.030724768 -0.06496916 0.11557432
0000d0 f6 51 36 3d 46 a7 a1 3d 94 82 40 3d a4 7e 54 3c
       0.044511758 0.07893233 0.04699953 0.012969647
0000e0 64 ba c4 3d 19 05 08 be 5d 23 d5 bd c3 ee 6e be
       0.09605864 -0.13283195 -0.10407136 -0.23333268
0000f0 94 70 3e be 26 22 c9 3d ec c9 5d bd 59 74 c9 ba
       -0.18597633 0.098209664 -0.054147646 -0.0015369757
000100 f8 48 ac 3d 3c 60 5d bd 74 fb 99 3d 08 01 00 be
       0.08412355 -0.054046854 0.07518664 -0.12500393
000110 15 6f 36 3d 53 32 90 bc f7 6d 82 3d 45 83 06 3d
       0.04453953 -0.017602121 0.063686304 0.032840032
000120 ca c8 5e 3d 02 3f 83 bc 89 e6 9f 3d ee 70 0d 3e
       0.054390706 -0.016021255 0.07807643 0.1381261
000130 00 60 46 3d 97 b2 c0 bd 6c fc 80 bd 4d 50 0a bc
       0.048431396 -0.09409063 -0.06298146 -0.008441997
000140 62 e6 e5 3d 91 72 6a be 6d 90 a6 3c 92 97 18 3e
       0.11225583 -0.22895266 0.02033254 0.1490157
000150 e6 0c 0d be 5f 02 64 3c cb 15 fd bc 5d 13 09 3d
       -0.13774452 0.013916581 -0.03089418 0.033465732
000160 df 74 b5 bd 7e 65 f4 bc 1b d1 f5 3c 94 82 38 3d
       -0.08860182 -0.029833551 0.030006936 0.045046404
000170 0c 56 0f 3b b2 1c 15 bd 34 3b 10 3d 00 24 3e bd
       0.0021871356 -0.03640432 0.03521271 -0.04642105
000180 46 2b 6f 3d 04 17 56 be 87 c2 98 3d 83 50 85 bd
       0.05839088 -0.20907217 0.07458978 -0.06509497
000190 c0 2b 45 3c 79 88 9a 3a eb 45 91 bd 69 98 11 bd
       0.012034357 0.001178994 -0.07093414 -0.03554574
0001a0 4f d6 6e bd 1a ed 5d 3d 1c 01 8b 3c 44 7c 00 3e
       -0.05830985 0.054181196 0.016968302 0.12547404
0001b0 b6 14 cc 3b c7 ad 2e be 61 f0 8b 3c fd 32 bf 3d
       0.006228055 -0.17058478 0.017082395 0.09335897
0001c0 90 e9 63 3c 8b a7 ad be 87 bf 26 bc 47 4c 92 bd
       0.013910666 -0.33916888 -0.0101775 -0.07143455
0001d0 32 e4 b7 be 35 2a 05 3d f6 30 2b bd e6 82 ea 3c
       -0.35916287 0.032510955 -0.04179474 0.02862687
0001e0 2e 0c d4 ba 7f c0 aa 3c fe 9c 83 3d 0b 8a e0 bb
       -0.0016177946 0.020843742 0.06426428 -0.0068523935
0001f0 1a e0 08 3c 5b ae 7d be 97 b7 5a bd 6a 0e 09 3d
       0.008354211 -0.24773543 -0.05339774 0.033461012
000200 07 2d 9f 3c d0 55 b1 3d 7e 5f ab bd 36 11 45 be
       0.01943065 0.086589456 -0.08367823 -0.19244847
000210 22 99 d5 bd a7 36 47 3d 72 95 41 3e 74 b9 29 3d
       -0.104295984 0.048636105 0.18904665 0.041436628
000220 d9 6c 35 3e 23 d1 60 be 6d 24 d3 3d e6 50 76 3c
       0.17717303 -0.2195478 0.10309682 0.015033936
000230 4d ab 1a be 4c db f2 3c 94 e1 cc bd a7 35 ac bc
       -0.15104409 0.029645585 -0.10003963 -0.021021677
000240 82 39 8f bd e2 86 93 bd 2b 86 89 bd 88 cb 18 3d
       -0.069933906 -0.07203461 -0.06715044 0.037303478
000250 f6 62 67 bd 14 7a 54 bd 7e 9a 44 3d 05 b1 1c bc
       -0.05649086 -0.051874235 0.047998898 -0.009563689
000260 97 45 82 bd 64 ad 2b bb ff ce b4 3c d1 a1 54 3d
       -0.063609295 -0.0026195878 0.02207136 0.051912133
000270 08 0e 52 be b4 ae b3 3c 16 14 2e be 86 a1 2c bd
       -0.20513165 0.02193389 -0.1699985 -0.04214623
000280 24 73 44 bd 91 90 0c bd a3 06 30 3d c7 f3 af 3d
       -0.04796137 -0.034317557 0.04297508 0.08591419
000290 21 06 40 be f3 d6 a2 bd d4 72 b5 3c 90 23 e2 bd
       -0.18752338 -0.079511546 0.02214948 -0.11041939
0002a0 67 d4 cd bd 18 4b 2d be 1b 39 28 bd ae db 23 be
       -0.10050278 -0.16923177 -0.041070085 -0.1600177
0002b0 9d 62 8e bc ca b4 52 bd a7 c7 de 3d 70 5a f8 bc
       -0.017381007 -0.051441945 0.108779244 -0.030316561
0002c0 30 76 a3 bd 15 7a bf 3d 48 aa 44 3c 55 d9 71 bd
       -0.07981527 0.09349457 0.012003489 -0.059045155
0002d0 19 89 c6 3c 4c 57 e6 bc ea bf 71 be 0a d9 9a 3d
       0.024235295 -0.028117798 -0.23608366 0.07560928
0002e0 b1 65 8d bd 97 91 4b 3d 27 b6 4c be a7 83 82 be
       -0.06904162 0.049699392 -0.1999136 -0.25491068
0002f0 32 04 9d be 1b 14 49 bd bd 9c 79 3c d1 1c e7 bc
       -0.30667263 -0.04909144 0.015235123 -0.028211983
000300 90 fe 54 3d 2d d7 ac 3d 7f d4 df bc 57 23 64 3d
       0.052000582 0.08439479 -0.027323006 0.055697765
000310 5f 51 ce 3c 1d 52 51 3d 5e 8f a7 3d 0c ac 83 bc
       0.025185285 0.0511037 0.08181642 -0.01607325
000320 1d b5 90 3d 36 ca a9 3d 72 f6 58 bc 49 0c 1d 3d
       0.070657946 0.08290522 -0.013242351 0.038341794
000330 c1 ea 8f 3d f2 fa de bd 8a cc 71 3d 45 f2 2c 3c
       0.07027198 -0.10887708 0.059032954 0.010555808
000340 af 6c c9 bd fb b0 c4 bd 8b dc d2 3c 4f 60 ad 3d
       -0.09835183 -0.09604069 0.025739929 0.08465635
000350 8d e4 81 3b d7 0c 21 bd 32 1d d0 3a ef 26 36 bd
       0.003964013 -0.039318886 0.0015877842 -0.044470724
000360 1c 71 52 3d a0 01 b0 bd c3 03 af 3d ca 44 3d 3d
       0.0513774 -0.0859406 0.08545639 0.04620818
000370 4b db 01 3d 8a e1 ce 3d 5a 82 06 bd 05 54 84 3c
       0.031703275 0.10101612 -0.032839157 0.016153345
000380 d1 5d 19 be a1 90 12 3d 55 2e 29 be ec 33 7e 3c
       -0.14977194 0.03578246 -0.1652158 0.015515309
000390 73 17 1a be fa 75 19 3d ee 2b d7 bc 9c 2d 82 be
       -0.15048008 0.037466027 -0.026266064 -0.25425422
0003a0 00 ac 52 3d 51 fa ee 3d 47 8a f4 3c f6 3c 61 3d
       0.051433563 0.11668838 0.029851092 0.054989778
0003b0 84 c3 25 bd 32 14 7f ba 21 07 0b bd 1e bd b0 3d
       -0.04046966 -0.00097304874 -0.033942346 0.08629821
0003c0 eb bb a3 3d 87 d4 82 3c b0 64 23 3d 3b e6 c1 3c
       0.07994827 0.015970482 0.039890945 0.023669353
0003d0 29 85 af 3a 3e a1 27 3d 20 49 e4 bb e7 92 c3 3d
       0.0013391125 0.040925257 -0.006966725 0.09549504
0003e0 55 88 5d bc 41 ad 92 3d fb 68 e7 3d 3b 00 05 3d
       -0.013521274 0.07161952 0.1129932 0.032470923
0003f0 53 5e cd 3c 4c c4 da bc b9 04 37 3d 9f 34 19 3d
       0.025069391 -0.02670493 0.04468224 0.0374037

fc3.weight f4 [4, 300]
000000 e7 b9 bd be de b3 2f be ae ea be 3d 49 44 15 3e
       -0.37055895 -0.17158458 0.09322105 0.1457683
000010 57 93 81 3c b7 86 1e bf 6f 6b 58 be 05 2c 0c 3f
       0.015817327 -0.6192431 -0.21134733 0.5475467
000020 7d 80 39 bf e7 2b bb 3e 70 1e 58 be 6c e7 3c bf
       -0.7246168 0.36556932 -0.21105361 -0.7379062
000030 2f 10 24 bf 50 18 04 bd 51 ff d1 3e 1b c2 68 3d
       -0.64087194 -0.03224975 0.41015103 0.05682574
000040 d1 65 2a 3e 66 41 09 bf e0 59 5f 3e ab c8 09 bf
       0.16640402 -0.53615415 0.21811628 -0.5382182
000050 73 f3 f5 be f9 c8 06 3d aa 9a 69 be 53 6a b1 3e
       -0.480373 0.032906506 -0.22812906 0.3465143
000060 3d a3 bc bd d1 f1 54 bf a7 8c bf be 65 61 86 be
       -0.09210823 -0.8318148 -0.37411997 -0.2624618
000070 8d 4e b5 be 60 2d 23 be 5a 6d 11 be 56 7a 36 3e
       -0.35411492 -0.15935278 -0.1420187 0.17820105
000080 4a 5d d2 3d 26 e1 88 3e 94 d4 a1 bd fa 19 80 3e
       0.102717 0.26734275 -0.07901874 0.2501982
000090 53 c0 9f 3e 04 4c 95 bd 1c d4 22 bf 64 a7 a3 bc
       0.3120142 -0.072898895 -0.63604903 -0.019977279
0000a0 48 9f 4a bf eb 8c 18 bf 95 4e 9d 3e 65 84 56 bf
       -0.79149294 -0.59590024 0.30724016 -0.8379577
0000b0 dc 8a ea 3e b2 35 02 3e c5 a7 f8 be ae 28 09 bf
       0.45809066 0.12715796 -0.48565498 -0.535777
0000c0 43 0e fd 3c e5 4d b4 3e 8e dc 90 3e 00 63 8e be
       0.03089059 0.3521568 0.2829327 -0.27809906
0000d0 b1 6b 55 3e b4 fe a8 3e 0b 84 45 bf c8 70 26 be
       0.20841862 0.33006823 -0.77154607 -0.1625396
0000e0 4f 01 e2 be b6 35 73 bd 39 a7 ad be 7f 70 ae bc
       -0.44141623 -0.059377395 -0.33916643 -0.021293877
0000f0 25 5e 6f 3d 91 f8 c4 be 92 fa 60 bf cf e5 ed 3e
       0.058439393 -0.3847089 -0.8788234 0.46464393
000100 7f a3 20 3e 7a 46 48 3e 95 0c 54 3c 26 51 e6 3e
       0.15687369 0.19558135 0.012942453 0.44983786
000110 99 21 d8 3d df 80 79 3e 2f 8e e2 be 50 d0 94 bd
       0.10553283 0.24365567 -0.44249102 -0.07266295
000120 f4 ed 9c bd c5 b0 07 3e 2b d1 03 bf 87 7e 23 bf
       -0.076625735 0.13251026 -0.5149104 -0.6386494
000130 e5 8a 7a 3e b9 c9 37 be 29 ed 83 be f4 de 3e 3f
       0.24467047 -0.17948045 -0.25766876 0.7455895
000140 d3 78 81 3e de ba 14 bf c8 76 c6 bd 2d 3d 8e be
       0.25287494 -0.58097637 -0.096906245 -0.27781048
000150 2a 06 26 bc e7 ee ba be 8e 40 d2 be 7b c6 d4 be
       -0.010133306 -0.36510393 -0.41064876 -0.4155768
000160 ee 00 7c be 7a 31 3e be cf ec 84 bd f4 f6 c8 be
       -0.2460973 -0.18573561 -0.0649048 -0.3925091
000170 64 e5 56 3e 70 ed b0 be 5e 6f 15 3f c0 45 6a be
       0.20985943 -0.3455615 0.5837306 -0.2287817
000180 ef 43 41 be 67 20 99 3e 71 4e 1e 3e 0f af ad bd
       -0.18873571 0.29907534 0.1545961 -0.084806554
000190 4d fa 6d 3d bc b8 2e be 30 a2 28 3f 3c 66 17 bd
       0.058100034 -0.17062658 0.6587248 -0.036962733
0001a0 6d cc 83 3e e2 1a 73 be 51 a5 0d 3f c7 34 09 3f
       0.25741902 -0.23740724 0.5533038 0.53596157
0001b0 6f 25 37 bf 0b c7 c7 3e c8 81 9c 3d 05 1f 82 be
       -0.71541494 0.39019045 0.07641941 -0.2541429
0001c0 26 6d fa be d1 ec 94 bf 3f c8 d6 be 9e a9 17 be
       -0.489114 -1.1634771 -0.4194965 -0.14810798
0001d0 8b 3e 52 bc 89 9b de 3e 77 54 fa 3e a9 66 f3 be
       -0.012832294 0.4347804 0.48892567 -0.4753926
0001e0 36 e4 20 3f 79 82 89 be 33 25 23 be 2a 84 df bd
       0.6284822 -0.26857355 -0.15932159 -0.1091388
0001f0 e1 33 6f be 50 7c 74 3e 91 67 b8 3c 7e 4a 0d 3d
       -0.23359634 0.23875546 0.022510322 0.03449487
000200 db 06 92 be 8d c1 25 3c a3 75 cc 3e f4 4b a4 3e
       -0.28520855 0.010116947 0.399335 0.32089198
000210 48 84 92 bd 54 bf cc be 5b 65 67 3e d9 f9 d5 3e
       -0.07154137 -0.39989722 0.22597258 0.4179218
000220 4c a2 06 3e da a2 dd be d2 1b e8 3d 96 60 e4 3d
       0.13147849 -0.43288308 0.11333431 0.11151235
000230 d7 b8 dd 3e fd bf 50 3e 17 ed 13 bf 78 e0 51 3e
       0.43305084 0.20385738 -0.57783645 0.20495784
000240 16 3e dc 3c 53 21 0c bf ac ed f4 3d 16 bd b4 bd
       0.026885074 -0.5473835 0.11959395 -0.08825128
000250 a3 2c 39 bf 09 bd e3 bd fa 95 bf bd d5 3c 45 bf
       -0.72333735 -0.1112004 -0.09354778 -0.7704595
000260 ec ab e8 be d2 4d 6f 3e 3e 1f 82 be 0a 80 df be
       -0.45443666 0.2336953 -0.2541446 -0.43652374
000270 98 7d 6c bf 25 ad 36 be 27 1b 41 3e 85 cf c5 be
       -0.9237914 -0.17839487 0.18858014 -0.38634887
000280 7f a5 00 be 11 9b 03 bf 03 ff 96 be 7b ae 1f 3e
       -0.12563132 -0.5140849 -0.29491434 0.15593903
000290 01 60 fb 3d de 52 77 be b5 3d 3d be 6d 1d b6 3e
       0.12274171 -0.24152705 -0.1848057 0.35569325
0002a0 62 f9 88 be 0f dd 3b bf 5c 64 09 bf 64 46 01 bf
       -0.26752764 -0.73384184 -0.5366876 -0.5049803
0002b0 d3 8d 38 bf 16 24 87 be d6 50 4b bf b5 37 47 bf
       -0.72091407 -0.2639472 -0.7942022 -0.7781938
0002c0 7a d0 aa be 2e 84 a9 3d 86 da c2 be f8 2b fb bd
       -0.3336218 0.082771644 -0.38057345 -0.12264246
0002d0 78 0d f0 bd 8d c3 d2 3e c6 7b 05 bf c8 76 7c 3e
       -0.11721319 0.41164818 -0.5214199 0.24654686
0002e0 2a a4 c0 be 73 47 61 be 0e ac 4f be 9d 28 9c 3d
       -0.37625247 -0.21999912 -0.20280477 0.07624934
0002f0 d1 0f 1b bf 57 82 ed bd de f7 95 bd b7 7b 2b 3e
       -0.6057101 -0.11597126 -0.073226675 0.16746412
000300 91 a1 1e bf 22 0b ed 3d ab 80 e6 3e b3 8c 08 3e
       -0.6196528 0.11574389 0.4502004 0.13334922
000310 41 08 ca bd 69 84 e7 3d 47 90 87 3b 8f 99 a1 be
       -0.098648556 0.11304552 0.0041370722 -0.31562468
000320 ea 3b 19 bf 4a a6 48 3e 5a 0a 2d 3e 7c 59 7f 3d
       -0.59857047 0.19594684 0.1689848 0.0623412
000330 38 44 34 be 66 94 81 be bd 50 b1 3e 9c 8a 45 be
       -0.17604148 -0.25308532 0.3463191 -0.19291157
000340 33 a5 07 bf 7e 2a ba be 69 f8 29 be 40 9b 6a bd
       -0.5298645 -0.36360544 -0.16598667 -0.057276964
000350 37 c4 04 3e 37 b9 d2 3e de 66 e7 3e 3a d1 c0 be
       0.12965475 0.41156933 0.4519567 -0.37659627
000360 b2 75 11 bf d3 5d 1b bf cc df c4 bc f1 a2 c9 be
       -0.56820214 -0.6069004 -0.024032496 -0.39382127
000370 c1 d5 2a 3e c8 70 70 be 88 50 9d 3e 06 5b a3 3e
       0.16683103 -0.23480523 0.30725503 0.31905383
000380 c9 89 7e bf a4 54 08 3f 4d 82 c7 be ef b2 3f 3e
       -0.99428993 0.5325415 -0.389666 0.18720601
000390 38 45 8e bc fc 55 e3 be 31 50 6d bd f1 6c 28 bf
       -0.01736699 -0.44401538 -0.057937805 -0.6579123
0003a0 66 7b 6e bf 4c 67 e6 bd 68 5c b2 bd a5 04 e8 be
       -0.9315704 -0.11250171 -0.08709031 -0.45316043
0003b0 d6 3f 1b 3e 80 3a 26 be 82 a4 76 3c dc a8 e8 3e
       0.1516107 -0.16233253 0.01505387 0.4544133
0003c0 68 7e 90 3e 6c d0 4b 3d 31 94 38 be 84 50 9b 3e
       0.2822144 0.049759313 -0.1802528 0.30334866
0003d0 d8 a0 04 3e b2 04 3b be 7c d0 f3 bd 4f 8a 3e bd
       0.12951982 -0.1826351 -0.119049996 -0.04651862
0003e0 fc 04 2a 3f d9 4d 00 bf 97 51 fb be 74 43 cd 3e
       0.66413856 -0.50118786 -0.49085686 0.40090525
0003f0 71 94 b3 3e 6b 86 63 be e7 8d 01 bd 3b b5 c4 bd
       0.3507419 -0.22219245 -0.03162947 -0.096048795

fc3.bias f4 [4]
000000 b5 96 43 bd 3a 0b 5f bd 77 5e 81 bd ec b6 98 bd
       -0.047751147 -0.054454066 -0.06316846 -0.074567646
