p2_continuous-control/checkpoint_critic.pth (torch_old, 543567 bytes, 9 tensors)

bn1.weight f4 [33]
0	0x3f1d5ca8	0.6146951
1	0x3ec3141e	0.38101286
2	0x3f2319ed	0.63711435
3	0x3ef2ec90	0.47446108
4	0x3f36ae16	0.71359384
5	0x3f1e792b	0.6190364
6	0x3ee293a4	0.44253266
7	0x3dc42258	0.09576863
8	0x3f1d3968	0.6141572
9	0x3d6ad070	0.057327688
10	0x3f10d2a2	0.565714
11	0x3f0881b1	0.53322893
12	0x3ec7b4be	0.39005083
13	0x3f68aa4b	0.90884846
14	0x3f088ad5	0.5333684
15	0x3f35142f	0.7073392
16	0x3f362b3f	0.7115974
17	0x3e51f47c	0.2050342
18	0x3e9d95b4	0.30778277
19	0x3f7b1994	0.98085904
20	0x3c281f00	0.010261297
21	0x3eee9ce8	0.46604085
22	0x3eebb64a	0.46037513
23	0x3f5acaa7	0.8546547
24	0x3ee7a986	0.45246524
25	0x3f21b466	0.6316589
26	0x3ef3b608	0.47599816
27	0x3e614ea8	0.22002661
28	0x3e5dcdac	0.21660489
29	0x3e83a066	0.25708312
30	0x3d3b9670	0.045797765
31	0x3e33b898	0.17550886
32	0x3f1e1fea	0.61767447

bn1.bias f4 [33]
0	0x00000000	0.0
1	0x00000000	0.0
2	0x00000000	0.0
3	0x00000000	0.0
4	0x00000000	0.0
5	0x00000000	0.0
6	0x00000000	0.0
7	0x00000000	0.0
8	0x00000000	0.0
9	0x00000000	0.0
10	0x00000000	0.0
11	0x00000000	0.0
12	0x00000000	0.0
13	0x00000000	0.0
14	0x00000000	0.0
15	0x00000000	0.0
16	0x00000000	0.0
17	0x00000000	0.0
18	0x00000000	0.0
19	0x00000000	0.0
20	0x00000000	0.0
21	0x00000000	0.0
22	0x00000000	0.0
23	0x00000000	0.0
24	0x00000000	0.0
25	0x00000000	0.0
26	0x00000000	0.0
27	0x00000000	0.0
28	0x00000000	0.0
29	0x00000000	0.0
30	0x00000000	0.0
31	0x00000000	0.0
32	0x00000000	0.0

bn1.running_mean f4 [33]
0	0x00000000	0.0
1	0x00000000	0.0
2	0x00000000	0.0
3	0x00000000	0.0
4	0x00000000	0.0
5	0x00000000	0.0
6	0x00000000	0.0
7	0x00000000	0.0
8	0x00000000	0.0
9	0x00000000	0.0
10	0x00000000	0.0
11	0x00000000	0.0
12	0x00000000	0.0
13	0x00000000	0.0
14	0x00000000	0.0
15	0x00000000	0.0
16	0x00000000	0.0
17	0x00000000	0.0
18	0x00000000	0.0
19	0x00000000	0.0
20	0x00000000	0.0
21	0x00000000	0.0
22	0x00000000	0.0
23	0x00000000	0.0
24	0x00000000	0.0
25	0x00000000	0.0
26	0x00000000	0.0
27	0x00000000	0.0
28	0x00000000	0.0
29	0x00000000	0.0
30	0x00000000	0.0
31	0x00000000	0.0
32	0x00000000	0.0

bn1.running_var f4 [33]
0	0x3f800000	1.0
1	0x3f800000	1.0
2	0x3f800000	1.0
3	0x3f800000	1.0
4	0x3f800000	1.0
5	0x3f800000	1.0
6	0x3f800000	1.0
7	0x3f800000	1.0
8	0x3f800000	1.0
9	0x3f800000	1.0
10	0x3f800000	1.0
11	0x3f800000	1.0
12	0x3f800000	1.0
13	0x3f800000	1.0
14	0x3f800000	1.0
15	0x3f800000	1.0
16	0x3f800000	1.0
17	0x3f800000	1.0
18	0x3f800000	1.0
19	0x3f800000	1.0
20	0x3f800000	1.0
21	0x3f800000	1.0
22	0x3f800000	1.0
23	0x3f800000	1.0
24	0x3f800000	1.0
25	0x3f800000	1.0
26	0x3f800000	1.0
27	0x3f800000	1.0
28	0x3f800000	1.0
29	0x3f800000	1.0
30	0x3f800000	1.0
31	0x3f800000	1.0
32	0x3f800000	1.0

fcs1.weight f4 [400, 33]
0	0xbdff90b5	-0.124787726
1	0xbd356144	-0.044282213
2	0x3d9cd058	0.07656926
3	0xbe75f3e1	-0.24018814
4	0xbe1b02fe	-0.1513786
5	0xbe548b5c	-0.20756286
6	0x3e266d1f	0.16252564
7	0xbe5d06dc	-0.21584648
8	0x3e2339d2	0.15940025
9	0xbe8083d3	-0.25100574
10	0xbe256653	-0.16152315
11	0xbe18190b	-0.14853303
12	0xbe30df6d	-0.1727273
13	0xbded20c1	-0.11578513
14	0xbd970e45	-0.073757686
15	0x3e0d131d	0.13776822
16	0xbe3d23f4	-0.18470746
17	0xbe259e3c	-0.16173643
18	0xbe0fc4a2	-0.14039853
19	0x3e4f9647	0.2027217
20	0xbe82fb43	-0.25582322
21	0x3e5fb07c	0.21844667
22	0xbe8c900b	-0.27453646
23	0xbe44c188	-0.19214451
24	0xbe006fa5	-0.12542589
25	0xbe08cc2a	-0.13359132
26	0xbe750a0d	-0.23929615
27	0x3e82e6fe	0.25566858
28	0x3e60de69	0.21959843
29	0x3d010431	0.031498138
30	0xbe2c9053	-0.1685193
31	0xbd114382	-0.03546477
32	0xbe110d48	-0.14165223
33	0x3eac8901	0.33698276
34	0xbe799fcb	-0.24377362
35	0xbe89e17c	-0.26929843
36	0xbf6c8155	-0.92384845
37	0xbf160dfa	-0.58615077
38	0xbf0c6072	-0.54834664
39	0x3f67f4f8	0.9060817
40	0xbe24074f	-0.16018413
41	0x3de7d6ab	0.113202415
42	0xbea3191a	-0.31855088
43	0x3e5ded19	0.21672477
44	0x3e7e3f78	0.24828899
45	0x3eb82045	0.3596212
46	0x3e8f17fd	0.2794799
47	0x3d99b28b	0.075047575
48	0xbe9a1205	-0.30091873
49	0xbf7264b7	-0.9468493
50	0xbf3d1382	-0.7385789
51	0xbf26666b	-0.6500003
52	0x3f6ef15c	0.93337035
53	0xbe3a57f4	-0.18197614
54	0x3e7e90e4	0.24859959
55	0xbebadd6f	-0.36497065
56	0x3e77dc9c	0.2420525
57	0x3e7ba861	0.2457595
58	0x3e960a81	0.2930489
59	0xbdcb5295	-0.09927861
60	0x3e8caba4	0.274747
61	0x3e256599	0.16152038
62	0xbc420b14	-0.011843462
63	0xbe99a6e6	-0.30010146
64	0xbcb454ba	-0.022013057
65	0xbe530ced	-0.206104
66	0x3fb9f2be	1.4527204
67	0xbe58b424	-0.21162468
68	0xbf01a95e	-0.5064906
69	0xbf2c123f	-0.6721534
70	0xbf822515	-1.0167567
71	0xbf128f77	-0.5725016
72	0x3ede74e5	0.43448558
73	0x3d0b8af5	0.034068067
74	0xbe29a188	-0.16565526
75	0xbd0f9406	-0.035053276
76	0x3ea20ef6	0.3165204
77	0x3f1e8438	0.619205
78	0xbe3cdd7d	-0.18443866
79	0x3fadad9e	1.3568609
80	0xbe2d4460	-0.16920614
81	0xbf0337e6	-0.5125717
82	0xbf37145d	-0.71515447
83	0xbf7ea9c1	-0.99477774
84	0xbf58df74	-0.8471596
85	0x3f133874	0.57508016
86	0xbd0210ba	-0.031754233
87	0x3c877e21	0.016539635
88	0xbdb6dbf0	-0.089286685
89	0x3e8e6f97	0.2781951
90	0x3f21707b	0.63062257
91	0xbdfe12d2	-0.124059334
92	0xbdccb3ab	-0.099952064
93	0xbccc4719	-0.024936246
94	0x3db85850	0.09001219
95	0xbd0024fa	-0.031285264
96	0xbcd3238a	-0.025773782
97	0x3a884ba0	0.0010398515
98	0x3fa6f819	1.3044463
99	0x3e7abf82	0.24487117
100	0xbe56b29f	-0.20966576
101	0xbf3d5edc	-0.7397287
102	0xbebdb815	-0.37054506
103	0xbf62819d	-0.88479024
104	0xbeda5892	-0.426457
105	0x3e9471a3	0.28992948
106	0xbd165ebf	-0.03671145
107	0xbccfc4ed	-0.025362456
108	0xbdcb8e66	-0.0993927
109	0x3ead7e10	0.3388524
110	0x3f8a6cb0	1.0814419
111	0xbdf99c73	-0.121880434
112	0x3eab5ff8	0.33471656
113	0xbe318e9a	-0.17339554
114	0xbf257264	-0.6462767
115	0xbea6c22e	-0.32570022
116	0xbf4485ca	-0.76766646
117	0xbef8f084	-0.48621
118	0x3ea8c77e	0.329647
119	0xbb8a6740	-0.004223734
120	0x3c86bdea	0.01644798
121	0xbdea94ef	-0.11454188
122	0x3e930fc3	0.28722963
123	0x3f8d62b5	1.1045748
124	0xbdfafab6	-0.122548506
125	0xbe0dd766	-0.13851699
126	0x3d6c941e	0.057758443
127	0x3de598c4	0.11210778
128	0xbc8924f4	-0.016741253
129	0xbd660194	-0.05615385
130	0x3d2a2b9f	0.041545507
131	0x3f46c8c0	0.7765007
132	0x3ecea0db	0.40357098
133	0xbdc3e39e	-0.09564899
134	0xbe8b1ed7	-0.27171966
135	0xbf17d440	-0.5930824
136	0xbe45b1ad	-0.19306059
137	0xbee34a87	-0.44392797
138	0x3f5f62c2	0.8726007
139	0x3c5346e6	0.0128953215
140	0x3dd18b3c	0.10231635
141	0xbe5c4609	-0.21511091
142	0x3e83a89c	0.25714576
143	0x3ec1e193	0.37867412
144	0xbd2568d1	-0.040383164
145	0x3ecb0447	0.396517
146	0xbde415d7	-0.11136978
147	0xbe8c5c96	-0.27414387
148	0xbf0fd0ef	-0.5617818
149	0xbe8c6a01	-0.27424625
150	0xbecdf980	-0.40229416
151	0x3f63154b	0.88704365
152	0xbb76621e	-0.0037595103
153	0x3e255371	0.16145112
154	0xbe484277	-0.19556604
155	0x3e50c45a	0.20387402
156	0x3ea0dc3b	0.31418023
157	0x3d80204f	0.062561624
158	0xbe1b595a	-0.15170804
159	0x3dd1e7b2	0.102492705
160	0x3dfe08dc	0.124040335
161	0xbd0a7a9d	-0.03380834
162	0xbd91aa0f	-0.07112514
163	0x3ce4affa	0.027915943
164	0xbd6b280c	-0.05741124
165	0xbd5fbc45	-0.054622907
166	0xbcd159dc	-0.025555544
167	0xbcb43a8a	-0.02200057
168	0xbdd65cdf	-0.104669325
169	0x3f0553ca	0.52080977
170	0x3d2b708c	0.04185538
171	0x3e072188	0.13196385
172	0xbea08cdc	-0.31357467
173	0x3ec0622b	0.37574896
174	0xbe85166a	-0.25993663
175	0x3cf207ff	0.029544828
176	0xbce6ade3	-0.028159088
177	0xbd7122c0	-0.05887103
178	0xbdbbee92	-0.09176363
179	0xbd90686e	-0.070511684
180	0xbd082331	-0.033236686
181	0xbbc25326	-0.005930322
182	0x3e0c822d	0.13721533
183	0x3e2af276	0.16694054
184	0x3e168651	0.14699675
185	0xbe90ffab	-0.2832006
186	0x3ec494ac	0.38394678
187	0xbe9bead2	-0.3045259
188	0x3c8806f3	0.016604876
189	0xbcf3888a	-0.029728193
190	0xbdae892c	-0.08522257
191	0xbe221619	-0.15828742
192	0x3e92416c	0.28565538
193	0x3e63cc5f	0.2224593
194	0xbcb65c9a	-0.022260953
195	0xbe9bd407	-0.30435202
196	0xbc8b7394	-0.017022885
197	0xbfbbfe31	-1.4686948
198	0xbe84ac8a	-0.25912887
199	0xbbbb5686	-0.0057171015
200	0xbbac7543	-0.005263002
201	0xbd908e04	-0.07058337
202	0x3ed304e0	0.41214657
203	0x3d8fff32	0.070310965
204	0x3e454632	0.19265059
205	0xbea63ba6	-0.32467383
206	0x3ed36513	0.4128805
207	0xbe9eef68	-0.31042027
208	0xbd2072d1	-0.039171997
209	0xbdc3435a	-0.09534331
210	0xbd9c5263	-0.076329015
211	0xbe7d0700	-0.24709702
212	0xbd15db94	-0.03658636
213	0x3c00f39b	0.00787058
214	0x3ebc735c	0.36806762
215	0x3dc89a2a	0.097950295
216	0x3f59b3d4	0.8504002
217	0x3e1d2845	0.15347393
218	0xbe9b998f	-0.30390593
219	0x3eb648be	0.35602373
220	0xbec4b5ce	-0.38419956
221	0xbd11d64c	-0.03560476
222	0xbdfe41e2	-0.1241491
223	0xbd1d4239	-0.038393233
224	0xbe65d358	-0.22443902
225	0x3ea0e967	0.31428072
226	0x3e31d138	0.17364967
227	0xbc4b1a54	-0.012396414
228	0xbe91caa0	-0.28474903
229	0xbb140750	-0.0022587366
230	0xbfb203f7	-1.390746
231	0xbdcd7f5f	-0.1003406
232	0x3eb98834	0.36236727
233	0x3e254e6d	0.16143198
234	0xbe0c3d0e	-0.13695166
235	0xbaedcbde	-0.0018142422
236	0x3f854ed5	1.0414683
237	0x3ed8ae73	0.42320594
238	0xbdf5c195	-0.119998135
239	0x3e5b48a9	0.21414436
240	0xbe21f7d2	-0.15817192
241	0xbe34f0cf	-0.17669986
242	0xbe055040	-0.13018894
243	0x3ef1f748	0.47258973
244	0xbdad07f6	-0.08448784
245	0x3ec6a0b7	0.3879449
246	0x3e4f4ad6	0.20243391
247	0xbe3a0212	-0.18164852
248	0xbe31d067	-0.17364655
249	0xbd71c9a0	-0.059030175
250	0x3e6d44ba	0.23170748
251	0xbe0f0e83	-0.1397038
252	0x3e5486ba	0.20754519
253	0xbdab1888	-0.08354288
254	0xbe54f638	-0.2079705
255	0xbddeba87	-0.10875421

fcs1.bias f4 [400]
0	0xbe580ec0	-0.21099377
1	0xbdfb6d3b	-0.122766934
2	0xbd9bd36a	-0.076086834
3	0xbdd5d5ba	-0.10441156
4	0xbe5a434b	-0.21314733
5	0xbe324c5f	-0.17411946
6	0xbecd80e2	-0.40137392
7	0xbe29dcf6	-0.16588196
8	0xbe6e75da	-0.23287144
9	0x3cca49f1	0.024693461
10	0xbe89bc36	-0.26901406
11	0xbe5ce654	-0.21572238
12	0xbdc0254d	-0.093821146
13	0xbea4df38	-0.32201552
14	0xbe08eee8	-0.13372386
15	0xbcd9d41f	-0.026590405
16	0xbed0de72	-0.40794712
17	0xbe879f0d	-0.26488534
18	0xbe039a0f	-0.12851737
19	0xbf18ccc6	-0.5968746
20	0xbe63315d	-0.221868
21	0xbecdbbb4	-0.4018227
22	0x3c1a1c87	0.0094062155
23	0xbc06f646	-0.008237427
24	0xbe5c8c97	-0.21538006
25	0xbd0e4be0	-0.03474033
26	0xbe2c3379	-0.1681651
27	0xbd87e056	-0.066345856
28	0xbfbd9082	-1.4809725
29	0xbfae0d22	-1.3597758
30	0xbe0030af	-0.12518571
31	0xbe99e74b	-0.30059275
32	0xbe07776c	-0.1322915
33	0xbe840060	-0.25781536
34	0x3da355d8	0.07975358
35	0xbe0ce1ce	-0.13758013
36	0xbd9fd9a6	-0.07805185
37	0xbe107d8c	-0.14110392
38	0xbe952a13	-0.29133663
39	0xbe214576	-0.15749153
40	0xbe50198d	-0.20322247
41	0xbdafcebb	-0.085843526
42	0xbeb588c8	-0.35455918
43	0x3dffc95b	0.124895774
44	0xbe8ef64b	-0.27922282
45	0xbeb5f928	-0.35541654
46	0xbe99d0be	-0.3004207
47	0xbeae96a6	-0.3409931
48	0xbd07be9a	-0.033140756
49	0xbdec949b	-0.11551782
50	0xbe7dc4cc	-0.24782103
51	0xbf07f5c2	-0.5310937
52	0xbef86200	-0.48512268
53	0xbe4b1219	-0.19831122
54	0xbf0624b6	-0.52399766
55	0x3eddefce	0.4334702
56	0xbed69d56	-0.41916913
57	0xbdaef365	-0.085425176
58	0xbe485f62	-0.19567636
59	0xbdedb948	-0.11607605
60	0xbe877ca5	-0.26462284
61	0xbcab68b3	-0.020923948
62	0xbf514d5c	-0.81758666
63	0x3d97f427	0.07419615
64	0xbec14df7	-0.37754795
65	0xbe70ab55	-0.23502858
66	0xbeaf0b49	-0.34188297
67	0xbea31ce3	-0.31857976
68	0xbdf8bcf6	-0.121454164
69	0xbde89db2	-0.11358203
70	0x3c24e3bf	0.0100640645
71	0xbe0901b5	-0.13379557
72	0xbe8df00c	-0.27722204
73	0x3f3f8081	0.74805456
74	0xbd0ad07b	-0.03389023
75	0xbe62ecb1	-0.22160603
76	0xbed2dc45	-0.41183677
77	0x3c0b9147	0.008518524
78	0xbdbf12e5	-0.09329776
79	0x3adacc38	0.0016692942
80	0xbf5ea2dc	-0.86967254
81	0xbf71ac9c	-0.94404006
82	0xbecf028f	-0.4043164
83	0xbea002d5	-0.3125216
84	0x3a4b406d	0.00077534356
85	0xbd83de4b	-0.064388834
86	0xbc9ec04d	-0.019378806
87	0xbd928a04	-0.07155231
88	0xbd7c4271	-0.0615868
89	0x3cf2a013	0.029617345
90	0xbd97bd8e	-0.074092016
91	0xbeb75fd8	-0.3581531
92	0xbe378e08	-0.17925274
93	0x3cfd6005	0.030929575
94	0x3d6fd5b7	0.058553424
95	0xbee6e4a7	-0.45096323
96	0xbd53e4d9	-0.051731918
97	0xbe9a3a8d	-0.30122796
98	0xbd2a44ab	-0.041569393
99	0x3dab500d	0.08364878
100	0xbe802007	-0.25024435
101	0xbe9bcebd	-0.30431166
102	0xbe4dd6c7	-0.20101462
103	0xbf4f828f	-0.8105859
104	0xbed492a6	-0.41518134
105	0xbe801976	-0.25019425
106	0xbeb721c8	-0.3576796
107	0xbf0a8d71	-0.5412207
108	0xbe0941a5	-0.13403948
109	0xbecc3d9e	-0.3989076
110	0xbc4fe849	-0.012689658
111	0xbe70905e	-0.23492572
112	0xbe0146d9	-0.12624682
113	0x3c06ba2d	0.008223099
114	0xbd9cd3c0	-0.076575756
115	0xbe80c11c	-0.2514733
116	0xbc9fba77	-0.019498093
117	0xbe2a05c2	-0.16603759
118	0xbe1044b7	-0.14088713
119	0xbe7dc8e5	-0.24783666
120	0xbe6a9f4a	-0.22912326
121	0xbeb7581e	-0.35809416
122	0x3d773c77	0.0603604
123	0xbe700e36	-0.23442921
124	0xbed7ddbc	-0.42161357
125	0xbe5b8b2e	-0.21439812
126	0xbdaefdb6	-0.08544485
127	0x3d896917	0.067094974
128	0xbf2b3187	-0.6687245
129	0xbe4e3a48	-0.2013942
130	0xbe980cd7	-0.29697296
131	0xbc502720	-0.012704641
132	0xbe997127	-0.2996914
133	0xbe61f347	-0.22065459
134	0x3f4e8f0e	0.80687034
135	0xbeb0d920	-0.34540653
136	0xbde45e66	-0.111508176
137	0xbdd86c94	-0.10567585
138	0xbd82f448	-0.06394249
139	0xbe4a3162	-0.197454
140	0xbec2d92d	-0.38056317
141	0xbc9646a0	-0.018344223
142	0xbe9a8c2e	-0.30185074
143	0xbe46d55a	-0.19417325
144	0xbd88d500	-0.066812515
145	0xbeacec82	-0.3377419
146	0xbd90f345	-0.0707765
147	0xbea3c357	-0.3198497
148	0xbe6bf8a5	-0.23044069
149	0xbe31d4d1	-0.1736634
150	0x3e4be049	0.19909777
151	0x3eebb973	0.46039924
152	0xbe58e3f1	-0.21180703
153	0xbe861342	-0.26186568
154	0xbe27e4ef	-0.16395925
155	0xbe5e4021	-0.2170415
156	0xbe4ed788	-0.20199406
157	0xbe255f5f	-0.16149662
158	0xbfc7a1b1	-1.5596219
159	0xbe904341	-0.2817631
160	0xbea0faaa	-0.31441242
161	0x3d9206ef	0.07130229
162	0xbe9af162	-0.30262285
163	0xbe1f96b2	-0.1558483
164	0xbea85e07	-0.32884237
165	0xbe0daa83	-0.13834576
166	0xbe09f183	-0.13471036
167	0xbe05c9a1	-0.13065197
168	0xbecdcc8a	-0.40195113
169	0xbe3f2478	-0.18666255
170	0xbdc483c7	-0.09595447
171	0xbe861121	-0.26184943
172	0xbe7516dd	-0.23934503
173	0xbf4316de	-0.7620677
174	0xbc921ce5	-0.017836044
175	0xbe16b7bd	-0.14718528
176	0xbeb6fa22	-0.3573771
177	0xbe30927c	-0.1724338
178	0xbea73a5c	-0.32661712
179	0xbe98ba41	-0.298296
180	0xbe4c3485	-0.1994191
181	0xbe64f0fd	-0.22357555
182	0xbea8bf49	-0.3295844
183	0xbd776150	-0.06039554
184	0xbe3a7909	-0.18210234
185	0xbcd3c0e9	-0.025848823
186	0x3e1c155f	0.15242527
187	0x3b71af65	0.0036878225
188	0xbeb0774b	-0.34466013
189	0xbda90d7c	-0.08254525
190	0xbe1cc1f4	-0.15308362
191	0xbe03d75d	-0.12875123
192	0xbd668d3f	-0.056287047
193	0x3d22f547	0.039784696
194	0xbead1c1f	-0.33810517
195	0xbe9e7fb9	-0.3095682
196	0xbeefe95a	-0.4685772
197	0xbeceabd0	-0.40365458
198	0xbf01b60d	-0.5066841
199	0xbedc3980	-0.4301262
200	0xbf3c2471	-0.73493105
201	0xbd69a11e	-0.05703842
202	0xbdca64e8	-0.098825276
203	0xbb6a80f9	-0.003578244
204	0xbeb53708	-0.35393548
205	0x3d5b5bcc	0.05355434
206	0xbea75e15	-0.32688966
207	0xbc80a7ab	-0.01570495
208	0xbe81823e	-0.2529468
209	0xbeca2031	-0.39477685
210	0xbea08da4	-0.31358063
211	0x3d41acf2	0.047284074
212	0xbe8fc9ca	-0.2808364
213	0xbd3b0bbf	-0.0456655
214	0xbf723c46	-0.9462322
215	0xbe19610e	-0.1497843
216	0xbe95bd28	-0.29245877
217	0xbe71fffa	-0.23632804
218	0xbdd0cac5	-0.10194925
219	0x3e43e7ad	0.19131346
220	0xbe8c0878	-0.2735021
221	0xbe87bd2e	-0.2651152
222	0xbe220f3c	-0.15826124
223	0xbe94c892	-0.29059273
224	0xbe766482	-0.24061778
225	0xbf1ab7b8	-0.6043658
226	0xbe444195	-0.19165643
227	0xbb178043	-0.0023117221
228	0xbde1eb79	-0.11031241
229	0x3d779211	0.060442034
230	0xbe286576	-0.16444954
231	0xbe5728de	-0.21011683
232	0xbda7e6cd	-0.08198319
233	0x3dd370c9	0.103242464
234	0xbe78ef0d	-0.2430994
235	0xbdd5938b	-0.10428532
236	0xbea06d39	-0.3133333
237	0xbea4f148	-0.32215333
238	0x3ea3c1ea	0.31983882
239	0xbe863ef6	-0.2621991
240	0xbe4f4849	-0.20242418
241	0x3e1a86fb	0.15090553
242	0x3e8abb54	0.27096045
243	0xbe2601cf	-0.16211627
244	0xbe8e8548	-0.2783606
245	0xbeeebb30	-0.46627188
246	0x3dd4a5c9	0.103831835
247	0xbe5c01ec	-0.21485108
248	0xbcf13781	-0.029445412
249	0x3d18df9b	0.03732262
250	0xbebe7643	-0.37199602
251	0xbda1f7ce	-0.07908593
252	0xbfa0b26c	-1.255445
253	0xbd425b98	-0.04745063
254	0xbb7f18d3	-0.0038924708
255	0xbe76e254	-0.24109775

fc2.weight f4 [300, 404]
0	0xbde9c806	-0.114151046
1	0xbd46397f	-0.048394676
2	0xbd8fcc1a	-0.07021351
3	0xbdaccbdf	-0.08437323
4	0xbd8483ed	-0.06470475
5	0xbe11bcf7	-0.1423224
6	0xbddf0875	-0.10890285
7	0xbd80e013	-0.06292739
8	0xbb38d4de	-0.002820305
9	0xbe2f2e1b	-0.17107432
10	0xbded4278	-0.115849435
11	0xbd2cfecb	-0.042235177
12	0xbdfc29c3	-0.12312653
13	0xbd7dbef0	-0.06194967
14	0xbdb46528	-0.088083565
15	0xbdba73f2	-0.09104146
16	0x3cec3bdc	0.028837137
17	0xbc3aee58	-0.011409365
18	0xbe3e26ca	-0.18569484
19	0xbcc7bb65	-0.024381349
20	0xbe370085	-0.17871292
21	0xbdf3022e	-0.1186565
22	0xbc8132df	-0.015771328
23	0xbda23094	-0.07919422
24	0xbe109587	-0.1411954
25	0xbba77423	-0.00511028
26	0xbde60446	-0.11231284
27	0xbe07b1e8	-0.1325146
28	0x3e55dcaf	0.20884965
29	0x3e148f3c	0.14507765
30	0xbe0d0f4a	-0.13775364
31	0xbe121048	-0.14264023
32	0xbddd6a05	-0.10811237
33	0xbdd323ed	-0.10309587
34	0x3dbbbe9e	0.09167217
35	0xbd98934b	-0.07449969
36	0xbdc672df	-0.09689879
37	0x3d690f78	0.056899518
38	0xbcb58f6a	-0.022163112
39	0xbe0b55d6	-0.13606963
40	0xbdbcebfb	-0.09224697
41	0xbdc0527d	-0.093907334
42	0xbdcc186e	-0.09965597
43	0xbd90e6eb	-0.07075294
44	0xbe2f64d5	-0.17128308
45	0xbe25cbb2	-0.16190985
46	0xbe370f19	-0.17876853
47	0xbe1f6840	-0.15567112
48	0xbdbd3681	-0.092389114
49	0xbe018ba9	-0.12650932
50	0xbcbe424e	-0.023224976
51	0xbd80f448	-0.06296593
52	0xbdcae95d	-0.09907792
53	0xbd9a2a23	-0.07527568
54	0xbdd78470	-0.10523307
55	0x3d634b59	0.05549178
56	0xbd305ba1	-0.043056134
57	0xbd488479	-0.04895446
58	0xbd943409	-0.072364874
59	0xbe3a780a	-0.18209854
60	0xbde09b1e	-0.10967086
61	0xbd960abb	-0.073262654
62	0x3dc497d4	0.095992714
63	0xbd7f59dc	-0.062341556
64	0xbe070a2b	-0.13187473
65	0xbdc8eb8e	-0.098105535
66	0xbddfef32	-0.10934295
67	0xbdd009c8	-0.101581156
68	0xbcaa5dbf	-0.020796655
69	0xbd846bc6	-0.06465869
70	0xbe0da227	-0.13831387
71	0xbdfbb89f	-0.12291073
72	0xbe145767	-0.14486466
73	0xbcf6a2e9	-0.030106978
74	0xbe003fa3	-0.12524275
75	0xbd6a8228	-0.057253033
76	0xbd862013	-0.065490864
77	0xbd4cd2ba	-0.050005652
78	0xbd93b570	-0.07212341
79	0xbe19a28d	-0.15003414
80	0xbd864ba8	-0.06557399
81	0x3d9838a7	0.074326806
82	0xbd8971a8	-0.06711131
83	0xbe2a47fb	-0.16629021
84	0xbe03b7bd	-0.1286306
85	0xbe1a2b7e	-0.15055653
86	0xbdde131e	-0.1084349
87	0xbdb2cecb	-0.08730849
88	0xbd5b191b	-0.05349074
89	0xbda06115	-0.07831017
90	0xbe12bcf9	-0.143299
91	0xbd232614	-0.039831236
92	0x3e0c84d4	0.13722545
93	0xbcf8412e	-0.030304518
94	0xbd78530e	-0.060626082
95	0xbdf63e3d	-0.1202359
96	0xbded84ea	-0.11597617
97	0xbdfc4ef6	-0.12319748
98	0x3d50f3ed	0.051013876
99	0xbc365fdc	-0.011131253
100	0xbdd0ce4e	-0.101955995
101	0xbe430a72	-0.19046953
102	0xbdee2b9e	-0.11629413
103	0xbe126388	-0.1429578
104	0xbdef7839	-0.116928525
105	0xbe22f580	-0.15913963
106	0xbd97e8b6	-0.07417433
107	0x3cb801d7	0.022461815
108	0xbdc35f21	-0.09539629
109	0xbdb85c0b	-0.09001931
110	0xbdd03561	-0.10166431
111	0xbd839cf7	-0.06426423
112	0xbc20b05d	-0.009807673
113	0xbd7ff215	-0.062486727
114	0xbe37a473	-0.17933826
115	0xbe3bda9c	-0.18345112
116	0xbde52724	-0.11189106
117	0xbdc5313a	-0.0962853
118	0xbded5f2d	-0.11590419
119	0xbdb36b5f	-0.08760714
120	0xbdea295b	-0.11433669
121	0xbe13eee2	-0.14446595
122	0xbde29abb	-0.11064669
123	0xbd8fe755	-0.07026545
124	0xbda02944	-0.07820371
125	0xbe17bf19	-0.14818992
126	0xbe28326a	-0.16425481
127	0xbdd6b71d	-0.10484145
128	0x3d9a7945	0.075426616
129	0xbda23a7c	-0.07921311
130	0xbdce9115	-0.10086266
131	0xbd372c16	-0.044719778
132	0xbe0578f5	-0.13034423
133	0xbda2651b	-0.079294406
134	0x3d9846fd	0.07435415
135	0x3e19fa72	0.15036944
136	0xbe1e970c	-0.15487307
137	0xbdda2c4e	-0.10652982
138	0xbdfc543d	-0.12320755
139	0xbc6e43d3	-0.014542538
140	0xbe214ec2	-0.157527
141	0xbe2909d3	-0.16507654
142	0xbe3b5ca9	-0.18297066
143	0xbe26c7d1	-0.16287161
144	0xbdee6b18	-0.1164152
145	0xbd90890e	-0.07057391
146	0xbdf77122	-0.12082125
147	0xbda8e860	-0.08247447
148	0xbdb6377f	-0.08897304
149	0xbd3fd92a	-0.046837963
150	0x3a6461f5	0.00087121065
151	0x3df8cead	0.12148795
152	0xbddae09e	-0.106873736
153	0xbdef9b4f	-0.11699545
154	0xbe35bdc1	-0.17748167
155	0xbdc51270	-0.09622657
156	0xbe0a442f	-0.13502572
157	0xbda2fff3	-0.07958975
158	0x3de0382b	0.10948213
159	0xbe09ce32	-0.13457564
160	0xbd99689a	-0.07490654
161	0xbd5efd08	-0.05444053
162	0xbe19d9e9	-0.15024532
163	0xbe058180	-0.13037682
164	0xbdda191d	-0.10649321
165	0xbe12fe2c	-0.14354771
166	0x3990d809	0.0002762678
167	0xbdc85093	-0.09780993
168	0xbdca16a2	-0.09867598
169	0xbdd05206	-0.10171895
170	0xbdae698d	-0.08516226
171	0xbe2d92f1	-0.16950585
172	0xbe044196	-0.12915644
173	0x3e0caff7	0.13739
174	0x3dc91e20	0.09820199
175	0xbe177504	-0.14790732
176	0xbe12f5ba	-0.1435155
177	0xbda528de	-0.080644354
178	0xbe136501	-0.14393999
179	0xbe3319e9	-0.17490353
180	0xbdb06098	-0.08612174
181	0xbe3750c9	-0.17901911
182	0xbdda49d1	-0.106586106
183	0xbe160b00	-0.14652634
184	0xbe19486c	-0.14969033
185	0xbdd47ed2	-0.103757516
186	0xbd0d1e1a	-0.034452535
187	0x3db26c23	0.08712032
188	0xbe19e3fa	-0.15028372
189	0xbe26e05d	-0.16296525
190	0xbd659031	-0.056045715
191	0xbe030ffd	-0.12799068
192	0xbe15777b	-0.1459636
193	0xbdb4016d	-0.087893344
194	0xbe0cd19f	-0.13751839
195	0xbdc23440	-0.09482622
196	0xbe0717ca	-0.13192669
197	0xbdf53b25	-0.119741715
198	0xbe09bc31	-0.13450696
199	0xbd2a631b	-0.04159842
200	0x3e11c4b5	0.14235194
201	0xbe05228a	-0.13001457
202	0xbe112b65	-0.1417671
203	0xbd8f0ad0	-0.06984484
204	0xbe2d89f2	-0.16947153
205	0xbe040cc1	-0.1289549
206	0xbdc66692	-0.096875325
207	0xbde93c7b	-0.11388489
208	0xbd81e235	-0.06341974
209	0xbcbec3d7	-0.023286743
210	0xbdf270d5	-0.11837927
211	0xbdf2fbe4	-0.118644506
212	0xbddd0149	-0.10791261
213	0xbdb744f0	-0.08948696
214	0x3df6302e	0.12020908
215	0x3beec51d	0.0072866813
216	0xbd917985	-0.07103256
217	0xbd1f7ec6	-0.03893926
218	0xbd054d69	-0.032544527
219	0x3d9d6298	0.07684821
220	0xbda43901	-0.08018685
221	0xbd869359	-0.06571073
222	0xbd56f43e	-0.05247902
223	0xbd2e23f5	-0.04251476
224	0xbdaec806	-0.08534245
225	0x3db7b553	0.08970132
226	0x3d2917c7	0.04128244
227	0xbd3383c4	-0.043826833
228	0xbde6681f	-0.11250328
229	0xbcb165f9	-0.02165507
230	0xbdfe94e2	-0.12430741
231	0xbdeda029	-0.11602814
232	0xbd8b404e	-0.067993745
233	0xbde72b09	-0.11287505
234	0xbd9c13b2	-0.07620944
235	0xbdf7e43b	-0.121040784
236	0x3dc5f2b9	0.09665436
237	0xbdd2f342	-0.10300304
238	0xbdbf2da8	-0.0933488
239	0xbdc1e2ac	-0.09467062
240	0xbe02946f	-0.12751935
241	0xbde9f36a	-0.11423381
242	0xbd09df97	-0.033660498
243	0xbe2d922d	-0.16950293
244	0x3a4aa5b6	0.00077303813
245	0x3c734a9f	0.014849334
246	0x3ba0dbdf	0.004909023
247	0xbdb80216	-0.08984773
248	0xbdeff4a4	-0.11716583
249	0x3d185dfb	0.037199
250	0xbdd4c264	-0.103886396
251	0xbdd19901	-0.10234261
252	0x3e469d94	0.19396049
253	0xbe33338b	-0.17500131
254	0xbc696a10	-0.014246479
255	0xbe18fd16	-0.14940295

fc2.bias f4 [300]
0	0xbe261b91	-0.16221453
1	0xbe0c9125	-0.13727243
2	0xbe93e0bf	-0.28882405
3	0xbe1a39d6	-0.15061125
4	0xbe3ffd31	-0.18748929
5	0xbe403aea	-0.18772474
6	0xbdc04a9b	-0.0938923
7	0xbe11bb6b	-0.1423165
8	0xbde157a4	-0.11003044
9	0xbdc71eaa	-0.097226456
10	0xbe1a245c	-0.15052933
11	0xbe37c94c	-0.17947882
12	0xbdfa9609	-0.12235648
13	0xbe447783	-0.19186215
14	0xbe2429eb	-0.16031615
15	0xbdf1747b	-0.11789795
16	0xbdb767bd	-0.089553334
17	0xbd983149	-0.074312754
18	0xbe25b74c	-0.16183203
19	0xbe23cd43	-0.1599627
20	0xbe9b635b	-0.3034924
21	0xbe158a95	-0.14603646
22	0xbe0c956f	-0.1372888
23	0xbdea8a97	-0.11452215
24	0xbe453f9b	-0.19262545
25	0xbe74d635	-0.23909838
26	0xbdca7b31	-0.09886778
27	0xbe418155	-0.18896993
28	0xbe158459	-0.14601268
29	0xbe728e90	-0.23687196
30	0xbe31a937	-0.17349707
31	0xbe51c825	-0.20486505
32	0xbe133d8f	-0.14378951
33	0xbe2bced5	-0.16778119
34	0xbf68d544	-0.9095042
35	0xbe1da7d3	-0.15396051
36	0xbde75e05	-0.1129723
37	0xbe2b4429	-0.1672522
38	0xbe0078ac	-0.12546033
39	0xbe29317d	-0.16522785
40	0xbe09768c	-0.13424128
41	0xbe28db46	-0.16489896
42	0xbe481c31	-0.19542004
43	0xbe0573ad	-0.13032408
44	0xbde5d63a	-0.11222501
45	0xbe30217e	-0.17200276
46	0xbdde8c7e	-0.108666405
47	0xbe318016	-0.17334017
48	0xbf7676f2	-0.96275246
49	0xbe219ec2	-0.15783218
50	0xbdc02cb6	-0.09383528
51	0xbe031a72	-0.12803057
52	0xbe427f60	-0.18993902
53	0xbdc79e4b	-0.09746989
54	0xbe021642	-0.12703803
55	0xbe25629f	-0.16150902
56	0xbea813a2	-0.3282748
57	0xbe13de4a	-0.14440265
58	0xbe250189	-0.16113867
59	0xbf05d7a7	-0.52282184
60	0xbdd65c95	-0.10466877
61	0xbe1f24b9	-0.15541352
62	0xbe4c6dae	-0.19963714
63	0xbdb4d47e	-0.08829592
64	0xbe0b562b	-0.13607089
65	0xbe454137	-0.19263159
66	0xbdbfc69d	-0.09364054
67	0xbe2f77ea	-0.17135587
68	0xbcf90f25	-0.03040273
69	0xbe2eaa5c	-0.17057174
70	0xbe12136f	-0.14265226
71	0xbe5cee4d	-0.2157528
72	0xbdd39f1e	-0.103330836
73	0xbe02b62a	-0.12764803
74	0xbe2c751f	-0.16841553
75	0xbe5213f5	-0.20515426
76	0xbe0480dd	-0.12939782
77	0xbe0d37fe	-0.1379089
78	0xbe2bfa46	-0.1679469
79	0xbdf7840f	-0.12085735
80	0xbf866136	-1.0498416
81	0xbe656cbe	-0.22404763
82	0xbdbdefe2	-0.0927427
83	0xbe1507dc	-0.1455378
84	0xbde6eb16	-0.11275308
85	0xbdad9e37	-0.08477443
86	0xbe06fb8a	-0.13181892
87	0xbe3a29ce	-0.1818001
88	0xbe63fa6b	-0.22263496
89	0xbdfdc057	-0.123902015
90	0xbe328617	-0.17433964
91	0xbde87e48	-0.11352211
92	0xbe56a546	-0.20961484
93	0xbe3edaeb	-0.18638198
94	0xbe337912	-0.17526653
95	0xbe108f59	-0.14117183
96	0xbe318ff3	-0.17340069
97	0xbe2a1ad4	-0.16611797
98	0xbe0b8ca4	-0.13627869
99	0xbdf90844	-0.1215978
100	0xbddb7f3f	-0.1071763
101	0xbe5253cb	-0.20539777
102	0xbde1ed36	-0.110315725
103	0xbe5750eb	-0.21026962
104	0xbe32785c	-0.17428726
105	0xbdf1056b	-0.117686115
106	0xbf775063	-0.96607035
107	0xbe3f70a4	-0.18695313
108	0xbe1a8eeb	-0.15093581
109	0xbdd8db03	-0.10588648
110	0xbe37377e	-0.17892262
111	0xbe17182d	-0.14755316
112	0xbe1120a0	-0.14172602
113	0xbe1f6251	-0.15564848
114	0xbe114b48	-0.14188874
115	0xbdfeee7f	-0.12447833
116	0xbf618299	-0.880899
117	0xbe08ef85	-0.1337262
118	0xbdc4973c	-0.09599158
119	0xbe5528bb	-0.20816319
120	0xbe88b5d6	-0.2670123
121	0xbe3b1b46	-0.18272123
122	0xbe594941	-0.2121935
123	0xbe0ac057	-0.13549934
124	0xbe181384	-0.14851195
125	0xbdecd205	-0.115634955
126	0xbdec9277	-0.115513735
127	0xbe5422ca	-0.20716396
128	0xbe694455	-0.22779973
129	0xbdf27656	-0.11838977
130	0xbde5d355	-0.11221949
131	0xbe3334cc	-0.17500609
132	0xbe3d2275	-0.18470176
133	0xbdb2be5d	-0.08727715
134	0xbe1f9f9f	-0.15588234
135	0xbdec1a52	-0.11528458
136	0xbcbf2368	-0.023332313
137	0xbcd5f4ea	-0.02611776
138	0xbe3505a1	-0.17677929
139	0xbd3da724	-0.046301976
140	0xbe181672	-0.14852312
141	0xbdedf15b	-0.116183005
142	0xbe381c60	-0.17979574
143	0xbe284d34	-0.164357
144	0xbe0e01a4	-0.13867813
145	0xbe0c61b4	-0.13709146
146	0xbdf9ff97	-0.12206953
147	0xbe2b7249	-0.16742815
148	0xbe338a39	-0.17533197
149	0xbdd79ade	-0.105275854
150	0xbe146a7a	-0.14493743
151	0xbe29f51d	-0.1659741
152	0xbdbf262c	-0.093334526
153	0xbe16d9ce	-0.14731523
154	0xbe2c98b6	-0.1685513
155	0xbe3c1b8a	-0.1836988
156	0xbe1d3210	-0.15351129
157	0xbe19deb8	-0.15026367
158	0xbe0d0a27	-0.13773404
159	0xbe4e02dc	-0.20118278
160	0xbd759576	-0.05995699
161	0xbdcfed5c	-0.101526946
162	0xbe1b5c9b	-0.15172045
163	0xbdfb654a	-0.12275179
164	0xbe0c06da	-0.13674489
165	0xbdcda24d	-0.10040722
166	0xbe13ef8e	-0.14446852
167	0xbd9f2aa3	-0.07771804
168	0xbdd3b4b9	-0.103372045
169	0xbf06b6a1	-0.5262242
170	0xbe3cc5b0	-0.18434787
171	0xbe08d640	-0.1336298
172	0xbde21137	-0.1103844
173	0xbe354e98	-0.17705762
174	0xbe3d6119	-0.18494071
175	0xbe018c52	-0.12651184
176	0xbe07e5b9	-0.13271226
177	0xbddd2eba	-0.10799928
178	0xbdeba3a1	-0.11505819
179	0xbe053fcc	-0.13012618
180	0xbde98457	-0.11402195
181	0xbe26d2b4	-0.16291314
182	0xbe2bf06d	-0.16790934
183	0xbd96579a	-0.073409274
184	0xbdf9ee16	-0.122036144
185	0xbe55844c	-0.20851249
186	0xbe567bf4	-0.20945722
187	0xbe0feb42	-0.14054587
188	0xbe559b8e	-0.2086012
189	0xbe018edc	-0.12652153
190	0xbe235cf4	-0.15953428
191	0xbe0c1656	-0.13680395
192	0xbe3eff61	-0.18652107
193	0xbe1cc39c	-0.15308994
194	0xbe444eb2	-0.19170645
195	0xbe6c283f	-0.23062228
196	0xbe46f3f2	-0.19428995
197	0xbd955d0c	-0.07293138
198	0xbdd0f0f8	-0.10202211
199	0xbe4c095a	-0.19925442
200	0xbe0529d1	-0.13004233
201	0xbe1f0208	-0.15528119
202	0xbe270463	-0.16310267
203	0xbdf97937	-0.12181323
204	0xbe06121e	-0.13092849
205	0xbe2c498a	-0.16824928
206	0xbdeeb9a1	-0.116565
207	0xbda3132c	-0.07962641
208	0xbe1eb5d7	-0.15499054
209	0xbe0ab6eb	-0.1354634
210	0xbe2199b9	-0.15781297
211	0xbddf6a10	-0.10908902
212	0xbdc34ae7	-0.09535771
213	0xbe58ab9d	-0.21159215
214	0xbfdf9c19	-1.7469512
215	0xbf0de9ab	-0.55434674
216	0xbe1da5c7	-0.1539527
217	0xbe3ca171	-0.1842096
218	0xbe14bbeb	-0.1452481
219	0xbe44436b	-0.19166343
220	0xbe228d3c	-0.15874189
221	0xbde414dc	-0.11136791
222	0xbe1b9000	-0.1519165
223	0xbf6a724d	-0.9158066
224	0xbe5409dc	-0.20706886
225	0xbe323d61	-0.17406227
226	0xbe11e88a	-0.14248863
227	0xbdfbd067	-0.12295609
228	0xbe4437fa	-0.19161978
229	0xbe0d8199	-0.13818969
230	0xbe454f47	-0.19268523
231	0xbe3e81f5	-0.18604262
232	0xbe15d963	-0.14633708
233	0xbe520c40	-0.20512486
234	0xbe1bd1df	-0.15216778
235	0xbe0cf172	-0.13763979
236	0xbe1cc7da	-0.15310612
237	0x3c69f675	0.014279951
238	0xbe3d7ace	-0.18503878
239	0xbdee3207	-0.11630636
240	0xbe17d227	-0.1482626
241	0xbe09319e	-0.13397834
242	0xbdb5b181	-0.08871747
243	0xbe0dec28	-0.13859618
244	0xbe1251af	-0.14288972
245	0xbe6c1216	-0.23053774
246	0xbe2a5f15	-0.16637833
247	0xbe14b3d8	-0.1452173
248	0xbe1c5acf	-0.15269016
249	0xbca375a4	-0.019953556
250	0xbe118043	-0.14209084
251	0xbe0e7c52	-0.13914612
252	0xbde0b754	-0.10972467
253	0xbe127ba5	-0.14304979
254	0xbdc57ac5	-0.09642557
255	0xbe555468	-0.2083298

fc3.weight f4 [1, 300]
0	0xbddb00eb	-0.106935345
1	0x3e0b2aa9	0.13590492
2	0xbe1ee45a	-0.15516797
3	0xbddbf0d9	-0.107392974
4	0x3e0953a7	0.13410817
5	0x3e0bcd57	0.1365255
6	0xbd8a300a	-0.06747444
7	0xbd8a0722	-0.06739642
8	0x3e0a1d03	0.1348763
9	0x3e0a974d	0.13534279
10	0x3e0c477b	0.13699143
11	0x3e0ea434	0.13929826
12	0x3e090c10	0.13383508
13	0x3e0ad620	0.13558245
14	0x3e0a47f3	0.13504009
15	0xbdd768fd	-0.10518072
16	0xbddac1b0	-0.10681474
17	0xbd86948a	-0.065713
18	0x3e094d5a	0.13408414
19	0x3e0b3c8a	0.13597313
20	0xbf36db74	-0.7142861
21	0xbdd00fae	-0.10159241
22	0x3e0bff98	0.1367172
23	0xbdd94abe	-0.10609959
24	0xbf579555	-0.8421224
25	0xbe0d327c	-0.1378879
26	0xbddaccb4	-0.10683575
27	0xbdddc130	-0.10827863
28	0xbde2d34b	-0.11075457
29	0xbde01b80	-0.10942745
30	0x3e0fe655	0.14052708
31	0xbde07f7b	-0.10961815
32	0x3e09a633	0.13442306
33	0x3e09f1ca	0.13471141
34	0x3f4c1e12	0.79733384
35	0x3d641c57	0.05569109
36	0xbddfcc93	-0.10927691
37	0x3e0af78e	0.13570997
38	0xbe0d4488	-0.13795674
39	0x3e367eb8	0.17821777
40	0x3e0c0603	0.13674168
41	0xbde0ba9d	-0.10973094
42	0x3e0d2852	0.13784912
43	0x3e0a238a	0.1349012
44	0xbddcdcc3	-0.107842945
45	0xbdbc57cc	-0.091964334
46	0x3e082a1d	0.13297315
47	0xbde28be5	-0.11061839
48	0xbf456e37	-0.771213
49	0xbe3537d7	-0.17697082
50	0x3df319f3	0.11870184
51	0xbe0a9282	-0.13532451
52	0x3e0df776	0.1386393
53	0x3e3842a7	0.17994176
54	0xbdc3c86c	-0.09559712
55	0x3e35af39	0.17742623
56	0xbf59100c	-0.8479011
57	0xbe286788	-0.16445744
58	0xbd41b919	-0.047295664
59	0xbf3f3b5b	-0.74699944
60	0xbdd27e71	-0.10278023
61	0x3e37a6e5	0.17934759
62	0x3e348e02	0.17632297
63	0xbdcf8d56	-0.101343796
64	0x3e0a5660	0.13509512
65	0x3f01012f	0.5039243
66	0xbde19f09	-0.11016662
67	0xbe1f2c5a	-0.15544263
68	0x3debfe9c	0.11523172
69	0xbe36d753	-0.17855577
70	0x3e094818	0.13406408
71	0x3e0eba49	0.1393825
72	0xbddb774d	-0.10716114
73	0x3e34ccd8	0.17656267
74	0x3e0d51e0	0.13800764
75	0x3e0cd5d5	0.13753445
76	0xbdaedbda	-0.08538027
77	0x3e0c26c7	0.13686667
78	0x3e0916cc	0.13387603
79	0x3e0aefe7	0.13568078
80	0x3f451711	0.7698832
81	0x3d5ac29d	0.053408254
82	0x3e0a5503	0.13508992
83	0x3e36581e	0.17807052
84	0x3e0b33a9	0.13593926
85	0xbdcb50ee	-0.099275455
86	0x3e0b6b16	0.13615069
87	0x3e0a357d	0.13496967
88	0x3e091883	0.13388257
89	0xbdaf54b4	-0.08561078
90	0x3e3651c4	0.17804629
91	0xbdfe72a1	-0.124242075
92	0x3e0b3df1	0.13597848
93	0xbe372d59	-0.17888393
94	0xbde209c4	-0.11037019
95	0x3e0d2c81	0.13786508
96	0x3e0a47b0	0.13503909
97	0xbdd5832f	-0.10425412
98	0x3e0d0ba9	0.13773979
99	0xbdba9e1e	-0.0911219
100	0x3e095d1a	0.13414422
101	0x3e280823	0.16409354
102	0xbde43796	-0.11143415
103	0x3e0eb086	0.13934526
104	0xbe03c1fc	-0.12866968
105	0xbdca2dde	-0.0987203
106	0xbf21643c	-0.6304357
107	0x3e09923f	0.13434695
108	0x3e0e6e5a	0.13909283
109	0xbdced027	-0.10098296
110	0x3e0c7d40	0.13719654
111	0xbddd8d4a	-0.108179644
112	0xbd995959	-0.07487745
113	0xbddd9f87	-0.10821443
114	0x3e26fbff	0.16307066
115	0xbdc963b8	-0.09833473
116	0xbf53aafe	-0.8268279
117	0x3e09431e	0.1340451
118	0x3e096a1c	0.13419384
119	0x3e0df14c	0.13861579
120	0xbf0c156b	-0.5472018
121	0xbdbc5cd0	-0.0919739
122	0xbe36a06d	-0.17834635
123	0x3e09fdc4	0.1347571
124	0xbd989c80	-0.07451725
125	0xbddd56c1	-0.108075626
126	0xbdc2eb18	-0.09517497
127	0x3de5ce9b	0.112210475
128	0x3e0e90e4	0.13922459
129	0xbddfd07f	-0.10928439
130	0xbddf57f8	-0.109054506
131	0x3e0a23cb	0.13490216
132	0xbde435ae	-0.11143051
133	0xbd95326f	-0.0728501
134	0xbe373aae	-0.17893478
135	0xbde15635	-0.11002771
136	0x3e36cc56	0.17851385
137	0xbe373ffe	-0.17895505
138	0xbe21ed27	-0.15813123
139	0xbe3515ea	-0.17684141
140	0xbda02ceb	-0.078210674
141	0xbe08dc7a	-0.13365355
142	0x3e0c32e3	0.13691287
143	0x3e0b05f7	0.13576494
144	0x3e0d65d1	0.13808371
145	0xbde1a8e1	-0.11018539
146	0xbe36da6f	-0.17856763
147	0x3e09a832	0.13443068
148	0x3e0957a2	0.13412336
149	0x3e0b65b2	0.13613012
150	0x3e0ce266	0.13758239
151	0xbe0c5d7f	-0.13707541
152	0xbdd380a4	-0.103272706
153	0xbde13876	-0.10997097
154	0x3e0989a1	0.13431408
155	0x3e0bcce7	0.13652383
156	0x3e0b076f	0.13577054
157	0x3e093958	0.13400781
158	0xbdd7a12a	-0.105287865
159	0x3e0d5082	0.13800243
160	0xbdcf4686	-0.10120873
161	0xbdda0b06	-0.10646634
162	0x3e0dcc00	0.13847351
163	0xbd7b8a4a	-0.06141118
164	0x3e0b9b0f	0.13633369
165	0x3e0a9289	0.13532461
166	0x3e0e318f	0.13886093
167	0xbdc2d632	-0.09513511
168	0x3e0a87d1	0.13528372
169	0xbf3b05ee	-0.73055923
170	0x3e0cdb98	0.13755643
171	0xbdd7b939	-0.10533375
172	0xbddd4b2e	-0.10805355
173	0x3e0e1931	0.13876797
174	0x3e0bfe14	0.13671142
175	0x3e1d2ee6	0.15349922
176	0xbdb6416e	-0.088991985
177	0xbe36066d	-0.17775889
178	0xbdddc10c	-0.108278364
179	0xbd9febe9	-0.07808668
180	0x3e0c7caf	0.13719438
181	0x3e0a629c	0.13514179
182	0xbe37ee1a	-0.17961922
183	0xbd9731f8	-0.07382578
184	0x3e09585f	0.13412617
185	0xbdf68970	-0.12037933
186	0x3e13f61a	0.14449349
187	0xbe0d9b58	-0.1382879
188	0x3e0ad895	0.13559182
189	0x3e2b481e	0.1672673
190	0xbdda0b73	-0.10646715
191	0x3e0afd82	0.13573268
192	0x3e09ca69	0.1345612
193	0xbdf17cc5	-0.11791376
194	0x3df38032	0.11889686
195	0x3e0ed388	0.1394788
196	0xbde746cb	-0.112927996
197	0x3e380153	0.17969255
198	0xbde21580	-0.11039257
199	0x3e299e6c	0.1656434
200	0x3e0beab1	0.13663746
201	0xbdced87b	-0.10099884
202	0x3e0ec067	0.13940583
203	0x3e0bf35e	0.13667056
204	0x3e0b4933	0.13602142
205	0x3e0ab22e	0.13544533
206	0xbdb19c80	-0.08672428
207	0x3dfb431c	0.122686595
208	0x3e37acaa	0.1793696
209	0xbdab042f	-0.08350407
210	0x3e0a83ab	0.1352679
211	0xbde09026	-0.10964994
212	0xbde2913a	-0.11062856
213	0x3df26774	0.11836138
214	0x3f2e3749	0.6805311
215	0xbf4a2f1e	-0.78978145
216	0x3e0b5ca8	0.13609564
217	0x3e09c3f4	0.13453656
218	0x3e0aad10	0.1354258
219	0xbe36a1ac	-0.1783511
220	0x3e0dd852	0.13852051
221	0xbe3043fc	-0.17213434
222	0xbd8794ea	-0.066202
223	0x3f287040	0.6579628
224	0xbddd0050	-0.10791075
225	0x3e0c0e9a	0.13677445
226	0x3e0cbc9a	0.13743821
227	0xbde08f45	-0.109648265
228	0x3e0e3946	0.13889036
229	0xbdd12c02	-0.10213472
230	0x3e0bd115	0.13653977
231	0x3e0e2677	0.1388186
232	0x3e0a4ddb	0.13506262
233	0x3e36ca7b	0.17850678
234	0x3e156909	0.14590849
235	0xbdd6608b	-0.10467633
236	0xbda31a7a	-0.079640344
237	0x3de5afd6	0.11215179
238	0xbe35ee2c	-0.17766637
239	0x3e0b36a5	0.13595064
240	0xbdbe0b4c	-0.092794985
241	0xbdadc6fd	-0.0848522
242	0x3ded4dea	0.115871266
243	0xbd8565f3	-0.06513586
244	0x3e0b8940	0.13626575
245	0x3e0ce7a3	0.13760237
246	0x3e0bae5c	0.13640732
247	0x3e0b992a	0.13632646
248	0x3e0abfc3	0.13549714
249	0x3d5255e0	0.051351428
250	0xbdd5e8ac	-0.10444769
251	0x3e3676bc	0.17818731
252	0xbdc090e4	-0.09402636
253	0x3e0a0c3c	0.1348123
254	0xbdb791df	-0.089633696
255	0x3e0d3fce	0.13793871
