p2_continuous-control/checkpoint_critic.pth (torch_old, 542604 bytes, 5 tensors)

fcs1.weight f4 [400, 33]
000000 ae 1f 1f 3d e3 0d 7b 3e 3c 9f e1 be b5 2d 08 be
       0.03884857 0.24517016 -0.440668 -0.13298686
000010 bc cf ae 3f 88 58 93 be ad 83 dd 3c 59 6c 3f bc
       1.3657146 -0.2877848 0.027040327 -0.011683547
000020 ae 88 1a 3e 2a 1a ed be 4a 94 59 be 74 c0 ce 3e
       0.15091202 -0.46309024 -0.21247974 0.40381205
000030 03 0f 36 bd f7 0a ed bb df 45 2c bd ed c1 77 3e
       -0.04444791 -0.007233973 -0.04205882 0.2419507
000040 43 dd 46 bb 14 ec 9f bf 57 25 49 be ac d6 fd be
       -0.0030344285 -1.249392 -0.1964315 -0.49577844
000050 10 25 e7 3d 09 9e ef 3d 27 73 bb be f5 e7 b0 3d
       0.11286366 0.11700065 -0.36611292 0.08637992
000060 2b 02 7c be 8c dd eb bd 1b 70 cc 3d 61 f8 c5 3f
       -0.24610202 -0.11516866 0.0998232 1.5466424
000070 3f 77 a6 be 58 5e 03 bd 01 cf c9 bf c2 e0 a3 3c
       -0.32512853 -0.032072395 -1.5766298 0.020004634
000080 e8 7f 11 c0 2e af 69 bd fa 26 1f be 26 83 01 be
       -2.2734318 -0.05705183 -0.15542212 -0.12647685
000090 6e 8e 9c bf 02 ee 46 c0 94 c0 07 3f 6f 29 17 3e
       -1.2230966 -3.1082768 0.53028226 0.147619
0000a0 eb 52 d5 b9 6b 84 58 be 21 c4 fc bd 7c 0b 4b bd
       -0.00040688305 -0.21144263 -0.12342096 -0.0495715
0000b0 0d 5d 9e 3c eb 50 d3 bb 46 87 4f 3d 91 dd 73 3e
       0.01933148 -0.006448855 0.050666116 0.2381499
0000c0 f9 51 3b be 14 e9 01 c0 9a 59 67 bf 9c b9 f5 bd
       -0.18292989 -2.029851 -0.90371096 -0.11998293
0000d0 67 35 ee 3f d3 57 53 3d 4d bb 17 be df b7 a3 be
       1.8610047 0.051597428 -0.14817543 -0.3197622
0000e0 c9 68 e3 bc af 7f 7e 3d fa a0 83 be ef 94 39 be
       -0.027759926 0.062133487 -0.25708753 -0.1812322
0000f0 a7 0e 86 3f 8f 74 61 3e 31 04 01 3d 84 cd 75 bf
       1.0473222 0.2201712 0.031498138 -0.96016717
000100 82 43 11 bd 4e e9 ac 3f 30 98 5b 3d d6 b0 f7 be
       -0.03546477 1.3508699 0.053611934 -0.48377103
000110 30 67 45 be 5d bf e9 be f0 bb df 3d 1c 78 b7 3e
       -0.19277644 -0.4565381 0.10924518 0.35833824
000120 70 8d 26 bf f2 92 95 3c 57 0f fd 3e d5 a7 64 bf
       -0.65059566 0.018258546 0.49425766 -0.8931859
000130 cc 2b 6a 3e 54 43 98 be 71 83 36 3e d9 9e 59 be
       0.2286827 -0.29738867 0.17823578 -0.21252002
000140 fe 75 2b be ee 62 26 3e 4b 10 92 3f 44 54 4e be
       -0.16744229 0.16248676 1.1411222 -0.20149332
000150 a3 6e 13 bf 34 be 85 bf c1 ee 7d 3d 14 bc 84 3d
       -0.57590693 -1.044867 0.06199527 0.064811856
000160 7d 29 9b bd 69 f3 9f bd 3d b5 40 3e 1a 92 27 be
       -0.07576273 -0.07810099 0.18819137 -0.16364327
000170 55 2c 57 be 31 98 b4 3f 87 02 c6 3e 14 0b 42 bc
       -0.21013005 1.4108945 0.38673803 -0.011843462
000180 1f d7 b7 bf ba 54 b4 bc 80 83 3a 40 ca 92 10 bf
       -1.4362525 -0.022013057 2.9142761 -0.5647398
000190 02 1f e7 3d 20 e8 fc 3c e3 8e 5f 3d 07 23 43 3f
       0.11285211 0.030872405 0.054579627 0.7622532
0001a0 ef 84 cf 3f 9c 75 6c bf 08 60 31 bd f1 45 69 3f
       1.6212443 -0.9236696 -0.043304473 0.9112235
0001b0 b9 9f ef 3d f2 a6 30 3d 3a 2d bc be 20 8c 49 3e
       0.117003866 0.04312796 -0.36753255 0.1968236
0001c0 b9 22 a7 3d 6e 9f d4 3e 6b d8 45 3e fe 19 2c be
       0.0816092 0.41527885 0.19320838 -0.1680679
0001d0 b9 fe 0b bf 50 2f b4 3f 41 5c 67 be 73 57 a3 3e
       -0.5468555 1.4076939 -0.22593786 0.31902656
0001e0 13 76 39 3d 01 53 7a 3e af e4 d6 3d 77 f0 b5 bd
       0.04527862 0.24445726 0.10492837 -0.08883756
0001f0 77 ed 80 bd b3 81 70 3e da fb 88 3f 86 e0 3d 3e
       -0.06295293 0.23486976 1.0701859 0.1854268
000200 fa 24 00 bd 9c 79 8f bf a0 4b 88 3a 24 9d dd be
       -0.031285264 -1.1208987 0.0010398515 -0.4328395
000210 e6 20 0c bc 9e c4 02 3f df d6 30 3e 73 f0 fb 3e
       -0.0085527655 0.51081264 0.17269467 0.49206886
000220 d6 ed 9e bf b8 83 04 bf d0 f0 6f bf e1 2e f1 3c
       -1.2416332 -0.51763487 -0.93726826 0.029441299
000230 f4 c1 f0 be 0a af 37 be 12 b7 82 be 34 f9 74 3e
       -0.47022974 -0.17937866 -0.25530297 0.23923188
000240 11 e2 ac bd 14 4b 04 bd 0c 45 5c 3e ef 9d 87 bb
       -0.08441556 -0.032298163 0.21510714 -0.0041387
000250 eb 41 11 40 1c 49 d2 3e ee 03 dc bf 7f 44 a8 bb
       2.2696483 0.41071403 -1.7188699 -0.0051351185
000260 48 a2 98 3c cd 04 dc 3c 88 30 40 be 78 c9 5c 3e
       0.01863207 0.026857758 -0.18768513 0.21561229
000270 86 12 f2 3d 3b 94 8f be 1b 3f 09 bd 41 9f 5b 3f
       0.11819939 -0.28042778 -0.033507448 0.8578988
000280 bb f9 4e be f4 24 89 bc 19 36 5b bf 9f 2b 2a 3d
       -0.20212452 -0.016741253 -0.8562942 0.041545507
000290 9f ad 16 40 7b d3 8e 3e 99 23 b6 bc ec 50 aa 3e
       2.354347 0.27895722 -0.022233771 0.33264863
0002a0 a6 8c 6a be 67 e0 f2 3e d3 50 b5 be af 43 78 3f
       -0.22905216 0.4743683 -0.35413226 0.96978277
0002b0 a7 5e d4 be 7f 25 a1 3e 21 9d 12 3f a6 9a 5d bc
       -0.41478464 0.3147392 0.5727101 -0.013525641
0002c0 25 ce b8 3e ce 75 73 3e d3 7e e9 bc 41 ff be 3e
       0.36094776 0.23775408 -0.028502857 0.37304118
0002d0 b3 ed 85 3b 63 8b 39 3f 2a ba 41 bf 7b 9d 84 bf
       0.004087174 0.7247831 -0.7567469 -1.0360559
0002e0 55 5f 2b be e7 51 87 be f7 99 20 bf 3d f4 ae be
       -0.16735585 -0.26429674 -0.6273493 -0.34170714
0002f0 7b e9 d5 3e a3 68 53 3e 46 83 04 3e 23 cb f2 bd
       0.41779694 0.20645384 0.12940702 -0.118551515
000300 67 c7 99 3f 13 cc 61 bd 9d 7a 0a bd 85 c3 95 bf
       1.2013978 -0.05512626 -0.03380834 -1.1700293
000310 fa af e4 3c d3 ed 1c 3f 9c 8f 4f 3e 7b 1f cb 3d
       0.027915943 0.6130039 0.20269626 0.09918114
000320 a9 c6 40 bd 57 40 30 bf e8 62 ac bf 98 c6 1e 40
       -0.047064457 -0.68848175 -1.3467684 2.4808712
000330 5b a2 6a bf 9d 7e c1 3d be 7d c8 be 83 9d f8 be
       -0.91653985 0.09447978 -0.39158434 -0.48557672
000340 f2 5a 03 be bf 43 50 be 70 b9 82 3e 4c eb d4 3d
       -0.12827662 -0.20338343 0.25532103 0.10396442
000350 8a e9 b6 3e ac fa 2a 3e 2c d8 cc 3f 56 06 c5 3e
       0.3572505 0.16697186 1.600347 0.38481396
000360 d1 3c c9 bf 75 3b e8 3d 2e 40 df 3d eb cb 48 3c
       -1.5721685 0.113394655 0.10900913 0.012255649
000370 61 0b a7 3c 82 0e 0b be 47 8e 10 be 79 25 2c bd
       0.020391168 -0.13579753 -0.14116774 -0.042027924
000380 eb 9c 88 be 19 8a 8d 3f 5d 21 d1 bd 9a 5c b6 bc
       -0.2668222 1.1057769 -0.10211442 -0.022260953
000390 cd ee 8f bf 94 73 8b bc 15 e9 fb bf ca f7 9a bd
       -1.1244751 -0.017022885 -1.9680506 -0.07566793
0003a0 4b c6 e0 3d b4 c3 8a 3e f6 17 0f bf 34 7d 7e 3d
       0.109753214 0.27102435 -0.55895936 0.06213112
0003b0 5e e6 b8 3f 71 30 86 be e9 e7 ad be 81 82 8a bd
       1.4445302 -0.26208833 -0.33965996 -0.06763173
0003c0 ed b4 6e 3f 82 33 05 be b5 62 17 3e 23 f1 2b 3e
       0.9324482 -0.1300793 0.14783747 0.16791205
0003d0 1e 16 f6 3b 3b 64 ac be 2f dc 0f 3e d3 49 16 bf
       0.007509961 -0.3367022 0.14048837 -0.58706397
0003e0 7c 3e 95 3f a7 a2 fa 3e 7b 48 9a 3e df 03 cd 3c
       1.1659694 0.4895222 0.30133423 0.02502626
0003f0 42 f0 33 bf 18 d0 01 be b5 da ae be 56 db 7d be
       -0.7028848 -0.12677038 -0.34151235 -0.24790701

fcs1.bias f4 [400]
000000 23 b1 b4 bf de 2e 60 bf 3c 30 a6 bf 36 b8 80 bf
       -1.4116558 -0.87571514 -1.298347 -1.0056217
000010 d0 7d 46 bf 22 27 82 bf c0 40 7c bf 78 92 b5 bf
       -0.77535725 -1.0168192 -0.985363 -1.4185324
000020 0d 0d 9c bf 87 18 ac bf 47 d7 3a bf 83 7f b8 bf
       -1.2191483 -1.3444985 -0.7298474 -1.4413913
000030 28 f6 36 bf 43 6b a9 bf 53 04 90 be 14 fb 9c bf
       -0.71469355 -1.3235859 -0.281283 -1.2264123
000040 fb f4 8e bf 0b f6 96 bf c8 54 6e bf 88 b4 d2 bf
       -1.1168512 -1.1793836 -0.93098116 -1.6461344
000050 8d 7b b2 bf 4b ab 75 bf e1 8a 8f bf 28 81 10 be
       -1.3943955 -0.959645 -1.1214257 -0.14111769
000060 48 7a 82 bf 6e 83 66 bf 7b 74 be bf da 62 ca bf
       -1.0193567 -0.90044296 -1.4879297 -1.5811417
000070 f5 2b b6 bf b4 58 dc bf 84 1c bf bf c5 35 8f bf
       -1.4232165 -1.721457 -1.4930577 -1.1188284
000080 72 07 b0 bf 99 fd 29 bf b8 b7 90 bf f1 5d c5 bf
       -1.3752272 -0.66402584 -1.1306067 -1.5419294
000090 2f 16 8a bf c3 6c b4 bf c9 0e ba bf 30 fb 80 bf
       -1.078802 -1.4095691 -1.4535762 -1.0076656
0000a0 70 5e 8a bf c6 2e bd bf 87 7a 1d bf f4 0f a8 bf
       -1.081007 -1.4779899 -0.61515087 -1.3129869
0000b0 20 6b 95 bf ef 43 cf bf ca 17 3e bf b7 39 a0 bf
       -1.1673317 -1.6192607 -0.7425505 -1.2517613
0000c0 64 19 53 bf c5 0b af bf fc db 51 bf b5 c7 32 bf
       -0.8246062 -1.3675467 -0.81976295 -0.6983598
0000d0 15 d8 6e bf de b8 c6 bf ae 86 d0 bf 2b 6c c6 bf
       -0.93298465 -1.5525167 -1.6291101 -1.550176
0000e0 dd 83 30 bf 0c bf 79 bf aa 42 b1 bf 99 05 b6 bf
       -0.6895121 -0.9755714 -1.3848469 -1.4220458
0000f0 c8 60 93 bf aa 41 8d bf 52 b1 8f bf 11 20 78 bf
       -1.151391 -1.1035664 -1.1225989 -0.9692393
000100 01 0b 41 bf 0c 9b ff be 95 da d6 bf ec 98 c6 bf
       -0.75407416 -0.4992298 -1.6785456 -1.5515418
000110 36 3e d1 bf 00 43 4b bf 30 54 b1 bf d9 1c 76 bf
       -1.634711 -0.7939911 -1.3853817 -0.9613777
000120 4c 25 a1 bf ce 28 9b bf c7 5d 0b bf f1 58 58 bf
       -1.2589507 -1.2121828 -0.5443997 -0.84510714
000130 56 cb d5 bf 5a bc 98 bf 1c 7f e4 bf 5e 66 3b bf
       -1.6702678 -1.193248 -1.7851291 -0.73203075
000140 a0 bd ca bf 6e 37 63 be ab d2 cd bf 89 46 c9 bf
       -1.5839119 -0.22189113 -1.6079916 -1.5724651
000150 eb 81 c5 bf 22 2e 50 bf bb 14 32 bf 84 50 62 bf
       -1.5430273 -0.81320393 -0.6956288 -0.8840411
000160 80 dd ca bf 67 1d e1 be fa ab 9d 3e ab 3d 81 bf
       -1.5848846 -0.43967745 0.3079527 -1.0096945
000170 5d 4b 31 bf e4 5a 11 bf 3d 94 ca bf f2 01 d5 bf
       -0.6925562 -0.56779313 -1.5826489 -1.6641219
000180 67 06 fd be cb d7 62 bf 78 23 71 bf d3 60 c5 bf
       -0.49418947 -0.88610524 -0.94194746 -1.5420173
000190 31 a4 e4 bf e6 d6 b1 bf 58 e3 69 bf 80 40 b5 bf
       -1.7862607 -1.3893707 -0.91362524 -1.4160309
0001a0 f3 21 bc bf d1 1d 8b bf 96 7b 84 bf b1 f4 7e bf
       -1.469786 -1.0868474 -1.0350215 -0.9959212
0001b0 ea 9d 61 bf 90 5a b4 bf 61 08 9a bf 18 e7 b5 bf
       -0.8813158 -1.4090137 -1.2033807 -1.4211149
0001c0 04 c9 cd bf b2 ef 9e bf 82 85 93 bf eb b2 f7 bf
       -1.607697 -1.2416899 -1.1525118 -1.9351476
0001d0 d5 34 51 bf 3c 8f 49 bf ab 6b ac bf d5 d2 b9 bf
       -0.8172124 -0.78734183 -1.3470358 -1.4517466
0001e0 69 80 97 bf 58 e1 99 bf b2 ad 53 bf a4 38 73 bf
       -1.1836063 -1.2021894 -0.82686913 -0.950083
0001f0 f2 10 a0 bf 17 45 9f bf 38 45 ae bf d4 a5 29 bf
       -1.2505171 -1.244296 -1.3614874 -0.6626866
000200 45 96 ac bf b3 2d 9d bf 46 73 8c bf c0 6e a6 bf
       -1.3483359 -1.2279571 -1.0972679 -1.3002548
000210 c5 9c c0 bf 57 7f ef bf 89 bf c1 be bf 22 3a bf
       -1.5047842 -1.8710736 -0.37841442 -0.7270927
000220 5a b7 93 bf ad 21 67 bf 3d 8a af bf 80 2a 96 bf
       -1.154033 -0.9028576 -1.3714062 -1.173172
000230 db e1 f8 be 20 7a 94 bf ea 59 9f bf 24 80 bf bf
       -0.48609814 -1.159977 -1.2449315 -1.496098
000240 8a 43 a5 bf 3f c2 dc bf 7f 0b 69 bf 67 33 a7 bf
       -1.2911236 -1.7246779 -0.91033167 -1.3062562
000250 f5 f1 ac bf 49 e7 9d bf 14 19 87 bf 38 5c 51 bf
       -1.351134 -1.2336208 -1.0554528 -0.8178134
000260 1f fa b8 bf a6 d5 68 bf 23 9d 08 c0 f7 b4 6b bf
       -1.4451331 -0.90951 -2.1345909 -0.92073005
000270 03 da df bf ad ef ca bf a4 89 ea bf 13 e9 47 bf
       -1.7488407 -1.5854393 -1.8323255 -0.7809002
000280 5e e1 9a bf a2 d1 a6 bf c5 19 a1 bf de f7 dc bf
       -1.2100027 -1.3032725 -1.2585989 -1.7263143
000290 40 fd 75 bf a9 d4 bc bf e7 e9 c0 bf 4b 18 b1 bf
       -0.96089554 -1.4752399 -1.5071381 -1.3835539
0002a0 3e 08 c7 bf 01 57 ac bf 0e 36 bc bf 6a 0a 31 bf
       -1.554939 -1.3464051 -1.4703996 -0.69156516
0002b0 58 75 bd bf f2 7a 87 bf a7 ea b4 bf f4 01 b9 bf
       -1.4801435 -1.0584395 -1.413411 -1.4453721
0002c0 f8 10 f4 bf e6 57 82 bf 9d 5a 93 bf 86 d5 aa bf
       -1.9067678 -1.0183074 -1.1512028 -1.3346412
0002d0 e4 b4 98 be 58 ce 95 bf de f0 39 bf 9e b9 7b bf
       -0.2982551 -1.1703596 -0.7263316 -0.98330104
0002e0 51 f2 cd bf 4a 0f 98 bf 25 79 a0 bf 6e 4a 62 bf
       -1.6089574 -1.1879666 -1.253697 -0.8839482
0002f0 8e 47 58 bf a2 3e ae bf 40 c2 c7 bf 9b db 1e bf
       -0.84484184 -1.3612864 -1.5606155 -0.6205384
000300 36 b1 d6 bf 1d 25 ad bf 9f 4a 8f bf 7d d1 96 bf
       -1.677283 -1.3526951 -1.1194648 -1.1782681
000310 8e 99 97 bf 88 6a f0 bf 49 bc de bf f1 d5 a7 bf
       -1.1843736 -1.8782511 -1.740121 -1.3112165
000320 96 b4 f5 be 6d ad 43 bf 51 b6 a5 bf 67 ba d6 bf
       -0.4798934 -0.764365 -1.2946264 -1.6775635
000330 0a f2 b4 bf 5a e9 e4 bf 8b 59 cb bf 85 ca f0 bf
       -1.4136364 -1.7883713 -1.5886701 -1.8811804
000340 e5 27 ac bf d3 09 b4 bf b1 9c a0 bf f9 f0 d0 bf
       -1.3449675 -1.4065498 -1.2547818 -1.6323539
000350 78 1a 03 c0 57 4f c1 bf 6b c8 a7 bf 83 fb 78 bf
       -2.0484905 -1.5102338 -1.3108038 -0.97258776
000360 ca 27 a8 bf 75 76 9a 3c 82 11 8c bf 96 e4 06 bf
       -1.3137143 0.018855313 -1.0942843 -0.52692544
000370 58 84 ed bf 7b 13 bf bf ab aa 85 bf 01 05 a2 bf
       -1.8556013 -1.492782 -1.0442709 -1.2657777
000380 82 ed c5 bf fb 3f 98 bf 35 12 72 bf bc 3b 9d bf
       -1.5463107 -1.1894525 -0.9455903 -1.2283854
000390 ae 65 49 bf d3 42 b2 bf a1 31 bf bf ec de de bf
       -0.78670776 -1.3926643 -1.493702 -1.741178
0003a0 ce 0c 0b c0 f4 f1 a9 bf 84 7b de bf 71 d0 23 bf
       -2.1726565 -1.3276963 -1.7381444 -0.6398993
0003b0 c9 56 9f be 70 bc 9c bf b0 30 4c bf 04 90 7b bf
       -0.311209 -1.2245007 -0.7976179 -0.98266625
0003c0 c0 ef 9e bf 6c a1 af bf 89 8b fe be 1c 47 2e bf
       -1.2416916 -1.3721137 -0.49715832 -0.68077254
0003d0 53 dc ad bf d1 3b 7f bf 3c 5f b9 bf 55 0a c2 bf
       -1.3582863 -0.9970065 -1.4482188 -1.5159403
0003e0 b8 2e b6 bf 62 3d 78 bf c1 ae c0 bf 63 52 ec bf
       -1.4233007 -0.9696866 -1.5053331 -1.8462642
0003f0 d1 94 3c bf 36 d2 c4 bf fd f8 29 bf e1 b3 91 bf
       -0.73664576 -1.5376651 -0.6639555 -1.138302

fc2.weight f4 [300, 404]
000000 05 c2 0e 3d c3 16 05 be d7 01 0e bf d7 9c 2c bb
       0.034853 -0.12996964 -0.5547156 -0.00263386
000010 84 80 0f be be c5 d3 3e a6 1a 64 bf 6b 5d 2c be
       -0.14013869 0.41361803 -0.8910316 -0.16832511
000020 18 a1 12 bd ef b4 07 be a2 e5 c9 be 44 72 a1 3d
       -0.035798162 -0.13252614 -0.39433008 0.078831226
000030 9e 65 09 3e e3 85 81 be a3 a3 49 bf 28 ed 73 be
       0.1341767 -0.2529746 -0.78765315 -0.23820937
000040 d9 5a 14 3f 3d e5 2c 3d de 12 21 3d 38 b8 81 be
       0.5795112 0.042210806 0.039324634 -0.2533586
000050 a4 8b ca be c8 ce 3d bd 4d 37 d7 bd d3 db 62 be
       -0.39559662 -0.04633978 -0.10508595 -0.22154169
000060 63 f4 a7 be f5 35 40 3e 12 56 f1 be 13 f4 df bd
       -0.3280364 0.18770583 -0.4713598 -0.10935225
000070 f0 11 ca be a1 fe 21 bc f9 f0 fb be 78 10 b4 3d
       -0.3946681 -0.009887368 -0.49207285 0.08792204
000080 5f 1f f8 be 62 9f 59 bc 5d f5 1f be 63 46 28 be
       -0.48461434 -0.013282629 -0.15620942 -0.164331
000090 70 3f 41 be e6 ad 5f be 22 79 8d be 38 67 3f be
       -0.18871856 -0.2184368 -0.2763148 -0.18691719
0000a0 e0 d7 c8 bd fc 71 8d be 52 c2 b6 be 15 60 dd be
       -0.098068 -0.27626026 -0.3569513 -0.43237367
0000b0 ee 8b ac 3e 7e cb 33 bf 94 36 17 3e 1a 72 33 3e
       0.33700508 -0.7023238 0.14766914 0.17523995
0000c0 70 8f 6c 3d 95 ab d1 be bf 60 04 3f 31 88 c9 be
       0.05775398 -0.4095122 0.5171012 -0.39361718
0000d0 ae 40 2c be c9 12 6e bd db da 06 bd 77 18 74 be
       -0.16821548 -0.058123384 -0.03292356 -0.23837458
0000e0 06 c5 bb be 11 88 8a 3e 4f c3 a4 be 7c dd 48 be
       -0.36673754 0.27056935 -0.3218026 -0.1961574
0000f0 57 d0 68 bd ee 09 81 3d 9d 95 a1 bd b0 51 94 3e
       -0.056839313 0.06300722 -0.078898646 0.28968573
000100 bb c9 b8 be 40 60 bf be 99 1c d1 be 75 bd ad be
       -0.36091408 -0.3737812 -0.4084213 -0.33933607
000110 9d bf 0e 3d d7 cf 03 3c d1 f7 5a bd 96 87 c5 be
       0.034850705 0.008045158 -0.053458992 -0.38580006
000120 9f 56 9a be d0 cb 50 3e 0b 1a b6 3d e8 41 bf be
       -0.30144212 0.20390248 0.08891686 -0.3735497
000130 5c 71 53 be ea e1 c5 3e 3c 1c ac 3c a0 2e 62 3e
       -0.20648712 0.3864892 0.021009557 0.22088099
000140 eb f9 07 be 91 1d ff bd 1a 5c b7 bd 6a 2d 20 3d
       -0.1327893 -0.12456811 -0.08953114 0.03910581
000150 ec 3c 84 bb 24 89 24 bf 32 e4 78 be d8 63 8f bd
       -0.0040355828 -0.6427176 -0.243058 -0.070014656
000160 58 6f 43 3e bc c4 8a bd 31 f4 2a be c1 72 9e bd
       0.19085443 -0.06775805 -0.16694714 -0.07736731
000170 b9 5b 32 be 03 19 6e bd 8a 99 20 3e 3e 40 6c 3c
       -0.17417802 -0.05812932 0.1568357 0.014419613
000180 ba b6 3f bf 43 f3 a1 be 01 11 d9 be c3 ad 5a be
       -0.74888194 -0.31630906 -0.42395785 -0.21355347
000190 d9 ab 66 bd 1e 0e 76 be d5 94 d5 be b2 54 82 3d
       -0.05631623 -0.24028823 -0.41715112 0.063638106
0001a0 61 8e 05 bf ed 1d a8 3d 97 c0 bc be 06 dd e8 3d
       -0.5217038 0.08208833 -0.36865684 0.11370282
0001b0 37 33 8c be 66 3b 14 3e 64 43 22 3d 35 f7 d9 be
       -0.27382824 0.14475784 0.03961505 -0.42571416
0001c0 93 6b 9e 3e 97 a0 46 be a8 c8 0c be 03 0a f0 bd
       0.30941448 -0.19397198 -0.1374842 -0.117206596
0001d0 c6 82 7f be 8e 7f e9 be 1b c9 c4 be e3 a3 e1 bd
       -0.2495223 -0.4560513 -0.3843468 -0.11017587
0001e0 3e c9 07 3d e5 eb b9 bd 18 96 ee 3d 2e 97 a9 bd
       0.033150904 -0.090781964 0.11649722 -0.08280788
0001f0 06 75 ea be b7 fa f2 bd d7 9b d4 be 22 f4 63 bd
       -0.45792407 -0.11864226 -0.41525146 -0.055652745
000200 c5 48 0f be 40 89 87 bd 4e 63 4c 3e 08 15 b7 be
       -0.13992603 -0.06617975 0.19959757 -0.35758233
000210 b4 9f 03 3d 72 e2 42 be 69 a6 b2 be da bf ba bd
       0.032134727 -0.19031695 -0.34892586 -0.09118624
000220 02 67 23 bf 5b 0f 43 be e2 53 e0 bb 29 3c 1b 3e
       -0.6382905 -0.19048826 -0.006845937 0.15159668
000230 fc 8c 36 bf 7a 68 72 be 31 c2 45 be b3 68 b2 be
       -0.71308875 -0.23672667 -0.1931236 -0.34845504
000240 32 a9 f1 bd 56 f6 a5 bd 68 d6 9b be 74 e9 68 be
       -0.117998496 -0.081036255 -0.30437016 -0.22745305
000250 18 dc d8 be 76 e9 cc bb e8 53 93 be c0 9a 72 be
       -0.42355418 -0.0062534166 -0.28774953 -0.23691845
000260 b9 a6 14 bc c6 35 60 be 4c 97 9d bd 97 ab f7 be
       -0.009072953 -0.21895513 -0.07694873 -0.483731
000270 cb 0e 47 be e6 4e ec be 7c 29 f0 bd 8f ac d2 be
       -0.19439237 -0.46153945 -0.117266625 -0.41147277
000280 5f c1 b3 be 17 f0 98 bd 33 4b e1 bd f3 4d 9d 3e
       -0.35108468 -0.074676685 -0.11000671 0.30723533
000290 c0 09 08 bf 3a 4b 11 be 1a 1d ef be 7a 74 b1 be
       -0.5313988 -0.14188853 -0.4670189 -0.34659177
0002a0 72 23 bd 3d 1b 2f bb bd dc 8f c2 bd 78 a8 b8 bd
       0.09235276 -0.09139844 -0.09500095 -0.09016508
0002b0 cb f5 c4 be e9 f3 8c be f9 9a 28 be bc e3 78 be
       -0.38468775 -0.2752984 -0.16465367 -0.24305624
0002c0 3e f7 60 be 06 df fc bd 58 c1 8a 3c dd ef d7 bc
       -0.21969315 -0.12347226 0.016937897 -0.026359493
0002d0 2a d4 57 be d8 ab 15 be 86 c9 c7 3c 4c 40 ba be
       -0.21077028 -0.14616334 0.024388086 -0.3637718
0002e0 18 f1 e4 be 39 a5 80 be 09 f9 e6 be 01 9a df be
       -0.4471519 -0.25126055 -0.45111874 -0.43672183
0002f0 28 d9 cf be af 95 53 be 82 2d 82 be 68 31 d0 bd
       -0.40595365 -0.20662569 -0.25425345 -0.101656735
000300 30 b3 34 be 7d d5 b4 be e2 4d 9a be f2 b4 a4 bd
       -0.1764648 -0.3531913 -0.30137545 -0.08042325
000310 80 6a 8c 3c 57 f0 65 be 40 d5 75 bb 60 ad 7b 3e
       0.017140627 -0.22454964 -0.003751114 0.24577856
000320 7a eb 2e be c6 e2 07 bf ef 7e 34 3e f3 b6 31 be
       -0.17082015 -0.53080404 0.17626546 -0.17354946
000330 90 a4 ad bd 4b d4 11 bc b3 08 b9 bd 42 6c 3e be
       -0.084786534 -0.008900712 -0.09034862 -0.18595985
000340 5e e4 8b be 8b df 03 be 84 55 8c 3e cb 11 39 3e
       -0.27322668 -0.12878244 0.27408993 0.18073194
000350 ac dd 26 3d a2 5d da 38 87 d0 61 3d fc 8f e3 be
       0.040738747 0.000104124905 0.055130508 -0.4444579
000360 75 ec 9c be c1 6b 06 3e 31 b2 bc bd b8 4f 4f be
       -0.30649152 0.13127042 -0.09213675 -0.20245254
000370 22 9a 2f be 0f 40 0b be a3 13 03 bf da 64 4c bf
       -0.17148641 -0.13598655 -0.5120184 -0.7984139
000380 62 c1 a4 be 2a b3 54 be 0b 8e 59 3d cd 24 6d 3e
       -0.3217879 -0.2077147 0.05311398 0.2315857
000390 63 3b c7 be d5 73 b3 be ea da 0e be f4 0f 11 be
       -0.38912496 -0.3504931 -0.13950697 -0.14166242
0003a0 c2 84 9d 3c 41 41 6c bf f2 a8 b3 bd b4 29 13 be
       0.019228343 -0.9228707 -0.08772458 -0.14371377
0003b0 bb cd 5f bd 89 1c ac be b1 9c 1d bf fe f7 83 bd
       -0.05463956 -0.3361552 -0.6156722 -0.06443785
0003c0 9d 72 cd be 4e e4 e4 be f6 70 8f be 8e 20 c4 bc
       -0.40126505 -0.44705433 -0.2801587 -0.023941305
0003d0 85 a3 36 3d e2 40 9b be ab 41 6d be b3 b3 47 bd
       0.044589538 -0.3032294 -0.23169582 -0.04875536
0003e0 52 e1 ea bd d0 a2 e2 be b4 73 9e be 65 9b 70 be
       -0.11468758 -0.4426484 -0.3094765 -0.23496778
0003f0 32 43 18 bf 8d a4 e5 be e9 ae 6a 3d 02 78 75 be
       -0.5947753 -0.44852105 0.057295714 -0.2397156

fc2.bias f4 [300]
000000 1f c2 c1 be ee e7 bd bd 16 e0 4b bf b8 ba bd bd
       -0.37843415 -0.09272753 -0.79638803 -0.092641294
000010 06 33 ca bd 34 aa e2 bd 47 c0 98 bd ad 5e 03 be
       -0.09873013 -0.1106762 -0.07458549 -0.12829085
000020 f3 11 77 3e ce ec 42 bf 27 a5 8e bd 18 43 bb bd
       0.24127941 -0.76142585 -0.06965094 -0.091436565
000030 3d e5 a9 bc 15 4c c4 bd c4 15 d2 3e f6 e2 07 be
       -0.020739192 -0.09584824 0.4103223 -0.13270172
000040 1f 11 bc bd 11 3d dc bd 3e 91 78 bd 6f 69 b6 bd
       -0.09182953 -0.10753835 -0.06068539 -0.089068286
000050 99 38 21 bd 16 50 05 be b4 ab 9c bd 08 e2 da bd
       -0.039360616 -0.13018832 -0.07649937 -0.10687643
000060 b2 3b b8 bd 8d 3d dc bd 52 fe 3f 3e 7a d6 88 bd
       -0.08995761 -0.107539274 0.18749359 -0.06681533
000070 82 20 1d be b1 58 b4 3e 03 74 0e be 61 c6 ac 3f
       -0.15344432 0.35223916 -0.13911442 1.349804
000080 89 1c 4b bd 56 f7 0d 3d f6 74 b8 bd 00 0f 61 bd
       -0.04958776 0.034659706 -0.090066835 -0.054945946
000090 1a 69 13 be 69 e4 0e be b1 75 0b be c1 d1 7e bd
       -0.14395562 -0.13954319 -0.13619114 -0.062211756
0000a0 ce 28 69 be 1e d2 23 bd ad f0 1f 3f 9d f7 0d bd
       -0.22769472 -0.039995305 0.6247662 -0.03465997
0000b0 23 44 ea bd 1f 7e a5 bd 03 72 bd bd 01 b1 e1 3e
       -0.11438777 -0.08080696 -0.09250262 0.44080356
0000c0 41 a5 81 bd 2d d9 e1 bd ec fe 5a bd 4b d4 8d bd
       -0.06330348 -0.11027751 -0.05346577 -0.06925257
0000d0 18 0b cc bd 2c e5 18 be ff 6e 44 be 67 c0 ec bd
       -0.099630535 -0.14931172 -0.19182967 -0.11560135
0000e0 e4 c4 9e bd 4a 79 08 be 1f 25 fa bd 9e 1c 6a be
       -0.07752398 -0.13327518 -0.122141115 -0.22862479
0000f0 85 09 3c be 9d 32 26 bd 7f 22 4e bd 2a 48 b0 bd
       -0.18363006 -0.040575612 -0.050325867 -0.08607514
000100 f3 6c 65 be 02 ab b9 be a6 48 1e 40 d2 f2 46 bd
       -0.22404842 -0.3626328 2.473184 -0.048571415
000110 ab a9 af bd 0c be 08 be 7f c0 07 be b0 e5 b0 bd
       -0.085772835 -0.13353747 -0.13257025 -0.086375594
000120 96 8d cf bd 35 84 0f bd 4f 28 0c 3e 56 01 7b bd
       -0.10134427 -0.03503819 0.13687252 -0.06128057
000130 84 28 ab 3e b7 b2 d4 3e 95 7f 02 be de cb 04 be
       0.33429348 0.415426 -0.12743981 -0.12968394
000140 fc 36 10 be cf 8a a7 bd be 13 9c bd f9 69 0d be
       -0.14083475 -0.081807725 -0.07620953 -0.13809957
000150 07 d4 0f bd 3c 04 f9 bd 00 af 3e be 04 3b 1b be
       -0.035114314 -0.12159011 -0.18621445 -0.15159231
000160 75 4e 03 be d3 c9 f3 bd 58 7d d6 bb 90 f1 30 be
       -0.12822898 -0.11903729 -0.006545704 -0.17279649
000170 3b 6a 02 be d1 6e 05 be e9 56 df bd 14 61 ef bd
       -0.12735836 -0.13030554 -0.10905249 -0.11688438
000180 fd b3 c1 bd cb 84 cb bd 0b 1c 5c bd 75 aa 86 be
       -0.09458158 -0.099374376 -0.05373768 -0.26301923
000190 10 ca e9 bd 26 ca 29 be 60 ff b1 bd 51 f1 79 3f
       -0.114154935 -0.1658102 -0.08691287 0.97633845
0001a0 76 28 3b 3f d5 64 e3 bd 86 ff 0c bd cc 5b 19 be
       0.73108613 -0.111032166 -0.034423374 -0.14976424
0001b0 e3 64 a0 bd ed 5b b9 bd bb d9 9f bd 8d 35 17 be
       -0.078317426 -0.090507366 -0.07805201 -0.14766522
0001c0 58 e6 a0 3f b0 fe a4 bd 07 b0 fe bd 87 dc 56 3f
       1.2570295 -0.0805639 -0.12435918 0.8393025
0001d0 a1 ce 18 be b9 a8 87 bd 0a 56 a9 be 48 88 17 bf
       -0.14922573 -0.06623978 -0.33073455 -0.59192324
0001e0 01 fe 39 be 64 3a 61 3f 37 1b e4 bc 14 96 10 be
       -0.18163301 0.8797972 -0.027845008 -0.1411975
0001f0 ac 17 f3 bd 26 49 25 be f0 55 36 be 94 d1 2c be
       -0.118697494 -0.16141185 -0.1780622 -0.16876823
000200 78 aa 08 bd 30 ec d2 bd d8 ed b9 3e 2e bc 5c bd
       -0.033365697 -0.102989554 0.36314273 -0.0538904
000210 c4 a9 a3 bd 15 9e 0e bf 6b c0 32 be ce 40 ac bd
       -0.079913646 -0.55709964 -0.17456214 -0.08410798
000220 2d cd 06 be 4d bf 28 be 9d 7b df 3e 72 9d 05 be
       -0.13164206 -0.16479225 0.43648997 -0.13048342
000230 fa 53 f7 bd a2 b9 53 be 2c a9 95 bd 49 02 0d be
       -0.12076564 -0.20676282 -0.073076576 -0.13770403
000240 71 21 89 bd 85 c3 21 bd 43 e1 1c be 89 83 89 bd
       -0.066958316 -0.039493103 -0.15320306 -0.067145415
000250 2d 9f 3f bd 33 64 b7 bd 97 6f cc bd 8b 26 b8 bd
       -0.04678266 -0.08954658 -0.099822216 -0.089917265
000260 76 32 24 be aa ee 76 be fd 20 bb 3e 50 ab 11 be
       -0.16034874 -0.2411448 0.36548606 -0.14225507
000270 94 02 f8 bd 3f d9 97 bd 5a 31 be be 11 2a 0d be
       -0.12109867 -0.07414483 -0.37147027 -0.13785578
000280 b7 26 02 be 3b 22 24 be 3d c4 1e be d9 ad 83 bd
       -0.12710081 -0.16028683 -0.15504546 -0.06429643
000290 54 42 1a be 07 26 70 3e 06 54 b0 bd 43 b3 e7 bd
       -0.15064365 0.23452006 -0.08609776 -0.11313488
0002a0 fb 85 f7 be 6a 6e b3 3d 1d ed 8b bd 19 da 9f bd
       -0.48344406 0.08761294 -0.06832335 -0.07805271
0002b0 c1 82 66 bd b5 1d 04 be 44 e6 13 be 06 36 ec bd
       -0.05627704 -0.12901957 -0.14443308 -0.11533742
0002c0 a0 b7 e8 bd 8a 66 32 3e db cc 42 be f0 d6 81 bd
       -0.11363149 0.17421928 -0.19023459 -0.06339824
0002d0 2e 37 06 be 0e f5 09 be f9 e8 0e 3e 6a 7b 94 bd
       -0.13106987 -0.13472387 0.1395606 -0.07250102
0002e0 73 32 f0 bd 30 83 9f bd c1 af 08 be 63 b0 08 be
       -0.117283724 -0.07788694 -0.13348295 -0.13348536
0002f0 b2 07 a6 bd ee d3 5d bd a0 6b dc bd 27 d3 03 be
       -0.081069365 -0.05415719 -0.10762715 -0.12873517
000300 48 ab ef bd b8 2e a0 bd fb bc c5 bd 77 37 79 bd
       -0.11702591 -0.07821411 -0.09655186 -0.06084391
000310 6e 15 b7 bd 1f 7e 98 bd 27 ee d9 bc c5 d9 68 bd
       -0.08939634 -0.07445931 -0.026602818 -0.056848306
000320 c7 e2 d3 bd 18 a0 7a bd 26 12 47 bd e4 42 8c bd
       -0.10345989 -0.061187834 -0.048601292 -0.06848696
000330 67 36 17 be e4 67 af bd f3 65 fe bd a9 8e f6 bd
       -0.14766847 -0.085647374 -0.12421789 -0.12038929
000340 1f 5d 52 3f df d2 1d bd 29 7d 02 be 79 e9 ae bd
       0.8217334 -0.03853118 -0.12743057 -0.08540625
000350 57 d2 7a 3e 6c 49 2a 3f 44 43 ae bd 1f ce 11 be
       0.24494301 0.6651828 -0.08508924 -0.14238785
000360 fc 32 e1 bd db b7 f1 bd d3 4c 2f bd 62 90 08 be
       -0.109960526 -0.11802646 -0.042797875 -0.13336328
000370 78 d5 72 bd 12 6f 12 be f6 46 c8 bd ae 0e b3 bd
       -0.05928561 -0.14300182 -0.0977916 -0.08743034
000380 5b d7 9c bd 47 92 9c bd 2f 68 d4 bd 8d 6c 96 3e
       -0.07658263 -0.07645088 -0.10371434 0.29379693
000390 fc 48 de bd 51 29 0e be 74 63 76 bd 27 16 eb bd
       -0.108537644 -0.13882948 -0.06015344 -0.114788346
0003a0 23 62 14 be 24 62 c5 be 25 c5 e0 bd 74 b0 38 3f
       -0.14490561 -0.38551438 -0.10975102 0.72144246
0003b0 30 69 8f bd 96 0e 33 be d2 b5 13 3f 1b ea 56 bd
       -0.07002485 -0.17486033 0.5769931 -0.052469354
0003c0 3d 96 e3 bd 62 e5 f2 bd 43 0f 47 3f 0a 4e 0f be
       -0.1111264 -0.118601575 0.7775766 -0.13994613
0003d0 cf 8f 85 bd d6 48 39 3f f5 42 43 3f 13 74 23 be
       -0.0652157 0.72376764 0.76274043 -0.15962248
0003e0 6b d7 af bd 5a c1 9b bd 87 07 2a be 30 60 0b bd
       -0.085860096 -0.07605238 -0.16604434 -0.03402728
0003f0 dd d8 af bd 85 01 b5 bd 04 f6 f7 bd e8 44 2a be
       -0.08586285 -0.088381805 -0.12107471 -0.16627848

fc3.weight f4 [1, 300]
000000 84 1c a8 bc 72 dc 7f bc 11 10 64 bd 7b 0f 9e bb
       -0.02052141 -0.015616523 -0.055679385 -0.0048236228
000010 d5 06 d5 bb 14 56 e1 bb 12 cd af bc 1e 7a 96 bb
       -0.0065010586 -0.0068767164 -0.02146009 -0.004592194
000020 04 1c 4f 3c 34 49 47 bc 70 5e 1b 3c d0 c8 86 bc
       0.012640957 -0.012163449 0.009482965 -0.016453177
000030 07 69 ee bb 37 fd af 3b 93 d3 25 3d ba d7 f8 3b
       -0.007275704 0.0053707617 0.040484976 0.007594076
000040 f3 60 90 bd ab 8f 1a bc 8e 07 93 3b e3 84 be 3d
       -0.070497416 -0.009433667 0.0044869846 0.0930269
000050 ba 44 50 bb 1b da c3 bc 07 9d 6e 3b 38 3f 8d 3b
       -0.0031779245 -0.023907712 0.0036409514 0.004310515
000060 fe db eb 3b c6 b6 e4 bc 16 66 fd 3c 56 f5 d8 bb
       0.007197856 -0.027919184 0.030932467 -0.006621043
000070 bd c0 b8 bc 4e 1f 80 3d db fc b5 3c 73 86 01 3d
       -0.022552842 0.06255971 0.022215297 0.03162236
000080 3b eb c4 3c 8e 73 ca 3c a0 ee 96 bb 3f cc 52 3c
       0.024037948 0.024713304 -0.004606083 0.012866079
000090 8b f6 7d ba d2 55 f5 3c 5d 36 12 3c 39 ee 21 bc
       -0.0009687922 0.029948149 0.008924094 -0.009883457
0000a0 6b c4 1d bc 7d c5 da bc 6b 46 bc 3c 53 bb bc bc
       -0.009629349 -0.026705498 0.022982797 -0.023038542
0000b0 a5 6e c2 bb 4d 87 61 bc 90 f4 80 3b e4 ba b5 3d
       -0.0059336 -0.013765168 0.003935404 0.08873537
0000c0 70 d6 e1 3b 41 70 ba bc ac 2c fb 3b e2 01 45 bb
       0.006892018 -0.022758605 0.0076652374 -0.0030060937
0000d0 52 e0 80 bc 70 95 e4 ba 1d b2 79 bc 47 b2 b6 bc
       -0.015731964 -0.0017439555 -0.015240219 -0.022301806
0000e0 c6 07 c3 3c 24 f6 c1 bb 59 f0 71 bc 5e 22 e8 3c
       0.023807418 -0.005919235 -0.014766776 0.0283367
0000f0 4a 99 e2 3b f1 26 5e 3b df 7e 3a ba af 50 70 3c
       0.006915246 0.0033897723 -0.0007114242 0.014667674
000100 49 e1 e5 3c e9 ca da ba 9d 44 de 3c d3 89 83 3b
       0.028061526 -0.0016692552 0.027132327 0.0040142327
000110 de 3a 1f 3c 35 be 64 3a 70 ee b9 3b 76 51 32 3c
       0.009718625 0.0008725853 0.005674176 0.01088368
000120 bc 3b 6d bc 1c 57 8c 3c 0b ba 06 3d 5c a4 97 b6
       -0.014479574 0.01713138 0.03289227 -4.5192846e-06
000130 7b cb fc 3c 41 af 55 bc 61 39 64 3b ee 4f 89 bc
       0.030858746 -0.013042272 0.003482424 -0.016761746
000140 f0 83 be bc 9c 6d 95 ba 1f bd 32 bc 58 93 d2 3c
       -0.023256272 -0.0011400464 -0.010909348 0.025705025
000150 a1 c1 2f 3c c5 25 ff bc e0 e3 1a bd cc 11 82 3c
       0.010727317 -0.03114594 -0.037814975 0.015877627
000160 06 b8 99 3a dd 14 34 bc a0 d7 17 3c 1a d5 6a 3c
       0.0011727817 -0.010991302 0.009267718 0.014333034
000170 5c a5 5a bc 2d 9a b8 3b 9e 6d e0 3c 56 11 1a 3b
       -0.013345089 0.0056336136 0.02739602 0.0023508868
000180 70 1b b3 3c 59 6e 61 3c 6d 3f 4a 3c e0 46 f9 bd
       0.02186367 0.013759219 0.012344223 -0.121717215
000190 23 45 89 3c 8e 80 22 bc 5d 9f 68 bc 6c 5d 3d 3d
       0.0167566 -0.009918345 -0.014198151 0.046231672
0001a0 cb 66 05 3d 1d 19 eb 3c 5f 3b 00 3c fb a6 72 3c
       0.032568734 0.028698498 0.007826655 0.014810319
0001b0 c5 38 3b b9 ed 84 d7 3c 75 d5 1a bc a0 ec 6e bc
       -0.00017854858 0.026308501 -0.009450306 -0.014582783
0001c0 a7 e0 1c 3d 12 c7 f2 3c 6c b4 35 3b f8 d4 3f 3d
       0.038300183 0.02963594 0.0027725948 0.046833962
0001d0 24 2e 1b 3c 85 9d 3e bc 43 80 c6 3c 1d ab 65 bc
       0.00947145 -0.011634235 0.024231082 -0.014017847
0001e0 e0 38 0e bd cb 41 30 3d 2e fd c5 bc 3b 05 da bc
       -0.03472221 0.043031495 -0.024168577 -0.026613822
0001f0 a4 80 b5 3c eb ae 2e bb e6 59 4b 3a e5 d0 20 bd
       0.022156067 -0.0026654552 0.00077572314 -0.039261717
000200 87 92 b1 3b 4f 98 07 3c d6 2f 61 3d 8a 8b 2d bd
       0.0054190787 0.008276059 0.05497726 -0.042369403
000210 3b 85 ba 3c ce c5 d7 bc 70 d6 6e 3c 3d 90 59 bc
       0.022768607 -0.026339438 0.014577493 -0.013279018
000220 eb 7d 9f 3b 1c a7 ac 3a ba 24 4e 3d f0 75 1f bc
       0.0048673055 0.0013172361 0.050327994 -0.009732708
000230 2d e4 f9 3b 13 b8 eb 3c e0 24 38 3c ab 10 af bb
       0.0076260776 0.028774297 0.01123926 -0.005342563
000240 94 94 2b 3c 1d d8 03 bc f9 38 d5 3c bc b7 e7 bc
       0.0104724355 -0.008047131 0.026028143 -0.028285854
000250 b5 16 47 bb b1 5a 14 bc 4e c3 9c bb b7 b8 78 bc
       -0.0030378525 -0.009054826 -0.0047840243 -0.015180758
000260 d5 4c 53 3c 33 ed 42 3b 60 4b 14 3d 09 55 ea bc
       0.012896736 0.0029743433 0.036204696 -0.028605001
000270 64 0b 0d bc ef 20 b4 bc dc 09 bc bb e2 1f e4 bc
       -0.008608673 -0.02198836 -0.00573848 -0.027847234
000280 70 7f 9b 3c 73 93 f4 ba 06 67 09 bc 4a ef 32 3c
       0.018981665 -0.0018659666 -0.008386379 0.010921309
000290 34 b1 bc 3c 94 e4 4c 3d 3c 68 76 bd fa 27 91 b9
       0.023033716 0.050022677 -0.060158 -0.0002768634
0002a0 61 d0 e4 3a 02 6d 80 3d d1 76 23 3c a7 92 f6 3c
       0.0017457121 0.062707916 0.0099770585 0.030099226
0002b0 01 ed 8f bc 5c 7a eb 3c 54 8a bb 3c 45 83 97 bc
       -0.017569067 0.028744869 0.022893108 -0.018495211
0002c0 e2 f0 a1 bc 44 0a 2d 3d 8d cd 90 3c a8 61 7b bc
       -0.019768182 0.04224612 0.01767614 -0.015343107
0002d0 34 4f 70 ba 81 1b 61 3b 13 bc 64 3d af 29 df bb
       -0.00091670756 0.003434867 0.055843424 -0.006810389
0002e0 dc a3 e1 3c 06 4f 96 3c 1c 76 2e b9 8c cb 30 ba
       0.027543955 0.018348228 -0.00016637932 -0.0006744198
0002f0 e1 d2 d5 bc 90 20 09 bc 98 30 27 3a 80 ab 19 3d
       -0.026101531 -0.00836958 0.00063777855 0.03751707
000300 5c 56 a7 3c f0 45 88 3c 9d cb 35 bb be a7 8f bb
       0.020426922 0.016634911 -0.0027739771 -0.00438401
000310 8f 5a ea 3a cc 07 9f 3a 41 96 86 bc 0a 6f bf 3b
       0.0017879772 0.0012133061 -0.016429069 0.0058420943
000320 81 ca ad 3c f5 c8 36 3a d8 af 06 bd ab 86 12 3c
       0.021214725 0.0006972694 -0.03288254 0.00894324
000330 df 5e 50 3c c3 d0 66 bb da 48 73 bc 92 09 97 bc
       0.0127179315 -0.0035219647 -0.014848912 -0.01843718
000340 2f b0 2c 3d bd 06 7f 3b 74 50 b9 bb 83 67 ed bb
       0.04216021 0.0038913928 -0.0056553427 -0.0072450056
000350 95 73 e5 3c 75 5e 1e 3d 22 f3 e8 3c bc b1 58 bb
       0.028009215 0.0386643 0.028436247 -0.0033064922
000360 e9 6d 36 3c 61 ce a1 bc d3 53 88 3c 08 5a 08 3c
       0.011134603 -0.01975173 0.016641533 0.008322246
000370 1e 1f d2 bc 11 b1 3a 3c a1 ff d7 bc a9 44 1e 3c
       -0.025649603 0.011394755 -0.02636701 0.009659925
000380 5e 29 a4 3c 46 ac 33 b8 6d 0f a6 bc e9 20 a2 3d
       0.020039257 -4.2837368e-05 -0.020271027 0.07916433
000390 71 31 04 bc d2 77 3a 3c 1d 7f 1d 3c 7a e5 dc b9
       -0.008068428 0.011381106 0.009612826 -0.00042132643
0003a0 5f 26 0a bc b7 76 28 bc a2 21 d4 bb 84 2f 47 3d
       -0.008432 -0.01028221 -0.006473736 0.0486293
0003b0 75 6d 19 3b 7c 26 37 3c 2d e9 04 3d 59 5a 01 ba
       0.0023411189 0.011178609 0.032448936 -0.00049344223
0003c0 61 14 80 bc 02 95 0b 3b 2c 1e 14 3d 6c 62 a4 3b
       -0.015634717 0.0021298532 0.036161587 0.0050166156
0003d0 6f 19 3b 3c 8c c2 2f 3d 10 5e 00 3d fb 74 3e bb
       0.011419638 0.042910144 0.031339705 -0.0029061425
0003e0 dc ae f4 bc 91 b8 3f bb b5 86 9e 3b a7 63 ec 3b
       -0.029868536 -0.0029254297 0.0048378357 0.007214028
0003f0 6e 96 0a 3d 2d fd ce bc 77 26 99 bc fc 24 12 3c
       0.033834867 -0.025267208 -0.0186951 0.008919951
