p2_continuous-control/checkpoint_critic.pth (torch_old, 543567 bytes, 9 tensors)

bn1.weight f4 [33]
000000 a8 5c 1d 3f 1e 14 c3 3e ed 19 23 3f 90 ec f2 3e
       0.6146951 0.38101286 0.63711435 0.47446108
000010 16 ae 36 3f 2b 79 1e 3f a4 93 e2 3e 58 22 c4 3d
       0.71359384 0.6190364 0.44253266 0.09576863
000020 68 39 1d 3f 70 d0 6a 3d a2 d2 10 3f b1 81 08 3f
       0.6141572 0.057327688 0.565714 0.53322893
000030 be b4 c7 3e 4b aa 68 3f d5 8a 08 3f 2f 14 35 3f
       0.39005083 0.90884846 0.5333684 0.7073392
000040 3f 2b 36 3f 7c f4 51 3e b4 95 9d 3e 94 19 7b 3f
       0.7115974 0.2050342 0.30778277 0.98085904
000050 00 1f 28 3c e8 9c ee 3e 4a b6 eb 3e a7 ca 5a 3f
       0.010261297 0.46604085 0.46037513 0.8546547
000060 86 a9 e7 3e 66 b4 21 3f 08 b6 f3 3e a8 4e 61 3e
       0.45246524 0.6316589 0.47599816 0.22002661
000070 ac cd 5d 3e 66 a0 83 3e 70 96 3b 3d 98 b8 33 3e
       0.21660489 0.25708312 0.045797765 0.17550886
000080 ea 1f 1e 3f
       0.61767447

bn1.bias f4 [33]
000000 00 00 00 00 00 00 00 00 00 00 00 00 00 00 00 00
       0.0 0.0 0.0 0.0
000010 00 00 00 00 00 00 00 00 00 00 00 00 00 00 00 00
       0.0 0.0 0.0 0.0
000020 00 00 00 00 00 00 00 00 00 00 00 00 00 00 00 00
       0.0 0.0 0.0 0.0
000030 00 00 00 00 00 00 00 00 00 00 00 00 00 00 00 00
       0.0 0.0 0.0 0.0
000040 00 00 00 00 00 00 00 00 00 00 00 00 00 00 00 00
       0.0 0.0 0.0 0.0
000050 00 00 00 00 00 00 00 00 00 00 00 00 00 00 00 00
       0.0 0.0 0.0 0.0
000060 00 00 00 00 00 00 00 00 00 00 00 00 00 00 00 00
       0.0 0.0 0.0 0.0
000070 00 00 00 00 00 00 00 00 00 00 00 00 00 00 00 00
       0.0 0.0 0.0 0.0
000080 00 00 00 00
       0.0

bn1.running_mean f4 [33]
000000 00 00 00 00 00 00 00 00 00 00 00 00 00 00 00 00
       0.0 0.0 0.0 0.0
000010 00 00 00 00 00 00 00 00 00 00 00 00 00 00 00 00
       0.0 0.0 0.0 0.0
000020 00 00 00 00 00 00 00 00 00 00 00 00 00 00 00 00
       0.0 0.0 0.0 0.0
000030 00 00 00 00 00 00 00 00 00 00 00 00 00 00 00 00
       0.0 0.0 0.0 0.0
000040 00 00 00 00 00 00 00 00 00 00 00 00 00 00 00 00
       0.0 0.0 0.0 0.0
000050 00 00 00 00 00 00 00 00 00 00 00 00 00 00 00 00
       0.0 0.0 0.0 0.0
000060 00 00 00 00 00 00 00 00 00 00 00 00 00 00 00 00
       0.0 0.0 0.0 0.0
000070 00 00 00 00 00 00 00 00 00 00 00 00 00 00 00 00
       0.0 0.0 0.0 0.0
000080 00 00 00 00
       0.0

bn1.running_var f4 [33]
000000 00 00 80 3f 00 00 80 3f 00 00 80 3f 00 00 80 3f
       1.0 1.0 1.0 1.0
000010 00 00 80 3f 00 00 80 3f 00 00 80 3f 00 00 80 3f
       1.0 1.0 1.0 1.0
000020 00 00 80 3f 00 00 80 3f 00 00 80 3f 00 00 80 3f
       1.0 1.0 1.0 1.0
000030 00 00 80 3f 00 00 80 3f 00 00 80 3f 00 00 80 3f
       1.0 1.0 1.0 1.0
000040 00 00 80 3f 00 00 80 3f 00 00 80 3f 00 00 80 3f
       1.0 1.0 1.0 1.0
000050 00 00 80 3f 00 00 80 3f 00 00 80 3f 00 00 80 3f
       1.0 1.0 1.0 1.0
000060 00 00 80 3f 00 00 80 3f 00 00 80 3f 00 00 80 3f
       1.0 1.0 1.0 1.0
000070 00 00 80 3f 00 00 80 3f 00 00 80 3f 00 00 80 3f
       1.0 1.0 1.0 1.0
000080 00 00 80 3f
       1.0

fcs1.weight f4 [400, 33]
000000 c7 f1 4c 3e 9d 78 c8 bc b5 e1 17 3f e5 c1 1e 3f
       0.20014106 -0.024471575 0.59328777 0.6201461
000010 8d 97 2b c0 b5 d2 8c c0 35 81 1c 40 b2 cf 4a 3e
       -2.681125 -4.400721 2.4453862 0.19805792
000020 7e 72 82 bd d9 b4 3a bf c4 d0 e0 bd 5b 73 0a bf
       -0.06369494 -0.729322 -0.10977319 -0.5408227
000030 92 bd f5 3d f4 fa 9b be 4b fd 15 be da 90 38 3e
       0.11999048 -0.304649 -0.14647405 0.18024006
000040 86 9e 5c 3f c3 45 13 bd 8d 36 15 bf ef fe 0f 3f
       0.8617939 -0.0359552 -0.5828636 0.5624837
000050 22 e5 0d be 7b fd af 3d d9 6e ae bd e9 df 18 bf
       -0.13856938 0.085932694 -0.08517236 -0.5971666
000060 57 d2 6c 3c 3e 10 d3 ba 79 30 58 bd aa f7 e4 3f
       0.014454446 -0.0016102863 -0.052780602 1.7888081
000070 40 bb c3 be 31 04 01 3d de cf d9 bf 82 43 11 bd
       -0.38228798 0.031498138 -1.7016561 -0.03546477
000080 6d 65 62 bf 47 5f 4c 3f 8a fe 28 bf 70 33 73 3e
       -0.88436013 0.7983288 -0.66013396 0.2375009
000090 a3 52 c0 be 28 05 41 3f ac 37 48 bd 18 6f 81 c0
       -0.37563047 0.7539849 -0.048881218 -4.0448112
0000a0 4c 10 19 3f 50 50 1b be dc 4c 00 c0 e0 30 ac 3d
       0.5979049 -0.15167356 -2.0046911 0.0840776
0000b0 04 08 6e 3d 01 e4 73 3e 79 41 70 bf bb 8f f3 bd
       0.058113113 0.23817445 -0.93849903 -0.11892649
0000c0 64 31 fb be b6 09 2e 40 bb 8c 7d be aa c1 95 3f
       -0.4906112 2.7193427 -0.24760716 1.1699727
0000d0 58 7a 4e c0 e2 c2 0a 3d f9 85 bd 3d 0e 39 3c 3d
       -3.2262173 0.03387726 0.09254069 0.04595285
0000e0 0a d1 c0 bd b9 73 ca 3e c7 f8 e5 be a1 35 b4 3a
       -0.09414871 0.39541414 -0.44916365 0.0013748893
0000f0 fc 26 7c 40 aa 7d 30 be 14 0b 42 bc 74 c6 7d c0
       3.9398794 -0.17235437 -0.011843462 -3.9652376
000100 ba 54 b4 bc 78 65 12 40 26 da 31 bf 3b 76 86 bd
       -0.022013057 2.2874432 -0.69473493 -0.065655194
000110 5b a6 36 bf 87 7d b8 3e ab 3f d1 bf 01 48 1e 40
       -0.7134759 0.3603327 -1.6347555 2.4731448
000120 08 93 05 be 8b 92 0c bf 94 91 f6 bd 4c d1 63 bf
       -0.13044369 -0.54911107 -0.120394856 -0.88991237
000130 43 9f 20 bf 05 02 57 3e 0b 5b 53 3c 03 50 62 3f
       -0.62743014 0.20996864 0.012900124 0.8840334
000140 f5 3b f0 3e b1 d5 0d 3e 67 f7 da 3f a7 9c 0d be
       0.46920744 0.13851048 1.7106751 -0.1382929
000150 3a 62 07 3f ba 68 2f c0 86 5e 3c bf 02 18 8d 3f
       0.52884257 -2.740767 -0.7358173 1.1022952
000160 00 1e 9c be 6f 4b f7 3e 59 5f 02 3e e4 60 82 be
       -0.30491638 0.4829974 0.12731685 -0.25464547
000170 2d 1a 6b 3c fe 90 c6 3f 0f 7f 25 be fa 24 00 bd
       0.0143495025 1.5512998 -0.1616175 -0.031285264
000180 aa 0e cd bf a0 4b 88 3a a7 8a 47 bf 3d 45 2e bf
       -1.60201 0.0010398515 -0.7794594 -0.680744
000190 07 b9 12 bf 87 16 9e be 2d 19 d4 3f e3 81 3b 40
       -0.5731358 -0.30876562 1.6570183 2.9298027
0001a0 8f a6 0a bf 93 41 d8 be f9 b5 67 bd 42 73 10 3f
       -0.541604 -0.4223753 -0.056570027 0.5642587
0001b0 66 14 72 3f b6 81 12 be 5e 29 a4 be ab 9e 35 bd
       0.94562376 -0.14307293 -0.3206281 -0.04434077
0001c0 a6 7e 65 be 28 33 07 bf 4e c1 b3 3e e8 e0 bf 3f
       -0.22411594 -0.52812433 0.35108417 1.4990511
0001d0 92 d1 09 3e 6c c5 42 3f 3a f0 7a bf be b2 60 3e
       0.13458851 0.7608249 -0.98022807 0.21943185
0001e0 36 73 ea 3d 5b dc 63 be 28 d0 f7 3e 81 80 35 3d
       0.11447756 -0.22252028 0.48400998 0.044312004
0001f0 27 a7 42 3e a3 44 79 3d bc f1 6c 40 0d 96 c8 3b
       0.19009076 0.060856473 3.7022543 0.006121403
000200 f4 24 89 bc 70 d7 6c c0 9f 2b 2a 3d 29 cd 01 bf
       -0.016741253 -3.7006493 0.041545507 -0.50703675
000210 64 a0 db bf 3c 59 0a be 7f 74 e9 3f 12 06 8a bf
       -1.7158322 -0.13510603 1.8238677 -1.0783103
000220 ef 69 b9 3f 22 af b2 3e fd 9b ed 3f 8b 61 1e 3d
       1.4485453 0.3489924 1.8563229 0.038667243
000230 13 84 27 3f 0d e8 7f bf f7 47 51 bf 92 a0 9a 3e
       0.65435904 -0.99963456 -0.81750435 0.3020063
000240 49 d0 3e 3e 74 cf 07 3f 0a bd 94 3f fc 1d 64 bf
       0.18634142 0.53050923 1.162019 -0.8910825
000250 9a 19 2a bf c3 2b 50 3f 5d b1 da bf 83 81 1f be
       -0.66445315 0.81316775 -1.7085377 -0.15576749
000260 2e d3 18 3d 12 dd 9f bb 55 44 e8 be 1f 06 f9 bd
       0.03731077 -0.0048786486 -0.45364633 -0.12159371
000270 23 99 fb 3e 94 6b 2f bf 2d 85 5c bd 80 09 06 40
       0.49140272 -0.68523526 -0.053837944 2.0943298
000280 80 51 c4 3d 9d 7a 0a bd 87 07 04 c0 fa af e4 3c
       0.095858574 -0.03380834 -2.0629594 0.027915943
000290 13 85 f7 3e b4 b9 47 3f 7a d9 86 bf 4a 99 8b bf
       0.48343715 0.78017735 -1.0535119 -1.0906155
0002a0 c6 b9 13 c0 af 73 ad bf ec 34 46 c0 c6 17 91 c0
       -2.3082137 -1.3550929 -3.09698 -4.534152
0002b0 82 2d 04 bd 04 ec 8b bf 61 a5 d1 bf bb d0 89 3e
       -0.032269962 -1.0931401 -1.6378595 0.2691706
0002c0 c5 b7 8c be 63 f4 a9 3e 62 bd eb 3d fe 68 52 3e
       -0.27483955 0.33194265 0.11510731 0.20547864
0002d0 56 94 25 3f 61 c9 98 3e 53 e6 22 3e 5b fc c1 3f
       0.6467947 0.2984114 0.15908174 1.5155138
0002e0 30 70 c8 3f 8d 5d 04 3e c6 a1 06 3f 64 75 04 bf
       1.5659237 0.12926312 0.52590597 -0.51741624
0002f0 ae 04 40 be 18 98 a3 3e ae 49 c5 be 40 9b ca 3e
       -0.18751785 0.31951976 -0.38532776 0.3957157
000300 00 e4 66 40 68 d7 a9 3e 9a 5c b6 bc 54 16 68 c0
       3.607666 0.33172154 -0.022260953 -3.6263628
000310 94 73 8b bc 53 14 0c bd 46 03 44 bd e2 e2 81 3e
       -0.017022885 -0.03419907 -0.047854684 0.2536841
000320 5d e2 81 3d aa 59 3e be 6a 97 f0 be 5d 55 2d 3e
       0.063420035 -0.18588892 -0.4699052 0.16927095
000330 93 e3 a3 3e 9b fe 0b 3f 8a a0 66 bf 26 dc c3 be
       0.32009563 0.5468537 -0.90088713 -0.38253897
000340 ec c3 81 3e a2 53 11 be 3d bd b0 3e ee ff 32 3f
       0.2534479 -0.1419206 0.34519377 0.6992177
000350 7a 39 ea 3d 7f ff 88 3f 77 10 d2 bf ad 1a 0e bf
       0.11436744 1.0702971 -1.6411275 -0.55509454
000360 d3 e1 06 bf c7 fe eb 3d 15 ae cc bb da 2d bd bb
       -0.5268833 0.11523204 -0.006246338 -0.005773288
000370 39 8a 07 3d 40 b3 24 be 42 cd 01 bf fc 11 f2 bd
       0.033090804 -0.16084003 -0.50703824 -0.118198365
000380 3c 3d cf 3d 6c 25 8c 40 f5 b4 80 3e 54 1a 4b bc
       0.101191014 4.379568 0.2513806 -0.012396414
000390 8b 33 8b c0 50 07 14 bb 97 92 5c 3f de 79 2b 3e
       -4.350042 -0.0022587366 0.8616118 0.16745707
0003a0 ca bb f0 3f 26 b2 a6 3e 60 ab 1c bf 79 9a 95 40
       1.8807309 0.3255779 -0.61199 4.6751065
0003b0 25 a0 88 3f 25 7c 69 3f dd ab 97 be 0a 91 0a bf
       1.0673872 0.91205055 -0.2962331 -0.5412756
0003c0 b3 8c 36 be 41 87 14 3f 9a d7 34 3f 6c a2 07 bf
       -0.1782711 0.5801888 0.7064148 -0.5298221
0003d0 bd 35 e3 3e 17 93 60 3e 58 be 0e bf cd 95 2e 3f
       0.44376937 0.2193111 -0.5575919 0.6819733
0003e0 a1 da a9 3d 4b fe 15 c0 30 19 aa bc 0b f3 a6 bd
       0.08293653 -2.3436458 -0.020763963 -0.081518255
0003f0 5a 0a d1 3e a3 84 9f bc 23 77 27 3f 0b 81 1c 3f
       0.4082821 -0.019472426 0.65416163 0.61134404

fcs1.bias f4 [400]
000000 bf 3f df bf c7 6c 72 c0 78 7f d3 bf 3c ee 6f c0
       -1.7441329 -3.7878892 -1.6523275 -3.7489157
000010 9c 1e 0d c0 97 c0 5f c0 d3 ee 8e c0 60 b3 4f c0
       -2.2049932 -3.4961298 -4.4666533 -3.2453232
000020 cd 05 6d c0 61 78 56 bf 32 3d 25 c0 40 7a 18 c0
       -3.703479 -0.83777434 -2.58186 -2.3824615
000030 70 c1 f9 bf fd 0a 29 c0 6b aa 63 c0 01 41 a9 bf
       -1.9512157 -2.6412957 -3.5572765 -1.3222963
000040 c8 06 3d c0 f6 29 72 c0 fb 37 2b c0 90 e4 48 c0
       -2.953539 -3.783811 -2.6752918 -3.1389503
000050 d1 44 de bf 3a 70 2a c0 d3 0d 16 c0 3b ae 43 c0
       -1.7364751 -2.6630998 -2.3445938 -3.0575092
000060 9c ea e9 bf e0 ac 04 c0 a1 37 71 c0 13 06 4c c0
       -1.8274722 -2.0730515 -3.7690203 -3.1878707
000070 21 dd 0b c0 da a3 1e c0 b5 92 51 c0 05 ea 90 c0
       -2.1853716 -2.4787507 -3.2745793 -4.528567
000080 b9 e5 44 c0 65 88 42 c0 3a 21 7c c0 08 50 f3 bf
       -3.0765212 -3.0395749 -3.939528 -1.9008799
000090 a9 51 69 c0 39 70 02 c0 c6 93 3d c0 83 5c bf bf
       -3.6456091 -2.0380995 -2.9621444 -1.4950107
0000a0 f3 91 29 c0 e2 e8 2c c0 53 6a be bf 8c d9 0a c0
       -2.649533 -2.701714 -1.4876198 -2.169528
0000b0 59 0b 49 c0 19 fb 35 c0 40 b7 99 c0 9b f8 26 c0
       -3.1413176 -2.8434508 -4.8036194 -2.6089237
0000c0 9a 3f 59 c0 a0 aa 36 c0 0e de 31 c0 2e 88 b2 bf
       -3.394507 -2.8541641 -2.7791781 -1.3947809
0000d0 58 ae 55 c0 89 cb 86 c0 28 ba 13 c0 98 f2 4a c0
       -3.338766 -4.2123456 -2.308237 -3.1710567
0000e0 5f 7c 66 c0 f9 a2 54 c0 fd 36 7c c0 5a 28 12 c0
       -3.601341 -3.322447 -3.9408562 -2.2837129
0000f0 0f 6b 26 c0 16 a7 f6 bf ed d9 60 c0 6f d0 ec bf
       -2.6002843 -1.926974 -3.5133011 -1.8501109
000100 17 72 7a c0 4e 29 60 c0 a9 74 4a c0 58 11 30 c0
       -3.9132135 -3.502521 -3.1633704 -2.7510586
000110 47 99 f7 bf 35 8f 15 c0 f3 96 67 c0 a5 4c 56 c0
       -1.9343652 -2.3368657 -3.6185882 -3.348428
000120 b6 4e 3f c0 75 cc 7a c0 d0 55 b7 bf 65 35 53 c0
       -2.9891791 -3.918729 -1.4323063 -3.300134
000130 87 40 78 c0 88 98 0a c0 f5 1f 30 c0 6d c1 09 c0
       -3.8789384 -2.1655598 -2.7519505 -2.1524308
000140 72 fb 54 c0 77 0c 1e c0 52 8d 35 bf c4 64 28 c0
       -3.327847 -2.4695108 -0.7091876 -2.6311502
000150 89 1f e9 bf 03 f3 bc bf 27 ca b8 bf c0 d5 31 c0
       -1.8212749 -1.4761661 -1.4436692 -2.7786713
000160 8a 93 79 c0 14 68 87 c0 bf d8 56 c0 7c 60 40 c0
       -3.89963 -4.231455 -3.3569791 -3.005889
000170 ed 66 11 c0 09 e8 56 c0 25 1f e6 bf ca 14 35 c0
       -2.271907 -3.3579123 -1.7978255 -2.8293939
000180 01 14 31 c0 39 e2 26 c0 50 06 14 c0 82 c5 08 c0
       -2.766846 -2.6075575 -2.3128853 -2.137055
000190 af 26 46 c0 b6 22 5a c0 d6 16 cd bf 85 a6 b8 bf
       -3.096111 -3.4083686 -1.6022594 -1.4425818
0001a0 15 c8 73 c0 6d f0 66 c0 d7 cb 1e c0 c0 ce 2c c0
       -3.809087 -3.6084244 -2.4811914 -2.700119
0001b0 c2 21 48 c0 2e 12 86 c0 9a b4 12 c0 86 ca 27 c0
       -3.1270604 -4.189719 -2.292273 -2.621736
0001c0 e5 12 08 bf e3 ba de bf be db 41 c0 87 58 8b bf
       -0.5315383 -1.7400783 -3.029037 -1.0886391
0001d0 81 9c 14 c0 45 a6 f4 bf 1e 11 4a c0 54 41 73 c0
       -2.3220522 -1.9113241 -3.1572948 -3.8008623
0001e0 81 89 07 c0 02 9a 33 c0 27 db 31 c0 1c 1b 2d c0
       -2.1177676 -2.806275 -2.779001 -2.7047796
0001f0 80 30 01 c0 ba 1b 63 c0 03 77 a1 bf d6 0c 28 c0
       -2.0185852 -3.5485673 -1.2614444 -2.6257834
000200 7a b5 65 c0 e2 1f 33 c0 34 fa fe bf f5 65 f4 bf
       -3.5892015 -2.798821 -1.9920106 -1.9093615
000210 34 70 39 c0 f2 ed 84 c0 77 88 b5 be 71 b2 4c c0
       -2.8974733 -4.154046 -0.35455677 -3.1983912
000220 91 e7 88 c0 33 cc 5e c0 1b 36 2c c0 91 04 55 c0
       -4.2782674 -3.4812133 -2.6908023 -3.3284037
000230 11 15 80 c0 59 e3 61 c0 07 ab 61 c0 96 0e ed bf
       -4.0025716 -3.5295012 -3.5260637 -1.8520076
000240 d8 e3 7f c0 96 52 63 c0 07 d2 40 c0 fb 7d 6b c0
       -3.9982815 -3.5519156 -3.012819 -3.6795642
000250 e2 fd 23 c0 9b 0e 39 c0 e2 69 43 c0 26 c4 e8 bf
       -2.5623708 -2.8915164 -3.0533376 -1.818486
000260 a2 84 0a c0 f7 9a 3b c0 0d 79 ce bf 71 82 8b c0
       -2.1643453 -2.9313333 -1.6130692 -4.359673
000270 37 7a 49 c0 35 50 67 c0 31 d5 07 c0 a2 66 20 c0
       -3.1480844 -3.6142704 -2.1223872 -2.5062642
000280 95 1b f8 bf 37 8a 35 c0 f8 95 9d c0 c9 ae 29 c0
       -1.9383417 -2.836561 -4.9245567 -2.651293
000290 68 06 71 c0 9f 1c ff bf 9f 1c 3c c0 ff 72 2d c0
       -3.766016 -1.993061 -2.939247 -2.7101438
0002a0 cb fd 51 c0 d9 01 44 c0 38 01 4d c0 0b dd 3a c0
       -3.2811153 -3.0626128 -3.2031994 -2.9197414
0002b0 3b c1 4a c0 c9 fd ea bf a3 77 39 c0 ab 8e 29 c0
       -3.1680439 -1.8358699 -2.897927 -2.6493328
0002c0 af dc 57 c0 1b 76 16 c0 31 d3 8a c0 00 e8 50 c0
       -3.3728445 -2.3509586 -4.33828 -3.2641602
0002d0 18 c0 1d c0 f3 d5 17 c0 c8 74 63 c0 e5 87 34 c0
       -2.4648495 -2.3724334 -3.5540028 -2.8207943
0002e0 ea 7d 50 c0 af 7e 17 c0 6d df ed bf 67 0c 2a c0
       -3.2576852 -2.3671072 -1.8583809 -2.657007
0002f0 86 75 28 c0 04 ff 32 c0 56 81 3d c0 3d 7e a3 bf
       -2.632173 -2.796815 -2.961019 -1.27729
000300 e5 f8 0a c0 7a 6a db 3f c4 e1 1e c0 cd c7 e9 bf
       -2.1714413 1.7141869 -2.4825296 -1.8264099
000310 3e 7b 45 c0 32 21 18 c0 25 8a 5f c0 63 47 7c c0
       -3.085647 -2.377026 -3.4928067 -3.941857
000320 eb 64 73 c0 8a 55 81 c0 03 97 fe bf a7 a0 4a c0
       -3.8030345 -4.041692 -1.9889835 -3.1660554
000330 08 54 2d c0 72 fb 64 c0 6f ae 3c c0 02 88 09 c0
       -2.7082539 -3.577847 -2.9481466 -2.1489263
000340 8d 29 ad bf 52 06 53 c0 cd 8a 11 c0 7a 21 4a c0
       -1.3528305 -3.2972608 -2.2740967 -3.1582932
000350 f5 a5 dc bf ff 59 48 c0 12 24 f1 bf 48 48 21 c0
       -1.7238146 -3.130493 -1.8839133 -2.5200367
000360 db 85 65 c0 cd 3a 13 c0 5a 1f 34 c0 ca 77 34 c0
       -3.586295 -2.300464 -2.8144135 -2.8198113
000370 ea 70 49 c0 e8 11 55 c0 53 c2 32 c0 df eb 57 c0
       -3.1475167 -3.329218 -2.7931106 -3.3737714
000380 0b cd 87 c0 b7 b8 21 c0 2e 7d 4b c0 49 a7 c9 bf
       -4.2437797 -2.526899 -3.1795154 -1.5754176
000390 93 76 02 c0 bd 1f 0d c0 fe 8a 68 c0 a3 56 2a c0
       -2.0384872 -2.2050622 -3.6334834 -2.661538
0003a0 91 a9 4c c0 f0 8e a8 c0 9a e2 c0 be 3a cb 53 c0
       -3.1978495 -5.2674484 -0.37672883 -3.309279
0003b0 02 0e 7b c0 cb 67 93 c0 c8 bd 8d c0 67 4d 48 c0
       -3.92273 -4.60642 -4.4294167 -3.1297243
0003c0 e0 73 40 c0 bd d7 49 c0 d8 5c 4b c0 83 ed a8 bf
       -3.0070724 -3.1537926 -3.1775417 -1.3197483
0003d0 34 21 68 c0 b8 35 4d c0 33 fd 08 c0 d8 b1 dd bf
       -3.6270266 -3.2064037 -2.140454 -1.7319899
0003e0 81 50 33 c0 26 e9 23 c0 36 a3 2f c0 09 9c 63 c0
       -2.8017886 -2.5611053 -2.7443366 -3.5563986
0003f0 d1 ce 81 c0 4d d3 1d c0 f0 93 5d c0 e4 40 1a c0
       -4.056496 -2.4660218 -3.4621544 -2.4102106

fc2.weight f4 [300, 404]
000000 33 d3 63 be 43 00 e4 bc 59 32 31 bd f7 f7 1a bc
       -0.22248535 -0.027832156 -0.043260906 -0.0094585335
000010 43 7c e0 bd c7 44 c8 bd 8a 32 03 bc a9 8e 70 3d
       -0.10961201 -0.09778743 -0.008007655 0.0587298
000020 27 ca 4d 3d c2 34 8e bd 9c 0e cd 3c d1 16 7b bc
       0.050241616 -0.069436565 0.02503138 -0.015325264
000030 39 f3 76 bd 7c 4d 4a bd 84 85 49 3d f2 fb 7b 3c
       -0.06029055 -0.0493903 0.049199596 0.015379893
000040 0e 32 d1 3c 83 0b 54 3d a6 2e b3 bd e1 f0 ac bd
       0.025536563 0.05176879 -0.08749132 -0.084443815
000050 d5 6e ff bd de 1e b0 bc 40 62 95 bd 4a 0e fc bc
       -0.124723114 -0.021499094 -0.0729413 -0.030768532
000060 d6 38 a8 bd a9 6b b5 3c 32 f9 17 bd 25 71 11 bd
       -0.082139656 0.022146063 -0.037102886 -0.035508294
000070 81 e1 17 3c 0c e4 7e bd 2e f8 af bc 64 17 0c bd
       0.009270073 -0.0622292 -0.021480646 -0.034201995
000080 a4 72 e2 bb f7 3b d6 bc 5e eb c4 bd cc d4 ed bd
       -0.006910639 -0.02615164 -0.09615205 -0.116128534
000090 47 0b 03 3c e1 af 08 bd b7 32 43 3d d1 c9 ad bd
       0.007998294 -0.033370856 0.047655787 -0.08485759
0000a0 52 4f b2 3b b2 5e 17 bc f3 aa 54 ba b1 ad 7f bc
       0.0054415846 -0.009238886 -0.00081126316 -0.015605376
0000b0 83 e5 1c bd 00 e0 ce bd 8e 74 8f bd 9e 34 07 bd
       -0.038304817 -0.10101318 -0.07004653 -0.033009164
0000c0 fb 5d 0b 3c 31 fc 69 bd dc 4f 6d 3d 48 de b9 bd
       0.008506293 -0.057125274 0.057937488 -0.090756
0000d0 c9 b4 a8 bc 99 cb 92 3b 78 94 07 bd 91 8c 05 3d
       -0.020594018 0.004479837 -0.033100575 0.032604758
0000e0 de fd b3 bd 0c 53 54 3d 37 af ee bc 41 51 5e bd
       -0.08788656 0.051837012 -0.029136283 -0.05427671
0000f0 ee 0e 95 3a 07 00 56 bc b0 e0 3d bb cf 98 77 bb
       0.0011372247 -0.01306153 -0.0028973036 -0.003778029
000100 29 e5 d4 3c b1 dd d4 3c 5a 0c ff bc ea d5 88 3c
       0.025988178 0.025984617 -0.03113382 0.016703565
000110 60 17 f1 3b af 55 a7 3c bd af 7e bd 98 ad b0 bc
       0.007357523 0.0204266 -0.062179316 -0.021567151
000120 83 ec 50 bd ca 6d a3 bd 7a 7f 9b bd e2 8e 41 3d
       -0.051006805 -0.07979925 -0.075926736 0.047255404
000130 35 b6 88 3c 5a 8c 76 3b b8 6a ab bc a8 f9 3c bd
       0.016688446 0.0037620277 -0.02092491 -0.04613653
000140 4b 57 ce bd 72 08 65 bd c0 7d da bd 6c 97 37 be
       -0.100752436 -0.055916257 -0.10668516 -0.17928857
000150 2d 23 ec bc cb 63 3b bd e0 8e 59 bd 2f f3 4b 3c
       -0.028825367 -0.045749467 -0.05311477 0.012448116
000160 25 b2 16 3c 1a 6d cd 3c 74 1a de bc 9c c3 ba bc
       0.009197746 0.025076438 -0.027112223 -0.022798352
000170 2e 8b cc bd 7f 06 2f 3d da 2b e8 bd f0 d6 81 bc
       -0.09987484 0.042730805 -0.11336489 -0.01584956
000180 96 ef 13 bc 03 ca 80 bd 1d c6 89 bd 00 24 0f 3c
       -0.00902929 -0.06288531 -0.0672724 0.00873661
000190 d6 58 91 3c e2 1a fc bd bc b4 ae bd 97 69 02 3d
       0.017742556 -0.12309815 -0.08530566 0.03183898
0001a0 6b 05 6e ba 7d 48 70 bd 48 6b dd 3b 6b d7 4a 3d
       -0.0009079787 -0.05866288 0.0067571737 0.049521845
0001b0 6f ca ad bc 4a 6d 2b 3d 0e c0 da bc ee 15 10 3d
       -0.021214692 0.041852273 -0.026702907 0.035177164
0001c0 41 6d 05 be f7 53 c6 bc 37 a2 d3 bd 22 b1 00 be
       -0.13029958 -0.02420996 -0.103336744 -0.12567571
0001d0 f0 a0 16 bd 4b 1f 35 bd f1 14 12 bc f8 9b 7b 3c
       -0.036774576 -0.044219296 -0.008916126 0.01535701
0001e0 64 62 07 bd 6a 94 44 bb 58 cd 64 bb af a4 0a bc
       -0.033052817 -0.0029995688 -0.0034912433 -0.008462115
0001f0 79 f2 df ba b4 ae 0d bd 84 e3 7f bd a2 35 fc bd
       -0.0017085812 -0.034590438 -0.062472835 -0.12314917
000200 c6 21 71 3b 52 ef 23 3d d0 b5 54 bd c5 f4 f1 bc
       0.0036793812 0.040023156 -0.051931202 -0.02953566
000210 de 2b b4 bc 55 01 ce 3c 36 2f eb bd a4 e8 a9 bd
       -0.021993574 0.02514712 -0.11483614 -0.08296326
000220 6d f0 56 bd 66 78 05 bd f6 54 53 bd 0c c5 6a bd
       -0.05247538 -0.032585524 -0.051594697 -0.057316825
000230 08 d5 37 bd b0 3c 80 bd 56 9c ad bd 9b 2f 67 bd
       -0.044880897 -0.06261575 -0.08477084 -0.056441884
000240 02 89 27 bc d5 b3 ea bc 18 fb 5f bc a9 a8 f5 3c
       -0.010225536 -0.028650204 -0.013670705 0.02998765
000250 2f 58 d9 3c 90 3e 1f 3d 89 e1 9b 3b ce 62 9f bd
       0.026531307 0.038878024 0.0047571105 -0.077825174
000260 b7 6b b6 bd 63 05 3d bc f3 ad 20 be d7 fb f5 3b
       -0.08907264 -0.011536929 -0.15691356 0.0075068283
000270 5f 5e 0e be 42 22 94 bc e3 29 ce bd 79 9d 00 bd
       -0.13903187 -0.018082742 -0.10066583 -0.031400178
000280 9e 9d a3 bc f7 07 23 be 26 9a 51 bd 30 f5 c3 bd
       -0.019972619 -0.15921007 -0.051172398 -0.0956825
000290 62 41 fa 3c ea a3 48 bd 58 d9 f9 3b 0d 90 50 3c
       0.030548755 -0.048984446 0.0076247863 0.012729657
0002a0 92 a2 43 3d 62 12 fa bb ab ec df 3b 70 e6 8a bd
       0.04776246 -0.007631586 0.006833633 -0.06782234
0002b0 f6 fc 0f bd 7d c0 a9 bd 6c b7 f9 3a 1d 54 22 bd
       -0.03515335 -0.08288667 0.0019051856 -0.039630998
0002c0 da ec 27 bd cd f8 38 3c 9d 4b bf bd b6 f5 74 bd
       -0.040997364 0.0112897875 -0.09340594 -0.05980464
0002d0 68 05 25 bd 4a 1c 97 bd b9 8c 80 bd 1b c9 34 bd
       -0.04028836 -0.073784426 -0.06276841 -0.0441371
0002e0 b7 29 49 bd 39 60 c3 bd 1b e5 0b bc 49 4e e3 3c
       -0.049112048 -0.095398374 -0.00853851 0.02774729
0002f0 72 62 89 bd 77 c0 fe bd 1d 16 7b bd 33 3d ff bd
       -0.0670823 -0.124390535 -0.061300386 -0.12462845
000300 a3 7d 2f bd 6a 08 02 be 35 32 2a bd 6f 9f 4c 3d
       -0.042844426 -0.12698522 -0.041551787 0.049956735
000310 b1 06 cd bd c2 f5 50 bd 3e ea c3 bc 1c 63 a8 bc
       -0.10011042 -0.051015623 -0.023915406 -0.020555072
000320 58 bc 4e bb 3d 85 3e bd c5 f0 30 bd 8d e0 2a 3c
       -0.0031545367 -0.046513785 -0.043198366 0.010429514
000330 45 bd 17 be 3e 73 8f bd ee cf fa 3a bc 0e e9 bd
       -0.14818294 -0.070044026 0.0019135454 -0.113797635
000340 ac 73 87 ba e9 d1 19 3d d3 56 3c bb b3 78 57 bc
       -0.0010334156 0.0375537 -0.0028738275 -0.0131513355
000350 ea 7b 2f bc bf 03 b6 3c d8 75 e7 bd f9 05 01 bd
       -0.010710696 0.022218583 -0.11301774 -0.031499837
000360 9a ff 50 bd af 14 5b 3d 9f b9 05 3d 71 c5 6c bc
       -0.05102501 0.053486522 0.032647725 -0.014451371
000370 34 3d ef 3c 64 e6 ff 3c 2a c2 ae bc f7 81 e3 3c
       0.029203989 0.031237788 -0.021332819 0.027771933
000380 50 52 ae 3c cd 04 a6 3c 84 7e 92 bd ea 8b 63 bd
       0.021279484 0.020265961 -0.07153037 -0.055553354
000390 04 be 47 bc 8a 76 bf 3c 7c d1 38 bd 80 c0 c4 bd
       -0.012191299 0.023371954 -0.045121655 -0.09607029
0003a0 15 6d 91 bd 0b 0a d3 bc f9 3b 8c bd 3f a4 b6 bc
       -0.07100884 -0.025761625 -0.068473764 -0.022295116
0003b0 a3 fe 02 bd 61 c5 7a b8 40 87 a9 bb c9 b4 d6 3b
       -0.03198112 -5.978847e-05 -0.0051735938 0.006552313
0003c0 e9 fb 8a bc c4 ea a9 bc 6f aa 83 bc e3 3b 26 be
       -0.016965823 -0.020741828 -0.01607248 -0.16233782
0003d0 a6 6e 2a 3d 4a 70 cd 3c cf 71 99 bd e7 06 f2 3b
       0.04160943 0.025077958 -0.074924104 0.0073860767
0003e0 99 28 22 bd 2f d9 90 3d 37 cf 0c 3d e0 5d 39 3c
       -0.0395895 0.070726745 0.034377303 0.011313885
0003f0 7a 77 0f 3d c7 16 7e bd 77 28 18 3c f4 59 a4 bd
       0.03502605 -0.06203344 0.009286991 -0.0802497

fc2.bias f4 [300]
000000 ee fc 13 be 5a f9 9d bd 54 2d 90 bd 76 32 35 be
       -0.14451954 -0.07713576 -0.07039896 -0.1769503
000010 12 6a 16 be f1 ec 00 be d0 95 78 be bd ca a1 be
       -0.146889 -0.12590386 -0.24275899 -0.3159999
000020 6c 85 0c 3f 5b ab 35 be bd dd be bd bb 71 0d be
       0.54891086 -0.17741148 -0.09319637 -0.13812916
000030 88 3d 39 be f7 4b cf 3f 4e 33 2a 40 86 a5 7c be
       -0.18089879 1.6195058 2.6593814 -0.24672517
000040 82 97 8f bd 21 f8 c2 bd fa b3 15 be 4a 36 16 be
       -0.0701132 -0.09519983 -0.14619437 -0.14669147
000050 a0 2a 3c be f0 6b 14 be e7 ed a3 bd 17 5e a1 bd
       -0.18375635 -0.144943 -0.08004361 -0.07879274
000060 40 f2 86 be ad ec e9 bd fb 1f 01 be a1 ad 2c be
       -0.26356697 -0.114220954 -0.12609856 -0.16863109
000070 81 2b 0f be 28 c7 3e bd 35 f7 1e be e7 3d 5d be
       -0.13981439 -0.04657665 -0.1552399 -0.21605645
000080 3b f9 25 be 0a 92 62 be 8f a6 e2 bd 71 da db bd
       -0.16208355 -0.22126022 -0.11066925 -0.10735024
000090 5b 2e 8b be 7c fd 4d be 3d 30 76 be 37 e5 03 be
       -0.27183804 -0.20116228 -0.24041839 -0.12880407
0000a0 60 29 bf bd 7b 66 07 be 12 24 17 be 7a 46 33 be
       -0.093340635 -0.13222687 -0.14759853 -0.17507353
0000b0 8b dc 0b be 19 1c e9 bd b8 a8 1b be 79 0a b7 bd
       -0.13658349 -0.11382312 -0.1520108 -0.089375444
0000c0 db 5d 0d be 6e 91 5d be 81 f8 0b 3f 85 1c d9 bd
       -0.13805334 -0.21637508 0.5467606 -0.10601143
0000d0 ad 03 4e be 8d cc 18 be 68 d3 62 be 40 e4 a5 be
       -0.2011859 -0.1492178 -0.22150958 -0.32400703
0000e0 e8 98 aa bd dc b5 0e be 49 83 3b be fd 4d 6a be
       -0.08329946 -0.13936561 -0.183118 -0.22881313
0000f0 ec 49 d7 bd 12 62 09 be a8 63 6d be 85 2e b1 bd
       -0.10512146 -0.13416317 -0.23182547 -0.08651451
000100 88 ad fc 3f 96 61 e0 bc f9 99 b0 bd e9 ca 5a 40
       1.9740458 -0.027390283 -0.08623118 3.4186347
000110 01 a7 80 3f de 09 50 be 8f e4 8f 40 7f aa 0a be
       1.0050966 -0.20316264 4.49665 -0.13541602
000120 52 c6 44 be 35 80 54 bd 83 13 26 be 7f c7 5d be
       -0.19216278 -0.05188008 -0.1621838 -0.21658133
000130 2a 39 c8 bd 6b 13 14 be 1f 7c fb bd ed 61 2f 3f
       -0.09776528 -0.14460532 -0.122795336 0.685088
000140 f8 4d 5e be d8 13 19 be 68 e4 43 bd 17 2e 04 be
       -0.2170943 -0.14948976 -0.047825247 -0.12908207
000150 ea 68 8a bd 4c bd 87 be 99 19 63 be 1b 56 65 3f
       -0.06758292 -0.2651161 -0.22177733 0.8958451
000160 82 0a b6 bd 67 59 d0 bd 68 20 39 be 31 34 17 be
       -0.08888723 -0.10173302 -0.18078768 -0.14766003
000170 a3 69 37 be 12 c7 9a be 64 c3 bb be c7 28 b7 bd
       -0.17911391 -0.30230004 -0.3667251 -0.089433245
000180 7d 59 2c be 8c b9 2c be 56 54 a3 bd 26 0c 24 be
       -0.16831012 -0.16867656 -0.0797507 -0.1602026
000190 f3 9c 6d bd a2 a2 e0 bd 9a 82 5a be ac 41 7e be
       -0.058011007 -0.1096852 -0.21338883 -0.2482974
0001a0 2e c2 50 be 3a bc 00 be c1 11 5b be 9b 31 0f be
       -0.20386574 -0.12571803 -0.21393491 -0.13983767
0001b0 aa 1e 6b be 38 ef 91 bd 58 8b 31 3e 4b 16 a4 bd
       -0.22960916 -0.071257055 0.17338312 -0.080120645
0001c0 b8 e0 dd bd 56 36 44 be b4 7d d2 3f c5 43 e6 bd
       -0.10833877 -0.19161353 1.6444612 -0.11243395
0001d0 0a da 05 bc 5f f7 2d 40 f7 59 78 3f fa d4 0b 40
       -0.00816966 2.7182233 0.97012275 2.184874
0001e0 75 bb 05 be 67 cf 84 be e8 6c d4 bd ae 27 06 be
       -0.1305979 -0.25939485 -0.10372335 -0.13101074
0001f0 d5 a6 61 bd d7 cf 0f be db 71 c0 be d8 e1 18 be
       -0.055090744 -0.14044128 -0.37586865 -0.14929903
000200 58 25 3e be dc 21 2d be 7e 1b e6 bd db ca 15 3e
       -0.18568933 -0.16907448 -0.112357125 0.14628164
000210 f8 36 44 be 2c 48 6c be 6a 69 7e bd 08 bd 44 be
       -0.19161594 -0.23074406 -0.06211225 -0.19212735
000220 e7 e8 11 be 9d 24 88 be d6 35 0e be 36 0c 0d be
       -0.14249001 -0.26590434 -0.13887724 -0.1377419
000230 1f 2c af be 63 e7 08 3f 3f 0d 23 be 50 0c 88 bd
       -0.3421335 0.5347807 -0.15923022 -0.066429734
000240 46 35 21 be 01 ab a5 be 0b 9b e5 bd 7f 7b 0e be
       -0.15742978 -0.32357028 -0.11211213 -0.13914298
000250 43 e5 1d be a8 46 b9 3f a7 e2 01 be c8 01 3a be
       -0.15419488 1.4474688 -0.12684117 -0.18164742
000260 79 f2 31 be 20 a2 18 be c6 a7 bf be 64 74 21 be
       -0.17377652 -0.14905596 -0.37432688 -0.15767056
000270 28 68 39 be b7 37 4a bd b6 4c 9e bd 7a 69 2c be
       -0.18106139 -0.04936954 -0.07729475 -0.16837111
000280 11 3d 5b be 04 cb 13 be a7 3b b1 bd db a9 99 be
       -0.21410014 -0.14432913 -0.08653956 -0.30012402
000290 53 94 2b 40 c9 20 09 be 9b a6 86 bd 78 1c aa be
       2.680928 -0.13391413 -0.06574746 -0.33224845
0002a0 93 63 2d be 4b 45 d1 bd 93 6f 46 be aa 66 3d be
       -0.16932516 -0.10218295 -0.193785 -0.18496194
0002b0 4e 54 6c be 2e c5 df bd 2c 3a ee bd f5 f6 d3 bd
       -0.23079035 -0.10926281 -0.11632189 -0.10349838
0002c0 2d 0d 80 bd e8 cf 04 be 72 88 dd bd fd 71 5c bd
       -0.06252513 -0.12969935 -0.108170405 -0.053819645
0002d0 45 1c 6d bd 89 3c 11 be c3 bd 47 be dc d8 a0 bd
       -0.057888288 -0.14183249 -0.19505982 -0.07853863
0002e0 28 a4 67 bd a8 b7 d0 bd ea d9 02 be 3c f5 06 be
       -0.056553036 -0.1019128 -0.1277844 -0.13179487
0002f0 c2 3d 7d be 29 b3 e1 bd bb a0 6c be aa dc 27 be
       -0.2473059 -0.110205 -0.23108189 -0.1639277
000300 6c 4b f2 bd f4 4d ed bd bf 96 0b be c6 53 87 be
       -0.11830792 -0.11587134 -0.13631724 -0.26431102
000310 23 a6 c1 bd 10 9b 29 be 56 7c c3 bd 5a 83 6b be
       -0.09455516 -0.16563058 -0.095451996 -0.22999325
000320 42 8e 78 3b a4 77 be be fe eb f2 3c 48 2a 1d be
       0.003792659 -0.37200654 0.029653545 -0.1534816
000330 ef 8f 07 bd 30 08 49 be c2 e6 7e be 24 85 df bd
       -0.03309625 -0.1963203 -0.24892715 -0.109140664
000340 e9 1f 3a be 16 0f 65 bd 2c f6 ff bd 6b 71 c0 bd
       -0.18176235 -0.05592259 -0.124981254 -0.09396633
000350 52 81 2a be 4a 12 76 be 5a c3 89 be d6 32 b0 bc
       -0.16650894 -0.24030414 -0.26906854 -0.021508615
000360 49 33 02 40 9e ec 12 40 e6 c8 c5 bd 45 40 64 be
       2.0343802 2.295692 -0.09657459 -0.22290142
000370 8f 5f c6 bd 74 ef 4d be 23 c2 c0 3f 58 56 62 be
       -0.09686195 -0.20110875 1.5059246 -0.2210325
000380 20 9f 5e be cc 2f 23 be 17 f0 be be 9e 12 4b be
       -0.21740389 -0.15936202 -0.3729255 -0.1983132
000390 9b a7 37 be ed 89 5a be 18 39 4a be 61 aa 96 be
       -0.1793503 -0.21341677 -0.19748342 -0.29426864
0003a0 ef f7 79 be 9c 34 28 be 18 8e 37 be 11 d9 49 be
       -0.24410985 -0.16426319 -0.17925298 -0.1971171
0003b0 a1 91 8f be 7f e3 60 be 27 50 53 be 01 61 a4 3f
       -0.28040794 -0.21961783 -0.20636044 1.2842103
0003c0 f0 65 75 be ca 45 db be b8 7a 5c be 79 3b e9 bd
       -0.23964667 -0.42826682 -0.21531188 -0.11388297
0003d0 07 8a 22 be 68 0c 91 bd 1c 40 a9 bd 7e f5 95 bd
       -0.15872966 -0.070824444 -0.08264181 -0.073222145
0003e0 ae 61 87 be 03 88 18 be 6a e9 4b be b9 31 b6 bd
       -0.2644171 -0.14895634 -0.19913259 -0.088962026
0003f0 95 c5 01 be a4 31 c6 3f d5 4c 6e be 77 0f 13 be
       -0.12673028 1.5483899 -0.23271497 -0.14361368

fc3.weight f4 [1, 300]
000000 da 89 4f bc c8 0f 71 3c 6a 14 7f 3d a6 fb 3c bd
       -0.012667144 0.014713235 0.062275328 -0.04613843
000010 6f 1c a6 bd b4 4c 0f 3c a4 fd fb bc 67 eb 91 bd
       -0.08110892 0.008746315 -0.030760594 -0.071249776
000020 2b 56 06 3d d1 0f 0b 3d 31 6e be 3d 56 00 a2 bd
       0.03279702 0.03395063 0.09298361 -0.0791022
000030 ff d6 b5 bd 2e 69 a1 3c 91 c5 99 3c cd 1c 35 3d
       -0.08878898 0.019703474 0.018770965 0.04421692
000040 5e c4 a2 3d 52 e1 33 3c da 8c 84 3d e9 af b9 bd
       0.0794761 0.0109790135 0.06472178 -0.09066755
000050 aa e0 3f 3d dc ea 92 bd 2c 4c 59 bc c3 35 6e ba
       0.046845116 -0.07173702 -0.01326279 -0.00090869906
000060 df 30 12 bd c2 1f 98 ba ce f1 70 3c 6a d5 3d 3c
       -0.03569114 -0.0011606144 0.014706088 0.011586526
000070 20 77 38 3c 79 4f 3b bd 7e eb 99 bd 00 73 23 bd
       0.01125887 -0.045730088 -0.0751562 -0.039904594
000080 64 36 a9 3d 99 38 66 3c dd 2c 42 3c 4d 0e bc 3d
       0.08262327 0.01405158 0.011851517 0.09182415
000090 52 d8 6f bd e2 af b3 3d 7e 04 96 bd f2 d8 86 3d
       -0.05855591 0.08773781 -0.073250756 0.06584348
0000a0 a6 9d a1 bb a8 85 b3 bc 8c aa e5 bc 46 f3 bc 3d
       -0.0049321232 -0.021914318 -0.028035425 0.09226088
0000b0 eb 99 aa bd f9 6b a2 3d b7 86 54 bd b2 a4 5e bc
       -0.08330139 0.079307504 -0.051886287 -0.013589071
0000c0 56 12 99 3d 9b e2 81 bd 0c f6 8b 3c 23 af 03 3d
       0.074742004 -0.0634205 0.017085098 0.032149445
0000d0 76 c8 a6 bd a5 9f 59 bc bd 9c 81 bd 88 d3 e5 3b
       -0.08143704 -0.013282691 -0.063287236 0.007013742
0000e0 c8 e6 e6 bc ff 36 38 39 89 0a 10 bd 57 47 2c bd
       -0.028186217 0.00017568095 -0.035166297 -0.042060222
0000f0 83 37 7b bc 5d f0 1a 3a d8 b4 79 bd 10 56 39 bb
       -0.015333059 0.0005910451 -0.06096348 -0.0028280057
000100 08 14 4e 3c cb af 8b 3d 08 6e 1f 3d a8 c5 a0 3c
       0.012578018 0.06820639 0.038923293 0.0196255
000110 9e d0 c6 3c c3 6a 87 bd 81 b1 f0 3c 9a 18 50 bd
       0.024269398 -0.0661216 0.029381515 -0.050804712
000120 7b 48 36 3d e7 55 bf bd 8a df b0 bb 44 91 08 bd
       0.044502717 -0.093425564 -0.0053977417 -0.03334166
000130 c8 5f 1d bd d0 7b 0f 3d e4 66 8a 3d 95 5a a7 3c
       -0.038421422 0.035030186 0.06757906 0.020428935
000140 8e e0 78 ba e9 75 b5 bd 1a f9 83 3b 22 ce e8 bc
       -0.00094939105 -0.0886038 0.004027498 -0.028418604
000150 c5 36 80 bc 09 4a 8e 3d 8d d3 a2 3d 13 10 12 3d
       -0.015651116 0.06947715 0.07950506 0.03565986
000160 77 17 dc 3b 64 c4 99 3d b8 4f 88 bd d7 82 aa 3d
       0.0067166644 0.07508162 -0.0665583 0.08325737
000170 86 a5 a1 bd e5 e4 84 3b 80 5d 4e bd 4d 1e 3b 3d
       -0.07892899 0.0040556067 -0.050382137 0.045683194
000180 19 67 8e bd 99 82 b5 bd 3c b5 86 3d e0 09 37 bc
       -0.06953258 -0.088628 0.065775365 -0.011171788
000190 b3 70 b6 bd 62 fc 1b bd c2 a6 07 bc 95 18 92 3d
       -0.089082144 -0.038082488 -0.008279504 0.07133595
0001a0 2f 21 af bd 9d d2 c1 bc ea a6 93 bd d5 60 ad bd
       -0.08551251 -0.023659999 -0.07209571 -0.08465735
0001b0 24 14 54 3d c7 7f 38 bb 92 1a ff 3c c0 f1 32 bd
       0.05177702 -0.0028152333 0.0311406 -0.043687582
0001c0 49 24 32 bc 59 9d 06 bd 7a c2 e1 3c 9a f0 aa 3d
       -0.010872909 -0.032864902 0.027558554 0.08346672
0001d0 bd 04 7b bc e0 43 62 3c 78 8f 3b 3c a7 f9 51 3c
       -0.015320954 0.013810128 0.01144778 0.012815869
0001e0 2c e3 60 3c 07 b0 c7 bb 9b cf 51 3c 5a fd b0 bd
       0.013726037 -0.006093982 0.012805845 -0.08642073
0001f0 aa d8 15 bb 14 07 9f bd c7 ca 22 bc aa 98 9e bd
       -0.0022864738 -0.07765022 -0.009936041 -0.07743962
000200 57 ff 9a bd 2b bc a0 3d ee cf c1 3c 9d 33 39 3c
       -0.075682335 0.0784839 0.023658719 0.0113038095
000210 b6 aa 9d 3d c5 1e 06 3d 9e d1 1e 3d 41 dc 8b bd
       0.07698576 0.032744188 0.038774125 -0.068291195
000220 2c 88 bf 3d fc 19 3c bd 0d 6f 86 3c 27 6d 33 3d
       0.093521446 -0.045923218 0.016410375 0.043805268
000230 29 77 b6 3d b8 d6 13 3d 7d 43 a7 bd 55 e0 35 3c
       0.08909447 0.036093444 -0.08167169 0.011100848
000240 bb 82 92 bc f2 20 9e bc b0 1e 9d 3d 81 f9 d5 3c
       -0.017884603 -0.019302819 0.07671869 0.02611995
000250 4f 98 75 3d 6c 75 c1 3c 8a b5 19 3d 37 c9 a0 3b
       0.059959706 0.023615561 0.037526645 0.004906799
000260 85 26 56 bd 92 35 cd bb 72 f8 85 3c 23 45 85 bd
       -0.05228283 -0.0062624896 0.01635382 -0.065073274
000270 b6 53 23 3d 7f a3 62 bd 72 84 9b 3d 90 ee 0b bd
       0.039874755 -0.055331703 0.07593621 -0.034163058
000280 28 da 8d bd 69 39 03 3d e5 27 8a bc 62 31 fb 3c
       -0.06926376 0.032037172 -0.016864726 0.030663196
000290 b9 50 82 3c 5d 51 aa bd 34 21 68 bd 3f 3c 87 bd
       0.015907632 -0.083163 -0.05667229 -0.06603288
0002a0 bc 52 6d 3c 22 88 bc 3d 6d ab 1c bd 49 e1 8b bd
       0.014485057 0.09205653 -0.038249422 -0.06830079
0002b0 94 05 03 bd 28 db 18 bd 33 5c 74 3a 07 92 3c 3d
       -0.03198774 -0.03731838 0.00093216 0.0460377
0002c0 39 f2 30 bc 35 2e 4b 3d fa 1b 30 bc 75 5b 57 bd
       -0.010799938 0.049604613 -0.010748858 -0.052577455
0002d0 e4 6c 14 3d fd b7 18 bc 0b 30 34 3d dd b1 18 bb
       0.03623666 -0.00932121 0.04399113 -0.0023299374
0002e0 61 47 f2 3b 73 f0 91 3d ff 6a 6d bd 5f 1f c3 3d
       0.007393763 0.0712594 -0.057963368 0.09527468
0002f0 a7 c3 f0 bd 34 de 87 bd ea ae 48 3a 5e 6f b4 bd
       -0.11756068 -0.06634179 0.0007655459 -0.08810304
000300 18 20 07 3c 09 45 a4 3d 0b 5c a2 bc 90 8f 21 bd
       0.008247398 0.0802098 -0.01981928 -0.039443552
000310 95 ce 27 bd 54 77 99 3d 09 e0 92 bb ec 6b 20 bc
       -0.040968496 0.07493463 -0.0044822735 -0.009791356
000320 60 d4 47 3c 5a d0 af 3d cb b2 d8 3c 30 44 88 3c
       0.01219663 0.08584662 0.026452443 0.016634077
000330 aa c6 45 3c e3 44 11 bd b8 70 18 bc a0 36 bd 3d
       0.012071291 -0.035466086 -0.009304218 0.092389345
000340 22 2a af bd 49 d4 98 3d 5b 00 82 3d aa e0 af 3d
       -0.08552958 0.07462365 0.06347724 0.08587773
000350 4b 5e 0a bd 71 4e a5 bd 8c c7 f7 3c bb 2d 4a bb
       -0.03378133 -0.08071602 0.030246519 -0.0030850011
000360 0c 00 b4 3c 5e 69 97 3c be 04 17 3c 5b f5 13 bd
       0.021972679 0.01848286 0.009217439 -0.03612266
000370 14 5f 74 3a 07 7d 33 bd b4 68 a4 3c e6 fe aa bd
       0.0009322029 -0.043820407 0.020069458 -0.08349399
000380 f5 9a 46 3c 01 fd af ba 08 4d 8a 3d da 16 56 bd
       0.012121906 -0.0013426841 0.06752974 -0.052267887
000390 81 be 6e bd af 0b 9d bd 7e 76 91 3d 47 1d 11 bd
       -0.058287147 -0.07668244 0.07102679 -0.03542831
0003a0 8d e3 a6 3c d8 a0 9d bd ee 1f 98 bd 29 42 b8 bc
       0.020372177 -0.07696694 -0.07427965 -0.022492485
0003b0 b9 e0 39 bd 24 9e 33 3b 1d 6b 85 3d 72 99 6f 3c
       -0.045380328 0.0027407492 0.06514571 0.014623987
0003c0 2a 9c 9d bd 76 55 3a 3c 83 05 b3 3d e5 8d 0f 3c
       -0.076958016 0.011372915 0.08741286 0.008761858
0003d0 22 d7 be bc 79 13 5e 3c 4f 0a 86 bd 23 8a 12 3d
       -0.023295943 0.013554447 -0.06544935 0.03577627
0003e0 4f 94 d6 3a 80 90 4e 3b 3c 5c 45 3d ce 9e aa bd
       0.0016371104 0.0031519234 0.048183665 -0.08331071
0003f0 1b 55 8c 3d 6c 75 e9 3c be f9 65 bc f8 c4 8d 3c
       0.0685217 0.028498374 -0.014036594 0.017305836
